30_20_1_199_sw(10000)_1_0.25_v0.pth (torch, 93930 bytes, 30 tensors)

feature_extract.mlps.0.linears.0.weight f4 [64, 2]
0	0xbe9b9129	-0.30384186
1	0x3ed568c6	0.41681498
2	0x3f005a65	0.5013793
3	0xbe71ed02	-0.23625568
4	0x3d817eee	0.06323038
5	0xbede534d	-0.43422928
6	0xbf0a6bf5	-0.5407098
7	0x3eaf4c7d	0.34238043
8	0x3f051936	0.51991594
9	0xbc133fbb	-0.0089873625
10	0xbf32addc	-0.6979654
11	0xbe48069d	-0.19533773
12	0xbed66477	-0.41873524
13	0xbe490717	-0.19631611
14	0xbe4b7dd4	-0.19872218
15	0xbf1775cb	-0.5916411
16	0xbec43a14	-0.3832556
17	0x3e92fb74	0.28707469
18	0xbeb7d0b8	-0.35901427
19	0xbea957dc	-0.33074844
20	0xbecaafac	-0.39587152
21	0x3f0de2cd	0.55424196
22	0xbea03774	-0.31292307
23	0xbe5dd66e	-0.2166383
24	0xbe0a6e24	-0.13518578
25	0x3f2b646c	0.66950107
26	0xbed43fbd	-0.41454878
27	0x3e7c5c15	0.24644502
28	0x3f1c6fe5	0.6110824
29	0x3e13985d	0.1441359
30	0x3f346333	0.70463866
31	0xbeb068b7	-0.3445489
32	0x3f0a8d8a	0.5412222
33	0xbf1e6928	-0.61879206
34	0x3ec86f0c	0.39147222
35	0xbf05d150	-0.5227251
36	0xbf0f02ec	-0.55863833
37	0x3dfc7cb1	0.123284705
38	0xbb95066b	-0.004547884
39	0x3e689420	0.22712755
40	0x3c6b5ebf	0.014365851
41	0x3c771e46	0.015082901
42	0xbeb22ede	-0.34801382
43	0x3e64970b	0.22323243
44	0xbe5d35d8	-0.21602571
45	0x3e10285a	0.14077893
46	0x3c73d303	0.014881852
47	0xbd437af5	-0.047724683
48	0xbe9f540a	-0.31118804
49	0x3f01fb5d	0.50774175
50	0xbf22553c	-0.6341131
51	0xbc76f097	-0.0150720095
52	0x3ec52442	0.38504225
53	0xbe327655	-0.17427953
54	0x3ef43ba9	0.47701767
55	0xbef70cb6	-0.48251885
56	0xbf18a8e4	-0.59632707
57	0xbeac9cd1	-0.3371339
58	0xbf057daf	-0.521449
59	0xbcabff17	-0.02099566
60	0xbe8eb562	-0.2787276
61	0x3e6d190e	0.23154089
62	0x3ede7de2	0.43455416
63	0x3e02698b	0.12735574
64	0xbcd94c1a	-0.026525546
65	0xbe847e4f	-0.25877616
66	0xbeb82f27	-0.35973474
67	0x3f0e216e	0.5551976
68	0x3f060493	0.5235073
69	0x3eb14568	0.34623265
70	0xbea49523	-0.32145032
71	0xbe8435c5	-0.25822273
72	0x3da2816d	0.07934842
73	0x3d4d2c30	0.05009097
74	0xbd25c566	-0.040471457
75	0xbedfa4dd	-0.43680468
76	0xbef16ccb	-0.47153315
77	0x3ebcdd24	0.36887467
78	0x3ece4f88	0.40295053
79	0x3f0f935c	0.5608423
80	0x3f2b3755	0.66881305
81	0xbe1e7891	-0.1547568
82	0xbd625238	-0.05525419
83	0x3d009201	0.03138924
84	0x3e1d74cc	0.15376586
85	0x3e0800ed	0.13281603
86	0x3d170945	0.036874074
87	0xbea7bfab	-0.3276342
88	0xbc54652e	-0.012963576
89	0x3ec1e4a5	0.37869754
90	0x3ea72246	0.32643336
91	0x3f22ea2f	0.63638586
92	0x3ea54418	0.32278514
93	0xbf2b87ac	-0.67003894
94	0x3e97dc66	0.29660338
95	0xbf0ca337	-0.54936546
96	0x3f0d5974	0.5521462
97	0xbf0e96d6	-0.5569891
98	0xbf0dc27d	-0.5537489
99	0x3e28da9a	0.1648964
100	0x3e0c4630	0.1369865
101	0x3f022d4e	0.5085038
102	0xbee9342b	-0.45547614
103	0x3f0f0006	0.5585941
104	0x3ded45ae	0.11585556
105	0xbe03ba91	-0.12864138
106	0xbf006c22	-0.50165
107	0x3eaebdbb	0.34129128
108	0x3dc19dcc	0.094539255
109	0x3f0e496b	0.55580777
110	0xbed5e544	-0.41776478
111	0x3f1731a9	0.5906015
112	0xbef319c4	-0.47480595
113	0xbed4fdec	-0.41599977
114	0x3ec94214	0.39308226
115	0xbdbbba9c	-0.09166452
116	0xbedd792f	-0.43256518
117	0xbd4b1598	-0.04958114
118	0x3f30f342	0.6912118
119	0xbd040722	-0.032233365
120	0x3e7b2fcd	0.24529953
121	0xbe27129d	-0.16315694
122	0x3e259469	0.16169895
123	0x3f307254	0.6892445
124	0x3eb08a6b	0.34480605
125	0xbefaf96a	-0.49018413
126	0xbed784a6	-0.4209339
127	0xbdd3613a	-0.10321279

feature_extract.mlps.0.linears.0.bias f4 [64]
0	0x3ea42ffe	0.32067865
1	0xbec79884	-0.38983548
2	0xbd4a0700	-0.049323082
3	0x3eb2d749	0.34929875
4	0xbeb36a9f	-0.35042283
5	0xbec5dcff	-0.3864517
6	0x3c2cce10	0.010547176
7	0xbf144246	-0.57913625
8	0x3e95cfba	0.29260045
9	0xbe48d640	-0.1961298
10	0x3f0fffd5	0.56249744
11	0x3d5f0b82	0.054454334
12	0x3eadf350	0.33974695
13	0xbdfb3d51	-0.122675546
14	0xbe813caa	-0.25241596
15	0xbe9c0265	-0.30470577
16	0x3eaf3c54	0.34225714
17	0x3f23e68a	0.6402365
18	0x3e82b259	0.25526693
19	0xbe28f88c	-0.16501063
20	0x3ec01917	0.37519142
21	0xbf0931c9	-0.5359159
22	0xbf1b80e2	-0.60743535
23	0xbe6d5dc5	-0.23180301
24	0x3ea07eb6	0.31346673
25	0xbd97a7b9	-0.074050374
26	0xbef90e2b	-0.48643622
27	0xbf15d580	-0.585289
28	0x3eb4aaa0	0.35286427
29	0xbebc68ad	-0.3679861
30	0xbe93bab7	-0.2885339
31	0x3f21b3f4	0.6316521
32	0x3dd03e24	0.101681024
33	0xbed3221f	-0.4123697
34	0x3d6f5364	0.058429137
35	0x3ec69243	0.38783464
36	0xbea9c412	-0.33157402
37	0xbee2cd2e	-0.44297165
38	0xbf29a4e8	-0.6626725
39	0xbf1a1a19	-0.6019607
40	0xbf076e5a	-0.5290276
41	0x3ebc9170	0.3682971
42	0x3d7f307b	0.062302094
43	0x3e5d0390	0.2158339
44	0x3ecd2e5d	0.40074435
45	0x3f22f724	0.63658357
46	0xbe40f1b3	-0.18842201
47	0x3f220035	0.63281566
48	0x3de41110	0.11136067
49	0x3f10e5ad	0.5660046
50	0xbf289eec	-0.65867496
51	0xbe9f68a0	-0.3113451
52	0xbe8851e1	-0.2662497
53	0x3f040e29	0.51584107
54	0x3ed50298	0.4160354
55	0xbf31ef95	-0.695062
56	0xbecc9860	-0.39960003
57	0xbf0c6acc	-0.5485046
58	0xbf321bca	-0.6957365
59	0xbf286471	-0.6577826
60	0x3eac20ee	0.33618873
61	0x3e7dea6b	0.24796455
62	0xbd67fd5c	-0.056638107
63	0xbd00532e	-0.031329326

feature_extract.mlps.0.linears.1.weight f4 [64, 64]
0	0xbd8c95e4	-0.06864527
1	0x3d881eca	0.066464975
2	0xbddc3576	-0.10752384
3	0xbdbfde61	-0.09368587
4	0xbdd09aa9	-0.10185749
5	0xbd5a3d4d	-0.053281117
6	0xbdc3e2b0	-0.095647216
7	0x3da559ff	0.08073806
8	0xbdf77b01	-0.12084008
9	0x3c80a3e2	0.015703145
10	0x3ccb21a7	0.02479632
11	0x3b8fc1dc	0.0043871235
12	0x3d788e71	0.060682718
13	0x3df0a926	0.117510125
14	0x3d8877d3	0.0666348
15	0x3d033f00	0.032042503
16	0xbd479c49	-0.04873303
17	0xbc600f0e	-0.013675464
18	0x3df3b2b5	0.1189932
19	0x3d3ec265	0.046572108
20	0xbd09dd10	-0.033658087
21	0xbc66217c	-0.014046069
22	0xbddfb435	-0.10923044
23	0xbdcc3db2	-0.09972705
24	0x3d91e4a6	0.07123689
25	0x3c946c07	0.018117918
26	0x3dbf3f95	0.09338299
27	0x3da39471	0.07987297
28	0xbc79c674	-0.015245069
29	0x3ddf415e	0.1090114
30	0x3d1c53de	0.03816592
31	0x3dbceff4	0.09225455
32	0x3da3ba6c	0.079945415
33	0x3de62b63	0.11238744
34	0xbda5c098	-0.08093375
35	0xbc5eeedd	-0.013606754
36	0x3d8930dc	0.06698772
37	0xbde0c1ae	-0.109744415
38	0x3cca2aa1	0.02467853
39	0xbddaab3b	-0.10677191
40	0xbd694b58	-0.05695662
41	0xbd4dbd28	-0.05022922
42	0xbd79c8db	-0.060982566
43	0x3d0c950c	0.03432183
44	0x3dccee54	0.10006395
45	0xbddd6da1	-0.10811926
46	0x3dacacab	0.08431371
47	0xbd3c4513	-0.04596431
48	0xbc2abc5f	-0.010420888
49	0xbc9dc03d	-0.019256705
50	0xbcd59430	-0.026071638
51	0xbbc0bcef	-0.0058818976
52	0xbd0af757	-0.033927288
53	0xbdaabcf6	-0.08336823
54	0x3b761a16	0.003755217
55	0x3d5aa9d2	0.05338461
56	0x3cddb262	0.027062599
57	0x3d8a39aa	0.0674928
58	0xbd07e81f	-0.033180352
59	0x3c40812a	0.011749545
60	0x3dab4d16	0.08364312
61	0x3def3a04	0.116809875
62	0xbdf56253	-0.119816445
63	0x3dc5219c	0.09625551
64	0x3db6ce52	0.08926071
65	0xbdb00eed	-0.08596597
66	0xbd336615	-0.043798525
67	0x3d37464b	0.04474477
68	0x3d9650ca	0.07339628
69	0xbdf7b4d7	-0.12095039
70	0x3bc543b9	0.006020036
71	0xbc010e1e	-0.007876901
72	0xbc2700a1	-0.010193021
73	0x3dc7444b	0.09729823
74	0x3b7ee3ba	0.003889306
75	0xbd6b017c	-0.057374462
76	0x3db8ca35	0.09022943
77	0xbd135fb2	-0.035979934
78	0x3da70d85	0.081568755
79	0x3dd3f4ae	0.10349403
80	0x3d333194	0.043748453
81	0xbda3b1c0	-0.079928875
82	0xbd6f976a	-0.05849401
83	0xbdcac3cd	-0.09900627
84	0xbd935d9d	-0.0719559
85	0xbdf70adc	-0.12062618
86	0x3a72be11	0.00092598895
87	0xbd4a770f	-0.04942995
88	0x3dd8ff5a	0.105955794
89	0x3cc1547e	0.02359986
90	0xbd68414b	-0.056702893
91	0xbe00906a	-0.1255509
92	0x3d6a5411	0.05720908
93	0xbde7a257	-0.11310261
94	0xbd463e75	-0.048399407
95	0x3d36a266	0.04458847
96	0x3d628873	0.05530591
97	0xbd212cef	-0.039349493
98	0x3d9cb636	0.076519415
99	0xbd88fabb	-0.06688448
100	0xbda62106	-0.081117675
101	0x3d9e4805	0.077285804
102	0x3b731459	0.0037090986
103	0x3d2875f2	0.041128106
104	0x3c3a54b3	0.011372733
105	0x3d123551	0.035695378
106	0xbda8fa3e	-0.08250855
107	0x3d12814a	0.03576783
108	0xbc9f9703	-0.019481188
109	0xbdb47c25	-0.08812741
110	0x3def3402	0.116798416
111	0x3d9523f0	0.07282245
112	0xbb19a894	-0.0023446428
113	0x3dec5dc9	0.115413256
114	0xbdf3dcb8	-0.11907333
115	0x3da966a2	0.08271529
116	0xbbcc99ad	-0.0062439055
117	0xbda8f315	-0.08249489
118	0x3dfc5550	0.123209596
119	0x3dddbe77	0.10827344
120	0xbd635d57	-0.055508938
121	0xbd88c91e	-0.06678985
122	0xbd539308	-0.05165389
123	0xbd3f0dd7	-0.046644058
124	0x3d049b6a	0.032374777
125	0x3d4752d8	0.04866299
126	0x3ca97e12	0.020689998
127	0xbdfe5ddf	-0.12420248
128	0xbda749d0	-0.081683755
129	0xbd30fe42	-0.04321123
130	0xbc5db1f0	-0.013531193
131	0xbc23c6a1	-0.009996087
132	0xba024da3	-0.0004970675
133	0xbc7d55d8	-0.015462361
134	0xbdb15664	-0.08659056
135	0x3d368143	0.044556867
136	0xbdcb8acf	-0.09938585
137	0xbdbb99e7	-0.09160214
138	0x3bfe623c	0.0077631753
139	0x3df97ad2	0.12181629
140	0xbd514b14	-0.05109699
141	0xbdd76c80	-0.105187416
142	0xbadcca97	-0.0016845044
143	0x3d4b84c2	0.049687155
144	0x3d1f9e60	0.038969398
145	0xba93920a	-0.0011258733
146	0xbd97e62a	-0.07416947
147	0x3b931097	0.0044880616
148	0x3c15cb27	0.009142674
149	0xbde2f01d	-0.11080954
150	0x3d3a2c5a	0.045452453
151	0x3cf96d83	0.030447727
152	0x3d2eb18d	0.042649794
153	0x3db7b6b4	0.08970395
154	0xbd6489c9	-0.055795465
155	0x3d667c35	0.056270797
156	0x3dcd9e6a	0.10039981
157	0xbdef147b	-0.11673828
158	0xbddab82c	-0.10679659
159	0x3c3c5115	0.011493941
160	0xbd42d433	-0.04756565
161	0x3d8f6b6f	0.07002913
162	0x3dfe3cb1	0.1241392
163	0xbbe0187b	-0.006838856
164	0x3c4891d3	0.012241798
165	0xbda1c8cc	-0.07899627
166	0x3de71fe1	0.11285377
167	0xbcfa494e	-0.030552533
168	0xbda4cac0	-0.08046484
169	0xbdf811f6	-0.12112801
170	0xbd9af4a0	-0.0756619
171	0xbc3606b8	-0.01111
172	0xbd816e8f	-0.063199155
173	0xbab69bf9	-0.0013931982
174	0x3b9fc77f	0.0048760767
175	0xbbaa7f34	-0.005203152
176	0x3c052ed5	0.008128841
177	0xbc404f21	-0.011737616
178	0x3d83be77	0.06432813
179	0xbdf1301b	-0.117767535
180	0xbdabc982	-0.08388044
181	0xbc95b362	-0.018274013
182	0xbd89b54f	-0.06724035
183	0x3da64b4b	0.0811983
184	0x3db3f8ba	0.08787675
185	0x3cecf0fa	0.0289235
186	0xbd1d1fd4	-0.03836043
187	0xbbd1efd9	-0.006406766
188	0x3dc2efef	0.0951842
189	0x3c14c316	0.009079715
190	0x3dcc518f	0.099764936
191	0x3ddec1f4	0.108768374
192	0x3c9fa1ff	0.019486425
193	0x3dce0588	0.10059649
194	0xba2e8389	-0.00066571735
195	0xbc811fc5	-0.01576222
196	0xbb38ac32	-0.0028178808
197	0xbdd03989	-0.10167224
198	0x3ddd4751	0.10804618
199	0x3e03ee73	0.1288393
200	0xbc940db5	-0.018072942
201	0xbda0d18a	-0.078524664
202	0xbd225a81	-0.039637093
203	0x39684b69	0.00022153337
204	0xbdd3f0fb	-0.10348698
205	0x3d524f99	0.05134544
206	0xbd95983e	-0.073044285
207	0x3da04009	0.07824714
208	0x3d02aad7	0.031901207
209	0x3dbcd1f3	0.09219732
210	0x3d869af3	0.06572523
211	0x3dc68fc2	0.096953884
212	0x3dde0993	0.1084167
213	0x3d94b0f8	0.072603166
214	0xbd9b0721	-0.07569719
215	0xbd8c5639	-0.06852383
216	0x3d41910e	0.047257476
217	0x3de5940d	0.11209879
218	0xbd88cefd	-0.06680105
219	0xbd9423c8	-0.07233387
220	0xbdeca1f0	-0.115543246
221	0x3d077e16	0.03307923
222	0xbda6ace5	-0.08138446
223	0xbd75a08f	-0.059967574
224	0x3d243ff1	0.04010004
225	0xbd9124f5	-0.07087127
226	0x3dc0418b	0.09387501
227	0xbbc8a70c	-0.006123429
228	0x3cdd805b	0.027038744
229	0x3d2ae594	0.04172285
230	0x3c179ba6	0.009253418
231	0x3d95d4e2	0.07315995
232	0xbdd65f40	-0.10467386
233	0x3da80a0e	0.08205043
234	0x3d595821	0.053062562
235	0x3c8f530a	0.01749565
236	0x3d82c149	0.063845225
237	0x3dc4dac0	0.09612036
238	0xbd58fa33	-0.052972984
239	0x3dfc9e6c	0.12334904
240	0xbc706ab8	-0.014673881
241	0xbdda9a66	-0.106739804
242	0x3d578c7a	0.052624203
243	0xbd97fe15	-0.07421509
244	0x3c8bd2a0	0.017068207
245	0xbdb65fa2	-0.08904959
246	0x3c7cce36	0.015430024
247	0x3c71e24d	0.014763427
248	0xbdda841e	-0.106697306
249	0xbd407d32	-0.046994396
250	0xbd3978d6	-0.045281254
251	0xbdb7c145	-0.0897241
252	0x3d21e3f6	0.03952404
253	0xbd4baf05	-0.04972746
254	0x3c8852a7	0.016640974
255	0x3d907422	0.070534006

feature_extract.mlps.0.linears.1.bias f4 [64]
0	0x3d282077	0.041046586
1	0x3d53d6a3	0.051718365
2	0x3c2340a5	0.009964143
3	0x3dd224b4	0.10260907
4	0xbdb6eb2f	-0.089315765
5	0x3cfc4b84	0.030797727
6	0x3ce9fb75	0.028562287
7	0x3cb9c489	0.022676723
8	0x3da8640e	0.08222209
9	0x3dd792d5	0.10526053
10	0x3db1668d	0.08662138
11	0xbca55a1f	-0.020184575
12	0x3ddfc502	0.10926248
13	0x3d48c4b0	0.0490157
14	0x3d2815c5	0.041036386
15	0x3b59dbef	0.0033242663
16	0xbd77c8eb	-0.060494345
17	0x3d96b0c1	0.07357932
18	0x3d0e5f41	0.03475881
19	0x3cbb47ca	0.02286138
20	0xbd25615e	-0.04037606
21	0x3de3cf7c	0.11123559
22	0x3dab991e	0.08378814
23	0x3df27d26	0.118402764
24	0xbce1ca15	-0.02756218
25	0x3d3930e6	0.04521265
26	0xbd429737	-0.04750749
27	0x3dbd4d85	0.09243301
28	0x3ddd187e	0.10795687
29	0x3d197c6f	0.037472185
30	0x3dd4fafc	0.10399434
31	0xbdc0565d	-0.093914725
32	0x3d0e48d7	0.034737434
33	0x3d857a69	0.065174885
34	0xbdac20e9	-0.084047146
35	0xba858b99	-0.0010188698
36	0x3d8a1623	0.067425035
37	0xbd22f3ca	-0.039783277
38	0xbdaf2c20	-0.08553338
39	0x3d8f0696	0.06983678
40	0xbdbe3f89	-0.09289462
41	0xbb787a57	-0.0037914717
42	0x3de65351	0.1124636
43	0xbd085332	-0.033282466
44	0xbc325d2f	-0.0108864745
45	0x3d015f8e	0.03158527
46	0xbddf6431	-0.10907782
47	0xbddf7a80	-0.10912037
48	0xbd2f81e8	-0.042848498
49	0x3ce442ad	0.027863825
50	0x3dfc6b94	0.123252064
51	0x3d1ef04c	0.038803384
52	0xbdfd2984	-0.12361434
53	0x3db20fe4	0.08694437
54	0xbd43be56	-0.04778894
55	0x3c3a311c	0.011364248
56	0x3db466ab	0.08808645
57	0x3d8b22e0	0.06793761
58	0x3d622537	0.055211272
59	0x3d050858	0.03247866
60	0xbdd50792	-0.104018345
61	0xbce4a343	-0.02790988
62	0x3dd744af	0.10511147
63	0xbdf9e112	-0.12201132

feature_extract.mlps.0.batch_norms.0.weight f4 [64]
0	0x3f7e627e	0.9936904
1	0x3f802e4c	1.0014129
2	0x3f803697	1.001666
3	0x3f7e9533	0.9944641
4	0x3f7e2499	0.99274594
5	0x3f807695	1.0036188
6	0x3f8064a3	1.0030712
7	0x3f800d13	1.000399
8	0x3f806165	1.0029722
9	0x3f800256	1.0000713
10	0x3f8044f5	1.0021044
11	0x3f80023a	1.000068
12	0x3f806de7	1.003354
13	0x3f802d0d	1.0013748
14	0x3f807030	1.0034237
15	0x3f806338	1.0030279
16	0x3f7ef29c	0.9958894
17	0x3f7ec222	0.99514973
18	0x3f800980	1.0002899
19	0x3f7f633b	0.9976079
20	0x3f80f4fa	1.0074761
21	0x3f8016b3	1.0006927
22	0x3f7f64ea	0.9976336
23	0x3f80202c	1.0009818
24	0x3f809518	1.00455
25	0x3f7f8798	0.99816275
26	0x3f8096da	1.0046036
27	0x3f800a82	1.0003207
28	0x3f7fbee3	0.99900645
29	0x3f80762f	1.0036067
30	0x3f807c1a	1.0037873
31	0x3f801c87	1.0008706
32	0x3f807055	1.0034281
33	0x3f7e9ec0	0.99460983
34	0x3f80305e	1.001476
35	0x3f800818	1.000247
36	0x3f7f0549	0.9961744
37	0x3f8030ea	1.0014927
38	0x3f8023fa	1.0010979
39	0x3f7f586d	0.997443
40	0x3f7e1cd7	0.99262756
41	0x3f809664	1.0045896
42	0x3f7fbdc2	0.9989892
43	0x3f801369	1.0005924
44	0x3f7f5e3c	0.99753165
45	0x3f7f95e7	0.9983811
46	0x3f80ae20	1.0053139
47	0x3f804206	1.0020149
48	0x3f8008c6	1.0002677
49	0x3f7fb7b9	0.99889714
50	0x3f802244	1.0010457
51	0x3f806f4c	1.0033965
52	0x3f7fdcdb	0.99946374
53	0x3f80094c	1.0002837
54	0x3f7f9457	0.99835724
55	0x3f7ed3ec	0.9954212
56	0x3f8087eb	1.0041479
57	0x3f809690	1.0045948
58	0x3f7f7bfd	0.99798566
59	0x3f7f0b63	0.9962675
60	0x3f7f3088	0.9968343
61	0x3f7fb8b7	0.9989123
62	0x3f7ec52e	0.9951962
63	0x3f80147b	1.000625

feature_extract.mlps.0.batch_norms.0.bias f4 [64]
0	0xbac3e2d1	-0.0014944916
1	0xba75c6d2	-0.0009375635
2	0x39a0b63f	0.00030653362
3	0xbac069ee	-0.0014680007
4	0x3b055afd	0.0020348423
5	0x3b5756da	0.0032858164
6	0x3bd0363e	0.0063541224
7	0x39a1b234	0.00030841085
8	0x3b481b5d	0.0030533888
9	0x3aa07717	0.0012242523
10	0xbb739392	-0.0037166816
11	0xbb45f2a0	-0.003020443
12	0x3bab9ec2	0.0052374313
13	0x3b631c0d	0.003465417
14	0x3a823c31	0.0009936151
15	0xbba62150	-0.005069889
16	0x3ac68a85	0.0015147483
17	0x3b5136f9	0.0031923635
18	0xba9a83f4	-0.0011788593
19	0xbb408bb4	-0.0029380145
20	0xbb99dcc9	-0.004695509
21	0xba49b6c0	-0.00076947734
22	0x3a37028e	0.00069812767
23	0xbb70eff4	-0.0036764117
24	0x3b9d4bdc	0.004800303
25	0xbb8ee774	-0.0043610875
26	0x39edd506	0.00045362877
27	0x3b04188a	0.0020156228
28	0xbb109e8f	-0.0022067165
29	0x3b94ff55	0.0045470395
30	0x3ad4d6a2	0.0016238282
31	0x3ae5f6ac	0.0017544827
32	0x3befbe4d	0.007316387
33	0x398dc9ad	0.00027043876
34	0x3b190fa8	0.002335528
35	0xba45425e	-0.0007524843
36	0xbbb6ba3e	-0.005576401
37	0x3acb42d3	0.0015507586
38	0x3b642bef	0.0034816226
39	0xbb99d1b0	-0.004694186
40	0xbbbe963b	-0.0058162487
41	0x3b65d8c4	0.003507183
42	0xbb54381a	-0.0032382072
43	0x3a9653e3	0.0011469092
44	0xbb136122	-0.0022488316
45	0xbad27553	-0.0016056694
46	0x3b7391f4	0.0037165852
47	0x3aaaa476	0.0013018984
48	0x39fde0fe	0.00048423553
49	0xbb6c9dbc	-0.003610476
50	0xba579eb9	-0.00082252506
51	0xba71100e	-0.0009195813
52	0xbb704ba2	-0.0036666174
53	0xbb35ae90	-0.0027722456
54	0xba419fb9	-0.0007386166
55	0xbc14652b	-0.009057323
56	0xbaad736c	-0.0013233251
57	0x3b80f4f6	0.0039354516
58	0x3b2cc96d	0.0026365176
59	0xbb0e6c61	-0.002173208
60	0xbba7641a	-0.0051083686
61	0xba2a9f9c	-0.0006508769
62	0xbba4fcd8	-0.005035024
63	0xbac10f2b	-0.0014729252

feature_extract.mlps.0.batch_norms.0.running_mean f4 [64]
0	0x3f169cca	0.5883299
1	0x3eeec790	0.4663663
2	0xbf8d4952	-1.1038
3	0xbea5051d	-0.32230464
4	0x3f9b9e62	1.215771
5	0xc04572d4	-3.0851336
6	0xbfeaff76	-1.835921
7	0xc038d7ec	-2.8881788
8	0xbd64ace2	-0.055828936
9	0xc00fc079	-2.2461226
10	0x3f717f4f	0.9433488
11	0xbfc361bc	-1.5264201
12	0x3fecd0f0	1.8501263
13	0xbf2f077d	-0.683708
14	0x40021d93	2.033055
15	0x3f5cd53c	0.8626287
16	0x3e623fea	0.22094694
17	0x3eac49ff	0.33650205
18	0xbf8cecca	-1.1009762
19	0x3ef2a1b9	0.4738901
20	0x3eecd129	0.46253327
21	0xbf75be1d	-0.95993215
22	0xbf5d41e5	-0.8642867
23	0xbea595a7	-0.32340738
24	0x3f51e9ab	0.81997174
25	0xc003c7f3	-2.059079
26	0x3e4444aa	0.19166818
27	0xbf02f279	-0.51151234
28	0xc01c4c41	-2.4421542
29	0xc0019a7a	-2.0250535
30	0xbef3f901	-0.47650912
31	0x401503a7	2.328348
32	0xbf392c8c	-0.723336
33	0x3da7b1f2	0.08188237
34	0x402a060e	2.6566195
35	0xbfab59bb	-1.3386759
36	0x3d62ce6a	0.055372633
37	0xbfe9443b	-1.8223947
38	0xbf85ed26	-1.0462997
39	0x400f9c69	2.2439215
40	0x3f897cc7	1.0741204
41	0x3e942277	0.28932545
42	0x3f6a3698	0.91489553
43	0xbf1ceb45	-0.6129649
44	0x3fb98a2d	1.4495293
45	0x405dc76b	3.4652965
46	0xbf901d91	-1.1259023
47	0xbd1b9807	-0.03798678
48	0x3e4df775	0.20113929
49	0xbf27d98f	-0.65566343
50	0x3f9c768f	1.2223681
51	0xbdcdd23a	-0.10049863
52	0xbe8ffecd	-0.28124085
53	0xbd20ecfa	-0.0392885
54	0x40136570	2.3030663
55	0xbe8db127	-0.2767422
56	0xc04325f7	-3.0491922
57	0x3ec889e9	0.39167717
58	0xc00a6b43	-2.1627967
59	0x3faedcf4	1.366118
60	0x3f1e4cc0	0.6183586
61	0x402e58ec	2.7241774
62	0xbed1c8ff	-0.4097366
63	0xbfcef76b	-1.6169256

feature_extract.mlps.0.batch_norms.0.running_var f4 [64]
0	0x3ea26bb4	0.31722796
1	0x3f590fa6	0.847895
2	0x3d43e48c	0.04782538
3	0x3f7b3a99	0.9813629
4	0x3f710e25	0.9416221
5	0x3fe0f2b1	1.7574064
6	0x3f266c71	0.6500922
7	0x3e8585f4	0.2607876
8	0x3efc1dc5	0.49241462
9	0x3f047764	0.51744676
10	0x3f0a2dcf	0.5397615
11	0x3ec0e42e	0.37674087
12	0x3e0a8b7a	0.13529769
13	0x3f13cb0c	0.577317
14	0x3fab6dea	1.3392918
15	0x3fd63670	1.6735363
16	0x3f7dcd5d	0.99141484
17	0x3f066bda	0.5250832
18	0x3f88b339	1.0679694
19	0x3c3edf98	0.011649989
20	0x3a5ed9e6	0.00085010973
21	0x3ed01cdc	0.40647018
22	0x3e2059c8	0.15659249
23	0x3a893c0d	0.0010470167
24	0x3eaebc4e	0.3412804
25	0x3fb40bb2	1.4066069
26	0x3f001dfe	0.50045764
27	0x3f441060	0.76587486
28	0x3fab617e	1.3389127
29	0x3f73edc4	0.95284677
30	0x3e856092	0.2605024
31	0x3f2eb4e4	0.6824477
32	0x3ca7334a	0.020410199
33	0x3ee74ae8	0.45174336
34	0x3f863d0e	1.0487382
35	0x3ecfacd7	0.40561554
36	0x3cc45ae6	0.023969125
37	0x3d66352f	0.056203064
38	0x3f3ed059	0.74536663
39	0x3f38532d	0.72001916
40	0x3fc3c866	1.5295532
41	0x3c2827db	0.0102634085
42	0x3dc040fd	0.093873955
43	0x3ccf3721	0.025294842
44	0x3d0342e0	0.0320462
45	0x3f0a29d9	0.53970104
46	0x3ec7e563	0.39042196
47	0x3ea33682	0.31877524
48	0x3f8354c0	1.0260239
49	0x3f859a1a	1.0437653
50	0x3e19ce21	0.15020038
51	0x3f3499c1	0.7054711
52	0x3d39c797	0.04535636
53	0x3f58158f	0.84407896
54	0x3df8c1b4	0.12146321
55	0x3f1a10bb	0.6018178
56	0x3f65ae70	0.89719296
57	0x3f073d6c	0.528281
58	0x3f294184	0.66115594
59	0x3fd46ae3	1.6595119
60	0x3e4eb600	0.20186615
61	0x3e76c662	0.24099115
62	0x3ed20c6c	0.41025102
63	0x3f22e1ad	0.63625604

feature_extract.mlps.1.linears.0.weight f4 [64, 64]
0	0x3de15032	0.11001624
1	0x3d86b850	0.065781236
2	0x3db8a95d	0.090166785
3	0x3df5a5a3	0.11994483
4	0xbc41f518	-0.01183822
5	0xbd35d610	-0.0443936
6	0xbd8fd324	-0.07022694
7	0x3c5e5809	0.013570794
8	0x3d2fa821	0.04288495
9	0xbd18d6ad	-0.037314106
10	0x3d9676e5	0.07346896
11	0xbe068f6d	-0.1314065
12	0xbde2ef4f	-0.11080801
13	0xbd3c50ca	-0.045975484
14	0xbc64cce9	-0.01396487
15	0xbb40ee5a	-0.0029438944
16	0xbd20ce9a	-0.03925953
17	0xbd1ab951	-0.037774388
18	0xbdaf48df	-0.08558821
19	0x3ccbfb11	0.024899991
20	0x3d8451b3	0.064608954
21	0x3ce22e37	0.027609928
22	0xbd24ca04	-0.04023172
23	0xbd250de3	-0.040296447
24	0x3d9b2acd	0.07576523
25	0xbca742ff	-0.020417688
26	0x3b96cb5e	0.00460188
27	0xbbb1f0d5	-0.0054303207
28	0xbd3db497	-0.046314802
29	0x3d04774e	0.03234034
30	0x3de023ae	0.10944305
31	0x3d75702e	0.059921436
32	0xbd42d92c	-0.047570392
33	0x3ce63003	0.028099066
34	0xbd99c0ff	-0.07507514
35	0x3dc79b7e	0.09746455
36	0xbd250435	-0.040287215
37	0x3da7d565	0.08194999
38	0xbde5ddbd	-0.11223934
39	0x3de7d055	0.11319033
40	0x3ddb083d	0.10694931
41	0x3d747c88	0.059689075
42	0x3db9a731	0.09065092
43	0x3d663a37	0.05620786
44	0x3da319af	0.07963883
45	0x3d9e7f6c	0.077391475
46	0xbd3e980f	-0.046531733
47	0xbdebf2d1	-0.11520923
48	0x3d8478cd	0.064683534
49	0xbdf7bffc	-0.12097165
50	0x3d0c4046	0.034240983
51	0xbd89de8f	-0.06731903
52	0x3d278e75	0.040907342
53	0xbc54695f	-0.012964576
54	0x3dace30b	0.084417425
55	0x3d6f5073	0.05842633
56	0x3a55d725	0.0008157364
57	0xbd968f80	-0.07351589
58	0x3d8868f1	0.06660641
59	0xbd05ed3b	-0.032696944
60	0x3da5a396	0.08087842
61	0x3d8d65ad	0.06904159
62	0xbd1bdd96	-0.038053118
63	0x3d50904e	0.05091887
64	0xbbe73752	-0.0070561552
65	0xbdc15434	-0.094398886
66	0xbdcae6f1	-0.0990733
67	0x3dbb6672	0.09150399
68	0xbcedd59d	-0.029032523
69	0x3e00586d	0.12533732
70	0xbdaa7756	-0.08323543
71	0x3df81a69	0.12114412
72	0xbd05b172	-0.03263993
73	0x3d9ca45e	0.07648538
74	0xbe002cb8	-0.12517059
75	0x3dc391fc	0.09549329
76	0x3d1ed71a	0.038779356
77	0xbd8f1623	-0.06986644
78	0x3d7aaf46	0.06120231
79	0xbd68697e	-0.05674123
80	0x3db4a956	0.08821361
81	0xbca90a82	-0.020634893
82	0xbbcc9f1a	-0.0062445523
83	0x3d607036	0.054794513
84	0xbcfcc2da	-0.030854631
85	0x3d86d09b	0.06582757
86	0xbcc35a40	-0.023846745
87	0xbd4855ec	-0.048910066
88	0xbdd5047c	-0.10401246
89	0x3de6f4df	0.11277174
90	0xbd090766	-0.03345432
91	0x3ddf61fb	0.1090736
92	0x3d0dde7d	0.03463601
93	0xbd8c3491	-0.06845964
94	0x3dcc675b	0.09980651
95	0xbd7d0b9b	-0.061778646
96	0xbba69d3c	-0.0050846618
97	0x3d58a517	0.052891817
98	0xbdca2dd7	-0.098720245
99	0xbbe5efe2	-0.0070171217
100	0xbd5ef8a1	-0.05443633
101	0xbb677dd7	-0.003532281
102	0xbd21b03a	-0.039474703
103	0xbdd55e1c	-0.104183406
104	0xbd6ccaca	-0.057810582
105	0x3c1ca81f	0.009561568
106	0xbca596ad	-0.02021345
107	0xbcd28b86	-0.025701296
108	0x3c05fb11	0.008177535
109	0x3c543b9b	0.012953664
110	0xbd665bd5	-0.05623992
111	0xbd0f0065	-0.034912486
112	0x3dcf35c7	0.10117679
113	0x3d828a58	0.06374043
114	0x3dd6ac27	0.10482054
115	0x3dd20fa3	0.10256889
116	0x3dd26867	0.102738194
117	0x3df2c410	0.11853802
118	0xbd72f56c	-0.059316084
119	0x3d3fe4dd	0.04684912
120	0xbd3df4aa	-0.046375908
121	0xbdaf3ca0	-0.08556485
122	0xbdb07222	-0.08615519
123	0xbdc36561	-0.09540821
124	0x3d3eb6bd	0.04656099
125	0x3d66e0dd	0.05636679
126	0x3d7ad4c7	0.061238077
127	0xbd5c37f5	-0.053764302
128	0xbd7303bd	-0.059329737
129	0x3dba7001	0.09103394
130	0xbd9019d6	-0.07036178
131	0x3da3eed7	0.080045395
132	0xbd85b49c	-0.06528589
133	0xbdca09c9	-0.098651476
134	0xbc189e40	-0.0093150735
135	0x3ddd748f	0.108132474
136	0x3de5cd38	0.11220783
137	0xbdfb9d4b	-0.12285861
138	0x3c8f1348	0.017465249
139	0xbdf8f59e	-0.12156223
140	0xbdb2f258	-0.0873763
141	0x3cd6b28e	0.026208188
142	0xbc175647	-0.009236879
143	0xbcf131f6	-0.029442769
144	0xbd8cd7b2	-0.06877078
145	0xbcecfb1e	-0.028928336
146	0x3c8d2d15	0.01723341
147	0xbc9181b0	-0.017762035
148	0xbd6c45f8	-0.057683915
149	0xbd37e70c	-0.044898078
150	0x3de27d38	0.1105904
151	0x3c9120ba	0.0177158
152	0xbcee0876	-0.029056769
153	0xbdb13f25	-0.08654622
154	0xbd3c8348	-0.046023637
155	0xbcc21c5a	-0.02369516
156	0x3df1bb0e	0.11803256
157	0xbdc16e4e	-0.09444867
158	0xbd9599c1	-0.07304717
159	0xbd974c9d	-0.0738766
160	0xbc6ecb42	-0.014574828
161	0x3d9329f8	0.07185739
162	0xbd312a8f	-0.043253478
163	0xbd11e799	-0.03562126
164	0xbdf22c16	-0.11824815
165	0x3d28aad7	0.04117855
166	0x3bfe10e0	0.0077534765
167	0xbd4f6242	-0.050630815
168	0x3de409db	0.11134692
169	0x3dc62380	0.0967474
170	0x3b45e1cf	0.0030194407
171	0xbd437560	-0.04771936
172	0xbc0871ba	-0.008327896
173	0x3c0cfc19	0.008605027
174	0xbcc4606e	-0.023971763
175	0x3df9fcdd	0.12206433
176	0x3da6695c	0.081255645
177	0xbd87d568	-0.06632501
178	0xbda1e74f	-0.07905447
179	0x3d45081c	0.048103437
180	0xbb77d187	-0.0037814097
181	0xbccb0df8	-0.024786934
182	0xbdba3dc5	-0.09093813
183	0xbd65bc6c	-0.056087896
184	0x3df99bcf	0.12187921
185	0x3dbdd30e	0.09268771
186	0xbd1c1bf7	-0.038112607
187	0xbc6daae9	-0.01450608
188	0x3d533c5b	0.05157123
189	0x3c247bc7	0.010039276
190	0x3d0ebb9a	0.03484688
191	0x3daa4111	0.08313192
192	0x3d8ea7e4	0.06965616
193	0xbd384c77	-0.044994798
194	0x3dc5397c	0.09630105
195	0x3d4657f2	0.048423715
196	0xbd78544d	-0.06062727
197	0xbcc1e9ef	-0.023671119
198	0x3d3d8807	0.046272304
199	0xbd5fe335	-0.05466004
200	0xbda91c62	-0.08257367
201	0xbd91bf5c	-0.07116577
202	0x3dacac19	0.084312625
203	0xbda6e632	-0.08149375
204	0xbdf583b5	-0.11988012
205	0x3da5bb47	0.08092361
206	0xbdad5a77	-0.084645204
207	0x3deaf0ec	0.114717335
208	0xbe00191b	-0.12509577
209	0x3c91e066	0.017807197
210	0x3c3d207b	0.0115433885
211	0x3cd260be	0.025680896
212	0x3d2f9c19	0.042873476
213	0xbdf313cd	-0.11869011
214	0x3d381281	0.04493952
215	0xbc0ec7de	-0.008714644
216	0xbca82276	-0.020524245
217	0x3ddc612e	0.10760723
218	0xbd05db52	-0.032679863
219	0xbd13630f	-0.03598314
220	0xbdd9b6f1	-0.106305964
221	0xbdd6ca1f	-0.1048777
222	0xbdc415da	-0.0957448
223	0x3ccebac9	0.02523555
224	0x3d0bac15	0.034099657
225	0xbce5f268	-0.02806969
226	0xbd91d912	-0.07121481
227	0xbb3d0b51	-0.0028845856
228	0xbd0b0178	-0.033936948
229	0x3cb12e8f	0.021628646
230	0x3d513442	0.051075228
231	0xbd2c344a	-0.042042054
232	0xbd0d8e4e	-0.03455954
233	0xbdadd2d4	-0.08487478
234	0x3df219ce	0.11821328
235	0x3d620233	0.05517788
236	0xbdde0c82	-0.108422294
237	0x3d6e9a3e	0.058252566
238	0x3d7ccbd1	0.061717812
239	0x3d6c26f3	0.057654332
240	0xbcb58033	-0.022155857
241	0xbdc1a530	-0.09455335
242	0x3cf1576c	0.029460631
243	0xbd024880	-0.031807423
244	0xbd0dcc51	-0.03461868
245	0xbd12b9ad	-0.035821605
246	0xbda0b146	-0.07846312
247	0x3d2631fe	0.04057502
248	0x3d8f478d	0.06996069
249	0x3bd7e6f6	0.006588812
250	0x3dd6dec0	0.10491705
251	0xbd7fbf87	-0.062438514
252	0xbdb52619	-0.08845157
253	0xbdff0cf7	-0.12453645
254	0xbdddcd04	-0.10830119
255	0xbdd76cb6	-0.10518782

feature_extract.mlps.1.linears.0.bias f4 [64]
0	0xbd994492	-0.07483782
1	0x3d444115	0.04791363
2	0xbc5e6129	-0.0135729695
3	0x3d11a88f	0.03556114
4	0xbd4ed02a	-0.05049149
5	0xbd9930b1	-0.0747999
6	0xbd431e85	-0.047636528
7	0x3dcd7233	0.100315474
8	0x3db33c77	0.08751767
9	0x3cc0f173	0.023552632
10	0x3c558a47	0.013033456
11	0xbcaed57c	-0.021342032
12	0x3db7f197	0.089816265
13	0xbd40defe	-0.047087662
14	0x3d22ddfc	0.039762482
15	0xbd1ba254	-0.037996605
16	0x3df02161	0.117251165
17	0x3c58d8e0	0.013235301
18	0x3dc86e38	0.097866476
19	0x3de4a2e3	0.11163881
20	0xbd7352b4	-0.059405044
21	0xbdbc7385	-0.09201721
22	0x3a8ae52c	0.0010596863
23	0x3cdbd949	0.026837008
24	0x3df688f9	0.12037844
25	0x3ddb95a6	0.107219025
26	0xbdae94fb	-0.085245095
27	0x3dab16c6	0.08353953
28	0x3c9ed0bb	0.01938664
29	0xbd91a352	-0.07111229
30	0xbdb53546	-0.08848052
31	0x3da93f37	0.082640104
32	0x3d9f9d4b	0.07793673
33	0xbddbdedc	-0.107358664
34	0xbd973978	-0.07384008
35	0x3d75511c	0.059891805
36	0x3d62ad20	0.055340886
37	0x3d5191f3	0.05116458
38	0xbd63e3bb	-0.055637103
39	0x3bfd47cf	0.0077295075
40	0x3b75d9ea	0.003751392
41	0xbb26d896	-0.0025458685
42	0x3d0ec662	0.03485716
43	0xbc283bb0	-0.010268137
44	0x3d9bf402	0.076149
45	0xbdfd8e49	-0.12380654
46	0x3dc18a8c	0.09450254
47	0x3de9a55b	0.11408492
48	0x3c7173e8	0.014737107
49	0x3d8fa571	0.07013977
50	0xbd6dc920	-0.058053136
51	0x3ddc7528	0.10764533
52	0x3c19ef67	0.009395457
53	0xbdecc643	-0.11561253
54	0x3d6a4b50	0.05720073
55	0x3dbfb838	0.09361309
56	0x3d0eda71	0.03487629
57	0x3d7e3c3e	0.06206917
58	0xbc054229	-0.00813345
59	0x3d590443	0.05298258
60	0x3ddb526b	0.10709079
61	0xbdef4a31	-0.11684073
62	0xbd961cb5	-0.07329694
63	0xbde8fdc5	-0.11376528

feature_extract.mlps.1.linears.1.weight f4 [64, 64]
0	0xbd02ad36	-0.031903468
1	0x3daf3958	0.08555859
2	0x3d76b416	0.060230337
3	0xbc31064b	-0.010804723
4	0xbdab0fa9	-0.08352596
5	0xbdaa8036	-0.083252355
6	0x3dd3c983	0.1034117
7	0x3dc42efc	0.09579274
8	0x3d6cf9dd	0.057855476
9	0xbbc4a6ea	-0.006001343
10	0xbdcb6cd0	-0.09932864
11	0xbdb74b83	-0.089499496
12	0xbdb74318	-0.08948344
13	0x3d9ea780	0.07746792
14	0xbd5e6a08	-0.054300338
15	0x3d9ec9ca	0.07753332
16	0x3dd1b5f3	0.10239782
17	0x3da83de2	0.08214928
18	0xbcdfebb3	-0.02733407
19	0x3b58bf4d	0.0033073009
20	0x3de7f52b	0.11326059
21	0xbdd5bc86	-0.104363486
22	0x3d6f92b1	0.058489505
23	0x3de02753	0.109450005
24	0xbc9fc6dc	-0.019504003
25	0xbd524a55	-0.05134042
26	0xbdde4ee5	-0.10854892
27	0xbd57583c	-0.05257438
28	0x3d4d3723	0.05010141
29	0xbd6d03b5	-0.057864863
30	0x3d8d0c74	0.06887141
31	0xbd115803	-0.035484325
32	0x3d9e79ef	0.07738101
33	0x3cd1b819	0.02560048
34	0xbde14642	-0.10999729
35	0xbdafe4ba	-0.08588548
36	0xbdb80f3b	-0.0898728
37	0x3dd272cd	0.10275803
38	0xbdad350e	-0.08457385
39	0x3d3d5659	0.046224926
40	0xbdc7f302	-0.09763147
41	0x3d4fbf8f	0.050719794
42	0xbc308283	-0.010773304
43	0xbd894925	-0.06703404
44	0x3dd900aa	0.1059583
45	0xbdd32b46	-0.10310988
46	0x3de8bb14	0.11363807
47	0x3d02e7c6	0.031959318
48	0x3c417559	0.011807763
49	0xbd87c1cd	-0.066287614
50	0xbbd69522	-0.0065485397
51	0x3d984af9	0.07436175
52	0x3d8bb9c2	0.0682254
53	0x3dfcb604	0.12339404
54	0xbcd160bf	-0.025558827
55	0x3ba3275a	0.0049790563
56	0xbd2e11b1	-0.04249734
57	0xbdde0c6d	-0.10842214
58	0x3d5ee98f	0.054421958
59	0xbdcd7026	-0.10031156
60	0x3dacad2c	0.084314674
61	0xbc819d40	-0.015822053
62	0xbc353534	-0.011060048
63	0x3d80a517	0.062814884
64	0x3c38a58a	0.011269936
65	0x3da169d5	0.07881514
66	0x3db5c326	0.08875112
67	0xbda7889c	-0.08180353
68	0xbde72268	-0.11285859
69	0xbde56b75	-0.112021364
70	0x3dea1cda	0.11431284
71	0x3df31877	0.11869901
72	0x3b90c402	0.004417897
73	0x3d1e8d3a	0.038708903
74	0x3d67f0d4	0.056626156
75	0xbdf9e663	-0.12202146
76	0x3d38507b	0.044998627
77	0xbd2d1b40	-0.042262316
78	0xbdc6e1f2	-0.097110644
79	0x39d5b61d	0.0004076221
80	0x3d984f7d	0.07437036
81	0xbdd93776	-0.106062815
82	0x3cf0357b	0.029322376
83	0xbdb2ae6e	-0.08724676
84	0xbd540d6f	-0.051770624
85	0xbcc6feb1	-0.024291368
86	0x3d975354	0.073889405
87	0xbddd9f70	-0.10821426
88	0xbd777f61	-0.060424212
89	0x3d86ec71	0.06588066
90	0x3cfae455	0.030626455
91	0x3d03fe31	0.032224838
92	0x3dc69a92	0.09697451
93	0xbd1c89a6	-0.03821721
94	0x3d4562c7	0.048189905
95	0xbd8e6d08	-0.0695439
96	0xbc3fc68d	-0.011705053
97	0x3ae0e584	0.0017158245
98	0xbc592e7e	-0.0132557135
99	0xbdd06e4d	-0.10177288
100	0x3d7bdc1d	0.061489213
101	0x3d522c6e	0.051311903
102	0x3d6138dd	0.05498587
103	0x3d62d25e	0.055376403
104	0xbcf6d67d	-0.030131573
105	0x3c50885c	0.012727823
106	0xbd7d1a5e	-0.061792724
107	0x3d8416fd	0.06449697
108	0xbcad7f3c	-0.021178834
109	0x3ddc591f	0.10759186
110	0xbd8481c1	-0.06470061
111	0x3dfbf474	0.12302485
112	0x3dfb6828	0.122757256
113	0xbd55cc5e	-0.052196853
114	0x3d8538a1	0.06504942
115	0x3da362a9	0.07977802
116	0xbdece572	-0.11567201
117	0x3dbf2ac1	0.093343265
118	0x3d29d71f	0.04146492
119	0xbddf80cf	-0.1091324
120	0xbd2efbd7	-0.042720642
121	0xbde73ad2	-0.11290516
122	0xbd4b2505	-0.04959585
123	0xbdbeeb3a	-0.0932221
124	0xbdb7e3ee	-0.08979021
125	0xbd8af697	-0.067853145
126	0xbd0761e3	-0.033052336
127	0xbd0a939a	-0.03383217
128	0xbc50ddce	-0.012748195
129	0x3da6b1b3	0.08139362
130	0x3d8d3ab9	0.06895966
131	0xbd2d3734	-0.042288974
132	0xbdac5224	-0.084141046
133	0x3dec6eb4	0.115445524
134	0x3dfbf7da	0.12303133
135	0xbce6f559	-0.028193163
136	0x3c112c1d	0.008860615
137	0x3d9f3cd4	0.07775274
138	0x3d39c001	0.045349125
139	0x3d3bedae	0.045880966
140	0x3dc50703	0.09620478
141	0x3c9859a7	0.018597437
142	0xbcc7b4eb	-0.02437826
143	0xbde3abd7	-0.1111676
144	0x3d6fbfc3	0.058532488
145	0xbd1655f8	-0.03670308
146	0xbda396d1	-0.0798775
147	0x3d75934e	0.059954934
148	0xbde41a46	-0.11137824
149	0x3daaf70d	0.083479024
150	0x3afce529	0.0019294369
151	0x3de0b663	0.109722875
152	0xbd64a94b	-0.055825513
153	0x3dd18140	0.102297306
154	0xbc48015f	-0.012207358
155	0xbdeebe22	-0.11657359
156	0x3a11a321	0.0005555619
157	0xbc9022a3	-0.017594641
158	0x3d513e66	0.0510849
159	0x3c973b33	0.018460846
160	0x3acc5afa	0.0015591078
161	0xbe006fcf	-0.12542652
162	0xbdc6e435	-0.09711496
163	0xbd92898f	-0.071551435
164	0xbd5e5f73	-0.054290246
165	0xbd4a347b	-0.049366456
166	0xbd3ff919	-0.046868417
167	0x3d9330a0	0.07187009
168	0x3d54e474	0.051975682
169	0xbb652aed	-0.0034968213
170	0xbe0887d3	-0.13333063
171	0x3dd76622	0.10517527
172	0x3d84507b	0.06460663
173	0xbdeac096	-0.11462514
174	0x3dd99c51	0.10625518
175	0x3dc70b25	0.097189225
176	0x3dc1997d	0.09453104
177	0xbb935106	-0.0044957427
178	0xbdd24902	-0.102678314
179	0xbc6fad2e	-0.014628692
180	0xbdc634e3	-0.09678056
181	0x3dba929d	0.091099955
182	0x3d98d1f3	0.0746192
183	0x3cde6d75	0.027151803
184	0x3c756553	0.014977771
185	0xbd57a762	-0.052649863
186	0xbd5b81cc	-0.05359058
187	0x3d67367e	0.056448452
188	0x3db3cf32	0.08779754
189	0x3cf01d2b	0.029310783
190	0xbbea2ffb	-0.007146833
191	0x3c45f90f	0.012083306
192	0xbc43e260	-0.0119558275
193	0xbc4ce806	-0.012506491
194	0xbc403f83	-0.011733892
195	0x3cbbd2ef	0.02292773
196	0x3ca9b172	0.020714495
197	0x3de515d0	0.11185801
198	0xbdb44ceb	-0.088037334
199	0xbd449228	-0.047990948
200	0x3d0aaf95	0.033858854
201	0x3ddfd530	0.10929334
202	0x3de8857b	0.113535844
203	0x3d89fc0b	0.067375265
204	0xb9c94e1f	-0.00038395912
205	0x3d9dfce9	0.077142544
206	0xbdb06431	-0.0861286
207	0x3cac8c01	0.021062853
208	0xbd3f9e93	-0.046782088
209	0x3d985c3e	0.07439469
210	0xbd851b0b	-0.06499299
211	0x3df2b92a	0.118517235
212	0x3c805822	0.015667025
213	0xbdf26021	-0.118347414
214	0x3dc29f9e	0.09503101
215	0xbaae8f3c	-0.0013317834
216	0xbe074e07	-0.13213359
217	0x3df7f774	0.12107745
218	0xbd8ac9ec	-0.06776795
219	0xbc19e719	-0.009393477
220	0x3df92925	0.12166051
221	0xbd3c6264	-0.04599227
222	0xbdd2192e	-0.10258709
223	0x3e01b1f2	0.12665537
224	0xbdc7916e	-0.097445354
225	0x3df6da0a	0.120533064
226	0x3de1763a	0.11008878
227	0x3da8b7de	0.08238195
228	0x3d868e60	0.065701246
229	0x3ca46159	0.02006595
230	0xbdeca8c6	-0.115556285
231	0xbdc944ed	-0.098276
232	0x3da300e7	0.079591565
233	0x3de214ab	0.11039098
234	0x3d9c27f5	0.07624809
235	0xbdd08c96	-0.10183065
236	0x3d9ceac7	0.07661968
237	0xbbad2ac0	-0.005284637
238	0xbc63e375	-0.01390921
239	0xbde21a57	-0.1104018
240	0xbdbe9454	-0.09305635
241	0xbdf3310b	-0.118745886
242	0x3cbe4cdc	0.023230009
243	0x3dfc03e7	0.12305432
244	0xbd873af1	-0.06603039
245	0xbd4ccc0b	-0.049999278
246	0xbdc5f169	-0.09665186
247	0xbddb6401	-0.107124336
248	0x3dd96a53	0.10615983
249	0x3d909986	0.07060532
250	0xbb8cd521	-0.004297868
251	0x3d04ad35	0.032391746
252	0x3dac205c	0.084046096
253	0xbc9837ff	-0.018581389
254	0xbdb1284c	-0.08650264
255	0x3cd13f4c	0.025542878

feature_extract.mlps.1.linears.1.bias f4 [64]
0	0x3da4ece7	0.08052998
1	0xbd19af1a	-0.037520505
2	0xbdbbadc4	-0.091640025
3	0x3d43447a	0.047672726
4	0x3d0a6fa3	0.03379787
5	0x3d1926e9	0.037390623
6	0xbcbb5f7d	-0.02287268
7	0xbd94ac51	-0.07259429
8	0x3cb4a7d0	0.022052675
9	0x3daa1d75	0.083064
10	0x3e04b36c	0.12959069
11	0xbdab8f83	-0.08376982
12	0xbd0b7f83	-0.03405715
13	0x3dc7442b	0.09729799
14	0xbda869c7	-0.082233004
15	0x3dcd3461	0.10019756
16	0x3d17c303	0.037051212
17	0x3d92bf77	0.07165425
18	0xbd25e648	-0.040502816
19	0x3dd271a0	0.102755785
20	0xbdfcfecd	-0.12353287
21	0x3dbba2ba	0.09161897
22	0x3be83828	0.0070867725
23	0x3d0f015f	0.034913417
24	0x3d8781d3	0.06616559
25	0xbe025f80	-0.12731743
26	0x3c397245	0.011318748
27	0x3c00af1e	0.007854251
28	0x3d1075c3	0.035268556
29	0xbc812c7d	-0.015768284
30	0x3ce3d205	0.027810106
31	0xbc0cdf39	-0.008598142
32	0xbdeb0f19	-0.11477489
33	0xbd6535ff	-0.055959698
34	0x3db3ea4b	0.08784922
35	0xbdc5f4f1	-0.096658595
36	0xbd4c3074	-0.049850896
37	0xbdcff022	-0.101532236
38	0xbb989314	-0.004656205
39	0x3d5b8fb3	0.05360384
40	0xbc495adf	-0.012289732
41	0x3d82b1ce	0.0638157
42	0xbd9e4104	-0.077272445
43	0xbda97ad8	-0.08275384
44	0xbde6f06d	-0.11276326
45	0x3d806a8e	0.06270324
46	0x3cab8506	0.020937454
47	0xbdb98fc1	-0.09060622
48	0xbdef7fbb	-0.116942845
49	0xbd2ebd58	-0.04266104
50	0xbb2e0ec8	-0.0026559103
51	0x3daf2b65	0.08553199
52	0xbdad1636	-0.08451502
53	0x3da66e01	0.0812645
54	0x3d4df780	0.050284863
55	0xbdf06d02	-0.117395416
56	0x3d41ecbd	0.04734491
57	0x3d99d37d	0.07511041
58	0xbd8eb922	-0.06968905
59	0x3dabb8b0	0.08384836
60	0x3dea51af	0.11441361
61	0xbdb90411	-0.09033979
62	0x3daf1caf	0.08550393
63	0x3da14935	0.07875291

feature_extract.mlps.1.batch_norms.0.weight f4 [64]
0	0x3f7dc15b	0.9912316
1	0x3f7fbc39	0.9989658
2	0x3f806a4b	1.0032438
3	0x3f7ee317	0.9956526
4	0x3f7ea9fe	0.9947814
5	0x3f807ca1	1.0038034
6	0x3f806f72	1.003401
7	0x3f7f7059	0.99780804
8	0x3f7e1848	0.992558
9	0x3f81174e	1.0085237
10	0x3f7e877c	0.9942548
11	0x3f80ee80	1.0072784
12	0x3f7ea791	0.99474436
13	0x3f7dbb29	0.9911371
14	0x3f7e0dd3	0.99239844
15	0x3f7e9d0b	0.9945838
16	0x3f7dacd8	0.99091864
17	0x3f7cbce3	0.9872572
18	0x3f7fc3bd	0.9990805
19	0x3f80abcb	1.0052427
20	0x3f80ec49	1.0072109
21	0x3f7ecd9e	0.99532497
22	0x3f7da091	0.9907313
23	0x3f80a1e2	1.0049403
24	0x3f80aa1b	1.0051912
25	0x3f7fb1f1	0.9988089
26	0x3f80e805	1.0070807
27	0x3f80f4d2	1.0074713
28	0x3f80f683	1.007523
29	0x3f809865	1.0046507
30	0x3f7f7083	0.99781054
31	0x3f80bbf4	1.0057359
32	0x3f807266	1.0034912
33	0x3f7f114a	0.99635756
34	0x3f7fc02e	0.9990262
35	0x3f7e5899	0.9935394
36	0x3f7ce47b	0.98786134
37	0x3f7e7c5d	0.99408513
38	0x3f7da809	0.99084526
39	0x3f7e7765	0.9940093
40	0x3f8172cc	1.0113158
41	0x3f7e9fb8	0.9946246
42	0x3f7f5994	0.9974606
43	0x3f7dd8e0	0.9915905
44	0x3f804a7d	1.0022732
45	0x3f803db9	1.0018836
46	0x3f8123d1	1.0089055
47	0x3f80ad79	1.005294
48	0x3f7e9092	0.99439347
49	0x3f7f4147	0.9970898
50	0x3f80a228	1.0049486
51	0x3f809a81	1.0047151
52	0x3f7f4c88	0.9972615
53	0x3f80d769	1.0065738
54	0x3f7e7bbd	0.9940756
55	0x3f7eb6c0	0.99497604
56	0x3f7f86de	0.99815166
57	0x3f7f5b42	0.99748623
58	0x3f7e6c68	0.99384165
59	0x3f7e9c79	0.9945751
60	0x3f7e7561	0.99397856
61	0x3f801512	1.000643
62	0x3f80e129	1.0068713
63	0x3f80ac83	1.0052646

feature_extract.mlps.1.batch_norms.0.bias f4 [64]
0	0xbc43dd3f	-0.011954605
1	0xbb2d5158	-0.002644619
2	0x3bc7f846	0.0061025945
3	0xbbcaf918	-0.006194245
4	0xbb96c48f	-0.0046010683
5	0x3b50aa9d	0.0031839975
6	0x3b4d2ed5	0.0031308432
7	0xbb067539	-0.0020516647
8	0x39a3e877	0.00031262983
9	0x3c0912ae	0.00836627
10	0xbbb1cd53	-0.005426088
11	0x3c0790e9	0.008274295
12	0xbb5228c7	-0.0032067762
13	0xbc187677	-0.009305588
14	0xbb672bdf	-0.0035273952
15	0x3c026791	0.0079592625
16	0xbbd5e6b0	-0.0065277442
17	0xbc213c4c	-0.009841036
18	0xbb6704b0	-0.0035250597
19	0x3be88409	0.007095818
20	0x3be3b101	0.0069485907
21	0xbb72dc67	-0.003705764
22	0xbc01a576	-0.007912984
23	0x3bdabda2	0.006675438
24	0xbb4665ae	-0.0030273008
25	0x3a8324b3	0.0010005444
26	0x3b95e39a	0.0045742514
27	0x3bd71592	0.0065638507
28	0x3c0af24a	0.008480618
29	0x3bc2c0ec	0.0059434082
30	0xb91ea8e8	-0.00015130977
31	0x3bec59df	0.007212862
32	0x3ae37487	0.0017353453
33	0xbb628a01	-0.003456712
34	0xbae73860	-0.0017640702
35	0x3b0ec8b4	0.002178711
36	0xbbb7f1bc	-0.005613534
37	0xbba80095	-0.0051270225
38	0xbba4f37f	-0.00503391
39	0xba70fbe8	-0.00091928104
40	0xbb9b3fad	-0.0047378154
41	0xbbb33cbd	-0.005469887
42	0xbb4b08d7	-0.003098061
43	0xbba27e72	-0.004958921
44	0x3a82eb50	0.0009988341
45	0x3c3e8d13	0.011630314
46	0x3bd104c6	0.006378743
47	0x3b8cd7fb	0.004298208
48	0x3b8cdb16	0.004298578
49	0xbb99bdf6	-0.0046918346
50	0x3bbaef76	0.0057048155
51	0x3c08c837	0.008348516
52	0xba3d647f	-0.0007224753
53	0x3bf5e63e	0.0075042536
54	0xbbae6bda	-0.0053229155
55	0xbb68548b	-0.0035450782
56	0x3b59e776	0.0033249534
57	0xba989c79	-0.0011643312
58	0xbbae0c9b	-0.0053115613
59	0xbb9c2bac	-0.0047659483
60	0x3bc507ee	0.006012908
61	0xb9323e85	-0.00016998693
62	0x3b83ce9c	0.0040224325
63	0x3c05224f	0.008125856

feature_extract.mlps.1.batch_norms.0.running_mean f4 [64]
0	0x3f5f0969	0.87123734
1	0x3dc5542d	0.09635196
2	0xbe99ea9f	-0.30061814
3	0xbf79a4de	-0.9751719
4	0xbea3109b	-0.31848606
5	0xbd5035f4	-0.050832704
6	0x3dd47bb6	0.103751585
7	0xbeaca1e2	-0.33717257
8	0x3f715910	0.94276524
9	0xbe3b7eef	-0.1831014
10	0xbf278921	-0.6544362
11	0xbf0c7815	-0.5487073
12	0x3e40a863	0.18814234
13	0xbe25dd24	-0.1619764
14	0x3f53edec	0.82784915
15	0x3f68604c	0.9077194
16	0x3ebf7a93	0.37398204
17	0xbe7b6a85	-0.24552353
18	0x3f1f33d9	0.6218849
19	0xbe9d09a4	-0.30671418
20	0x3ee7c6af	0.4526877
21	0xbe9b3424	-0.30313218
22	0xbf577222	-0.8415853
23	0xbf91b6e0	-1.1383934
24	0xbc91cdfd	-0.017798418
25	0xbed7ef8a	-0.4217494
26	0xbea87421	-0.329011
27	0x3f177a64	0.5917113
28	0xbf81a2fa	-1.0127861
29	0xbd77daf9	-0.060511563
30	0xbf02ceb9	-0.51096684
31	0xbd4728ab	-0.04862277
32	0xbf760063	-0.9609434
33	0xbf23b6f4	-0.6395104
34	0xbe44ee63	-0.19231562
35	0x3e9c65f1	0.30546525
36	0xbe355c60	-0.1771102
37	0xbf57f989	-0.84365135
38	0x3f522e89	0.82102257
39	0xbef67d62	-0.48142534
40	0x3f6bb62c	0.9207485
41	0x3f923995	1.1423823
42	0xbe07e724	-0.13271767
43	0x3e8820ef	0.26587626
44	0xbf219c30	-0.6312895
45	0x3dd08c45	0.10183004
46	0xbef9c635	-0.48784032
47	0x3eb79720	0.35857487
48	0x3e385f1d	0.18005033
49	0x3f1b31f1	0.6062308
50	0xbf4c0bfc	-0.79705787
51	0x3dadcfaf	0.08486878
52	0x3f0957ee	0.53649795
53	0xbe805056	-0.2506129
54	0x3e2900cd	0.16504212
55	0x3ebdc36b	0.37063155
56	0x3f16795b	0.58778924
57	0x3d039ade	0.032130115
58	0x3f5b5b04	0.85685754
59	0xbfb310d2	-1.3989508
60	0x3f2ebaf7	0.68254036
61	0xbe8767ed	-0.26446477
62	0x3f24e6c8	0.64414644
63	0x3e32e6cf	0.17470859

feature_extract.mlps.1.batch_norms.0.running_var f4 [64]
0	0x3e8cdaa7	0.27510568
1	0x3e63f851	0.22262694
2	0x3f1f4e86	0.6222919
3	0x3e81c5f8	0.2534635
4	0x3feb838e	1.8399522
5	0x3c7da1ed	0.015480501
6	0x3e53bbe1	0.20677139
7	0x3efbe362	0.49196917
8	0x3f070bd0	0.527524
9	0x3f0ac44f	0.54205793
10	0x3eef942e	0.4679274
11	0x3ec746d0	0.38921213
12	0x3ee79e2a	0.45237857
13	0x3f978e6a	1.1840336
14	0x3f49ea24	0.78872895
15	0x3f081f5e	0.5317286
16	0x3f0f66f2	0.5601646
17	0x3f38bcdd	0.7216318
18	0x3f576b21	0.8414784
19	0x3ecfdee1	0.4059973
20	0x3ed7ea4f	0.4217095
21	0x3ec83912	0.3910604
22	0x3f9b13a7	1.2115372
23	0x3f8d33f4	1.103148
24	0x3fac3f6f	1.3456858
25	0x3f9cac21	1.224003
26	0x3f368ab3	0.7130539
27	0x3dc15a0b	0.094410025
28	0x3f333169	0.6999727
29	0x3f60ef42	0.8786508
30	0x3eb7d8c5	0.3590757
31	0x3e94e3e5	0.2908012
32	0x3ed98476	0.42483872
33	0x3f08fe34	0.53512883
34	0x3e781b9d	0.24229284
35	0x3f6746a0	0.9034214
36	0x3e961ed2	0.2932039
37	0x3f6dd047	0.9289593
38	0x3eac64a0	0.3367052
39	0x3f4fd49c	0.8118379
40	0x3f12f5f5	0.5740655
41	0x3f20839f	0.6270084
42	0x3f26ffb5	0.6523393
43	0x3e6b4597	0.22975765
44	0x3f959da4	1.1688733
45	0x3f7d62f2	0.98979104
46	0x3e1ea844	0.15493876
47	0x3e67803a	0.22607508
48	0x4009fce9	2.1560614
49	0x3f0929a4	0.53579164
50	0x3f487bc0	0.7831383
51	0x3e0c13ff	0.13679503
52	0x3e88067d	0.2656745
53	0x3f16b437	0.58868736
54	0x3e45f405	0.19331367
55	0x3ea72c4e	0.3265099
56	0x3f2d497d	0.6769026
57	0x3e50e3a4	0.20399338
58	0x3f7a5527	0.9778618
59	0x3f4bef63	0.7966215
60	0x3f1125bd	0.5669821
61	0x3f290e73	0.6603767
62	0x3f427f57	0.75975555
63	0x3f87343e	1.0562818

feature_extract.batch_norms.0.weight f4 [64]
0	0x3f800c93	1.0003837
1	0x3f7f0f8b	0.9963309
2	0x3f804d3a	1.0023568
3	0x3f7fd538	0.9993472
4	0x3f805b7f	1.0027922
5	0x3f7fb261	0.9988156
6	0x3f80dbf9	1.006713
7	0x3f7f7e30	0.9980192
8	0x3f7e5b01	0.9935761
9	0x3f7ee513	0.9956829
10	0x3f800ecf	1.0004519
11	0x3f803902	1.0017397
12	0x3f8098f8	1.0046682
13	0x3f7fa5c0	0.9986229
14	0x3f805087	1.0024575
15	0x3f8027f9	1.0012199
16	0x3f81285f	1.0090445
17	0x3f7f6e45	0.9977763
18	0x3f7e9380	0.9944382
19	0x3f7f008e	0.9961022
20	0x3f80954f	1.0045565
21	0x3f80165d	1.0006825
22	0x3f7ec960	0.99526024
23	0x3f807517	1.0035733
24	0x3f808d46	1.0043113
25	0x3f7ee633	0.99570006
26	0x3f7fe98d	0.99965745
27	0x3f7f801a	0.9980484
28	0x3f805f1f	1.0029029
29	0x3f7e0281	0.9922257
30	0x3f7fc194	0.9990475
31	0x3f7fbf8a	0.9990164
32	0x3f7e77de	0.9940165
33	0x3f80644b	1.0030607
34	0x3f7f90c8	0.99830294
35	0x3f7f620a	0.9975897
36	0x3f7eb858	0.99500036
37	0x3f805e4f	1.0028781
38	0x3f7f9186	0.99831426
39	0x3f805cb6	1.0028293
40	0x3f8059d5	1.0027415
41	0x3f7e82bb	0.9941823
42	0x3f8067e9	1.0031711
43	0x3f7eef6f	0.99584097
44	0x3f7ede69	0.9955812
45	0x3f80d4b5	1.0064913
46	0x3f7fda6e	0.9994267
47	0x3f802d3c	1.0013804
48	0x3f80901c	1.0043979
49	0x3f808636	1.0040958
50	0x3f7fe19a	0.99953616
51	0x3f7fa02e	0.9985379
52	0x3f7fdba6	0.9994453
53	0x3f7e9f3f	0.9946174
54	0x3f80ddc7	1.0067681
55	0x3f7e4d91	0.99337107
56	0x3f80157f	1.000656
57	0x3f80e318	1.0069304
58	0x3f80b2ec	1.0054603
59	0x3f808774	1.0041337
60	0x3f8062fc	1.0030208
61	0x3f7f7fd2	0.99804413
62	0x3f8057ab	1.0026754
63	0x3f7ea094	0.9946377

feature_extract.batch_norms.0.bias f4 [64]
0	0x3b0b50c4	0.0021257857
1	0xbb6cb2ab	-0.0036117237
2	0x3b65e227	0.0035077424
3	0xbaece775	-0.0018074351
4	0x3b54b36c	0.0032455577
5	0xb881e028	-6.192952e-05
6	0x3b983788	0.0046452917
7	0xba1f820f	-0.0006084749
8	0xbbb7e980	-0.005612552
9	0xbb62f4a3	-0.0034630678
10	0x3ae88308	0.0017739246
11	0x3b0214cb	0.001984882
12	0x3b86ef0d	0.0041178525
13	0xbb6e2d7a	-0.0036343024
14	0x3b3c2015	0.0028705646
15	0x3b27b04c	0.002558726
16	0x3a09e5b4	0.00052603637
17	0xbb557625	-0.003257164
18	0x3abb0687	0.0014268913
19	0x3b441262	0.0029918184
20	0x3bdd617a	0.006756005
21	0x39babdce	0.000356181
22	0xbb4d7476	-0.0031349934
23	0x3b24f054	0.002516766
24	0x3b4ffe84	0.0031737396
25	0xbbccefd0	-0.006254174
26	0xb9318bc1	-0.00016932098
27	0xba81993c	-0.0009887586
28	0x3b69bab1	0.0035664255
29	0xbb6ccf81	-0.0036134424
30	0xbb3993c7	-0.0028316842
31	0x3b023a26	0.0019871085
32	0xbb91a010	-0.0044441298
33	0xbbc5ba64	-0.0060341824
34	0x3b492cc6	0.0030696853
35	0xbb3b1b10	-0.0028550066
36	0x3b3c6364	0.0028745765
37	0x3b0cad91	0.0021465758
38	0x39c3c1b0	0.00037337607
39	0xbb1fc63a	-0.0024379627
40	0x3b8867ba	0.004162756
41	0xbb9ff988	-0.0048820414
42	0x3b430c24	0.0029761875
43	0xbb446142	-0.0029965197
44	0xbab9c53f	-0.0014173164
45	0x3b445f42	0.0029964005
46	0xbab91ebc	-0.001412354
47	0x3b211ac2	0.00245826
48	0x3b951af5	0.0045503327
49	0x3b146069	0.0022640473
50	0xbbb1889f	-0.005417898
51	0xbb5d3258	-0.003375193
52	0x39dfa5d9	0.0004265744
53	0xbb4c0c0e	-0.0031135115
54	0xb8007041	-3.0622123e-05
55	0xb9e43215	-0.00043524863
56	0xba5399d6	-0.00080719346
57	0x3bd933b2	0.006628477
58	0x3b6b9f19	0.0035952984
59	0x3b99e81e	0.00469686
60	0x3b507cf2	0.0031812754
61	0xbb81efc6	-0.003965351
62	0x3bb6574e	0.0055646067
63	0xbc5fb8a4	-0.013654862

feature_extract.batch_norms.0.running_mean f4 [64]
0	0x3db3b76a	0.08775218
1	0xbd38ea9a	-0.04514561
2	0xbdf83e34	-0.12121239
3	0x3e29316c	0.16522759
4	0xbdff0123	-0.12451389
5	0x3bf1ed97	0.0073830592
6	0x3d4d2839	0.050087187
7	0xbdea73d9	-0.114478774
8	0xbe0dc083	-0.13842969
9	0x3dd8fc34	0.10594979
10	0xbc977f20	-0.018493235
11	0xbe0e3d22	-0.13890508
12	0x3dd5f48f	0.104470365
13	0x3db94cfe	0.09047888
14	0x3e11e7d5	0.14248593
15	0xbd0c1c70	-0.034206808
16	0x3dd51bb4	0.104056746
17	0xbd86a4c9	-0.06574399
18	0xbe792808	-0.24331677
19	0x3ec2848c	0.3799175
20	0xbd81b203	-0.06332781
21	0x3edbbaf9	0.42916086
22	0x3eb78ed5	0.3585116
23	0x3e9b5499	0.3033798
24	0x3d675d31	0.05648536
25	0x3f307651	0.68930537
26	0xbe154c71	-0.14579941
27	0x3dfc2370	0.12311447
28	0x3d2217e3	0.03957356
29	0xbecdbcaf	-0.40183017
30	0x3eb6e6a4	0.3572284
31	0x3c702bca	0.014658878
32	0xbe738c01	-0.23783876
33	0xbe6cec96	-0.23137125
34	0xba93ad56	-0.0011266868
35	0x3d04f18b	0.032456916
36	0xbd1e93e0	-0.038715243
37	0xbeab84d0	-0.33499765
38	0x3ec6eabc	0.38850963
39	0x3e2e1299	0.16999282
40	0x3d19830e	0.0374785
41	0xbe730191	-0.23731066
42	0xbd44d808	-0.048057586
43	0x3c639bfa	0.013892168
44	0x3e0315ac	0.12801236
45	0x3e4b4c42	0.19853309
46	0x3e1465d1	0.14491965
47	0xbe831671	-0.2560306
48	0x3de4c248	0.11169869
49	0x3e6d43cf	0.23170398
50	0x3ec47d23	0.38376722
51	0xbbfc3bf1	-0.0076975753
52	0xbdbca636	-0.0921139
53	0x3e48b1d3	0.19599085
54	0x3e822e02	0.25425726
55	0x3e63f225	0.2226034
56	0x3d271559	0.040791843
57	0xbdc7cd4b	-0.097559534
58	0x3edef024	0.43542588
59	0x3e8ad7c9	0.27117756
60	0xbee0331e	-0.43789
61	0xbce8b9fa	-0.028408993
62	0xbe6087e5	-0.2192684
63	0x3e05d567	0.13069688

feature_extract.batch_norms.0.running_var f4 [64]
0	0x3cc8b866	0.02450199
1	0x3c4be9c4	0.012445871
2	0x3dbb896e	0.09157072
3	0x3dae819a	0.08520813
4	0x3cff7385	0.031183014
5	0x3cde5a01	0.027142527
6	0x3cf62fc5	0.030052075
7	0x3e8c0a14	0.2735144
8	0x3e4876d2	0.19576576
9	0x3c69f448	0.014279433
10	0x3e781b5a	0.24229184
11	0x3cb571ae	0.022148933
12	0x3ea93592	0.33048683
13	0x3d824ed4	0.063626915
14	0x3cd93594	0.026514806
15	0x3c8a2c55	0.016866842
16	0x3cb49a45	0.022046218
17	0x3e0dfa47	0.13865004
18	0x3df5c8e7	0.1200121
19	0x3e8bb460	0.27286053
20	0x3ae01453	0.0017095901
21	0x3e739102	0.23785785
22	0x3d0aa9b6	0.033853255
23	0x3c98c49c	0.018648438
24	0x3c7a02d1	0.015259461
25	0x3e3cc52e	0.18434593
26	0x3dde8f8a	0.10867222
27	0x3d5abba0	0.05340159
28	0x3c898f79	0.016792046
29	0x3d7c8620	0.06165135
30	0x3db4d3c7	0.08829456
31	0x3ddb846b	0.10718616
32	0x3d844268	0.064579785
33	0x3e86c9ba	0.2632578
34	0x3d8360bc	0.06414935
35	0x3dca9c29	0.098930664
36	0x3c22a650	0.009927347
37	0x3d546651	0.05185539
38	0x3de319b4	0.11088887
39	0x3d7fb4d6	0.062428318
40	0x3db39eb8	0.087705076
41	0x3d67880b	0.056526225
42	0x3c2fc549	0.010728189
43	0x3cdd0042	0.026977662
44	0x3c311b2a	0.010809699
45	0x3cf9189b	0.03040724
46	0x3df8a9e4	0.12141779
47	0x3d409d00	0.047024727
48	0x3ea4d1c9	0.32191303
49	0x3d793527	0.060841706
50	0x3e1db038	0.15399253
51	0x3d3a4b43	0.04548193
52	0x3da3deb6	0.08001463
53	0x3d84ac5f	0.0647819
54	0x3d6a9f5f	0.057280894
55	0x3e866d24	0.26255143
56	0x3c71aace	0.014750196
57	0x3e1b3a0a	0.15158859
58	0x3da401c0	0.08008146
59	0x3e0bab93	0.13639669
60	0x3ca93517	0.020655198
61	0x3d9e0baf	0.07717072
62	0x3f052c75	0.5202096
63	0x3da46586	0.080271766
