30_20_1_99_sw(10000)_1_0.25_v0.pth (torch, 93890 bytes, 30 tensors)

feature_extract.mlps.0.linears.0.weight f4 [64, 2]
-0.29884055 0.4218007 0.50035655 -0.23726551 0.06085536 -0.43651697 -0.5326328 0.3504761
0.51409036 -0.016878873 -0.6984144 -0.19490159 -0.41998217 -0.19508189 -0.20784649 -0.58263016
-0.38551903 0.28479528 -0.3563192 -0.33343717 -0.40080866 0.54931056 -0.30949607 -0.22005183
-0.13514814 0.6695306 -0.4107673 0.25020093 0.6081534 0.14709978 0.70702446 -0.34215105
0.53726953 -0.6227157 0.39237133 -0.521826 -0.5589286 0.12298906 -0.007840793 0.22413301
0.020250954 0.009489578 -0.34743744 0.22380541 -0.21616615 0.14062348 0.022154884 -0.04132989
-0.31137866 0.50756377 -0.6337763 -0.015467342 0.37958658 -0.17970964 0.47678283 -0.48275858
-0.60307974 -0.3304393 -0.5189923 -0.023763547 -0.285007 0.22543718 0.4316372 0.13029577
-0.017760001 -0.26783055 -0.35291755 0.561946 0.5154631 0.35448334 -0.32522947 -0.2543666
0.07727991 0.052086864 -0.046343572 -0.43114358 -0.47666022 0.36376193 0.3967244 0.5671103
0.6678902 -0.15582186 -0.059235048 0.027156606 0.14756918 0.13915695 0.030241108 -0.33407298
-0.016380541 0.37448895 0.32685912 0.63596267 0.32359058 -0.6692214 0.29387394 -0.55208224
0.55274826 -0.5563866 -0.55559695 0.16301608 0.14141558 0.5039897 -0.47022218 0.5440708
0.12156878 -0.122976296 -0.5039915 0.33898953 0.08698361 0.56328267 -0.40499726 0.60347146
-0.47198045 -0.41877854 0.392743 -0.09199003 -0.4335731 -0.048562247 0.69062525 -0.032941394
0.24617942 -0.16224284 0.16569665 0.68527734 0.3415224 -0.49345773 -0.42209518 -0.10202788
00000000: a101 99be 43f6 d73e 5e17 003f bbf5 72be
00000010: 7843 793d 277f dfbe a05a 08bf 9a71 b33e
00000020: 6d9b 033f 9045 8abc 49cb 32bf 4894 47be
00000030: e707 d7be 8cc3 47be b6d5 54be 4027 15bf
00000040: c062 c5be b0d0 913e 786f b6be 47b8 aabe
00000050: cb36 cdbe 9e9f 0c3f 4576 9ebe 4455 61be
00000060: 4664 0abe 5b66 2b3f 1750 d2be 561a 803e
00000070: f1af 1b3f 53a1 163e 8eff 343f 6c2e afbe
00000080: 7f8a 093f 4c6a 1fbf e5e4 c83e 6496 05bf
00000090: f215 0fbf b0e1 fb3d ab76 00bc 2083 653e
000000a0: 54e5 a53c 2d7a 1b3c 52e3 b1be 3f2d 653e
000000b0: a95a 5dbe 9aff 0f3e 297e b53c 8849 29bd
000000c0: 066d 9fbe b3ef 013f 2a3f 22bf bc6a 7dbc
000000d0: 2c59 c23e ce05 38be e11c f43e 222c f7be
000000e0: 6f63 1abf 572f a9be aedc 04bf c5ab c2bc
000000f0: 70ec 91be 01d9 663e 8dff dc3e 416c 053e
00000100: 6c7d 91bc 1621 89be 9cb1 b4be b1db 0f3f
00000110: 64f5 033f d77e b53e 7a84 a6be 573c 82be
00000120: ee44 9e3d 0959 553d c2d2 3dbd dabe dcbe
00000130: cf0c f4be 013f ba3e 761f cb3e 242e 113f
00000140: dafa 2a3f c48f 1fbe 73a0 72bd 8877 de3c
00000150: 601c 173e 297f 0e3e 33bc f73c 9d0b abbe
00000160: 7c30 86bc 04bd bf3e 145a a73e 73ce 223f
00000170: aaad a53e 1852 2bbf a576 963e 4355 0dbf
00000180: e980 0d3f 5a6f 0ebf 9a3b 0ebf b0ed 263e
00000190: 3fcf 103e 7805 013f f6c0 f0be 3948 0b3f
000001a0: 0df9 f83d ffda fbbd 9605 01bf 0990 ad3e
000001b0: 7724 b23d 4b33 103f cd5b cfbe 1b7d 1a3f
000001c0: 6ca7 f1be 246a d6be 9c15 c93e 4565 bcbd
000001d0: 4bfd ddbe 35e9 46bd d1cc 303f 8eed 06bd
000001e0: 7516 7c3e fd22 26be 62ac 293e 566e 2f3f
000001f0: 06dc ae3e 7ea6 fcbe dc1c d8be fef3 d0bd

feature_extract.mlps.0.linears.0.bias f4 [64]
0.31915218 -0.39076257 -0.048117366 0.34836656 -0.35139963 -0.38653198 0.011297479 -0.5783718
0.29387248 -0.19907399 0.56603545 0.055845898 0.3372729 -0.12167649 -0.24957813 -0.30537555
0.34373617 0.64255434 0.25619546 -0.16310158 0.3657835 -0.53849405 -0.6073707 -0.22722246
0.31351563 -0.071812116 -0.48762518 -0.58655375 0.35105082 -0.36719838 -0.28890213 0.63494587
0.103306316 -0.4133639 0.05939227 0.3873105 -0.32735777 -0.44374552 -0.6643834 -0.60218626
-0.5281918 0.36542648 0.060270943 0.21417902 0.40128285 0.63520837 -0.18940431 0.6327796
0.1111018 0.5664544 -0.65812516 -0.30965933 -0.2629214 0.5157874 0.4148442 -0.69619817
-0.39974612 -0.54828817 -0.6959105 -0.658284 0.335674 0.25076717 -0.054583374 -0.028710058
00000000: ea67 a33e 0812 c8be b716 45bd 1a5d b23e
00000010: a7ea b3be 85e7 c5be 1019 393c 2d10 14bf
00000020: 7476 963e 0dda 4bbe b3e7 103f abbe 643d
00000030: 09af ac3e 8631 f9bd 6991 7fbe 2f5a 9cbe
00000040: 30fe af3e 717e 243f 0d2c 833e 1a04 27be
00000050: fa47 bb3e bfda 09bf a57c 1bbf 01ad 68be
00000060: 1f85 a03e 3b12 93bd 02aa f9be 6328 16bf
00000070: efbc b33e 6d01 bcbe fbea 93be d08b 223f
00000080: 4392 d33d 6fa4 d3be 4f45 733d 904d c63e
00000090: 709b a7be 9d32 e3be 0815 2abf e128 1abf
000000a0: 9437 07bf 2e19 bb3e aade 763d bf51 5b3e
000000b0: f274 cd3e 049d 223f 34f3 41be d8fd 213f
000000c0: 5789 e33d 2803 113f e47a 28bf ab8b 9ebe
000000d0: a29d 86be a50a 043f 7566 d43e 0b3a 32bf
000000e0: 86ab ccbe 9d5c 0cbf 3127 32bf 4d85 28bf
000000f0: 76dd ab3e 8e64 803e d192 5fbd 5b31 ebbc

feature_extract.mlps.0.linears.1.weight f4 [64, 64]
-0.064874426 0.062792465 -0.10637144 -0.09194897 -0.10526337 -0.05536709 -0.09802534 0.08137817
-0.11880543 0.012638319 0.028723523 0.0016281789 0.059866272 0.11898657 0.06357121 0.02836652
-0.05126906 -0.014426373 0.11827816 0.046125896 -0.03649274 -0.012397319 -0.10743191 -0.096714124
0.075778045 0.016567186 0.08974001 0.07607158 -0.017768878 0.10739977 0.040266108 0.08926142
0.08169915 0.1167371 -0.08359628 -0.016555551 0.06429415 -0.107947305 0.02675647 -0.108997434
-0.06054444 -0.04932689 -0.063529216 0.0353774 0.09954421 -0.1100204 0.08683285 -0.044210527
-0.014253032 -0.019575734 -0.027162138 -0.0026858896 -0.03704182 -0.08162923 0.0031069056 0.057385266
0.024069006 0.06391218 -0.034928825 0.008330983 0.07971855 0.115825824 -0.12011001 0.09424759
0.093028106 -0.08532812 -0.04519133 0.04851073 0.07982071 -0.120053396 0.006040307 -0.0091596255
-0.0063430015 0.09716849 0.0075692404 -0.05834064 0.09198135 -0.032222643 0.08839005 0.104039356
0.043891527 -0.07980765 -0.055615082 -0.097201504 -0.063988835 -0.116839424 0.0047032456 -0.050273098
0.10953902 0.025423164 -0.05610929 -0.12541518 0.05669631 -0.11133043 -0.044533517 0.05155125
0.054479137 -0.035711616 0.08560555 -0.06788033 -0.07228172 0.07642323 0.007567927 0.051929403
0.0153539395 0.03939966 -0.072074816 0.03479008 -0.017578399 -0.08081828 0.116331816 0.07249094
-0.0021974759 0.118560635 -0.116642274 0.08647835 -0.006168587 -0.07867759 0.12547249 0.11198701
-0.056121234 -0.062818825 -0.050158974 -0.040272836 0.032372925 0.051021624 0.020789275 -0.12318129
-0.07745781 -0.039949834 -0.016112546 -0.010160681 0.0022879946 -0.019146666 -0.09037744 0.041296877
-0.09916284 -0.09526662 0.011823283 0.118060075 -0.047809254 -0.10559353 0.000992153 0.053032998
0.034561526 -0.0029625162 -0.07660284 0.0075853714 0.011769604 -0.11104816 0.045351118 0.029377945
0.04869456 0.08640561 -0.05258023 0.050649364 0.09661664 -0.120086834 -0.10642979 0.014156464
-0.05040182 0.07568402 0.12674502 -0.01055018 0.014831492 -0.08187876 0.11313767 -0.027899722
-0.07748896 -0.12189589 -0.07303274 -0.0137731545 -0.060102362 0.0012820782 0.004025565 -0.005396348
0.0025133744 -0.013767129 0.067146055 -0.11550714 -0.089010805 -0.018365696 -0.06434108 0.086168915
0.084188305 0.031900503 -0.04184857 -0.0036209614 0.09878066 0.011926126 0.09876413 0.10513667
0.014944872 0.098679855 0.0017383534 -0.018822215 -0.007997936 -0.10433341 0.1073053 0.12994398
-0.021362863 -0.079163514 -0.04406808 7.5543765e-05 -0.10649659 0.048373673 -0.07804677 0.07659527
0.03460081 0.09450488 0.06271981 0.09407142 0.105119 0.06956531 -0.078821145 -0.06639146
0.04282448 0.108909056 -0.06875641 -0.069373555 -0.11595431 0.029850699 -0.08474445 -0.0648393
0.042076845 -0.07536381 0.09026011 -0.0064098802 0.02326079 0.043624297 0.005910515 0.07030516
-0.10907253 0.079111695 0.04969962 0.019874888 0.06100275 0.09337769 -0.051296834 0.12509947
-0.011717195 -0.109682694 0.049930066 -0.0785312 0.019963114 -0.092113346 0.012716582 0.010220307
-0.10701701 -0.051381834 -0.048498113 -0.094898626 0.040651962 -0.052408453 0.018807136 0.06758859
00000000: e2dc 84bd 5699 803d 45d9 d9bd be4f bcbd
00000010: 5294 d7bd 9ac8 62bd 82c1 c8bd 99a9 a63d
00000020: 4350 f3bd f410 4f3c 984d eb3c 9e68 d53a
00000030: 5636 753d 3baf f33d 9f31 823d e760 e83c
00000040: 81ff 51bd 985c 6cbc d23b f23d 82ee 3c3d
00000050: 6979 15bd 201e 4bbc 4305 dcbd 0e12 c6bd
00000060: 8531 9b3d e8b7 873c 9cc9 b73d 6bcb 9b3d
00000070: 0a90 91bc 69f4 db3d 13ee 243d b1ce b63d
00000080: e251 a73d dc13 ef3d 8734 abbd 829f 87bc
00000090: a7ac 833d 7a13 ddbd 6230 db3c 0c3a dfbd
000000a0: 72fd 77bd fe0a 4abd 9b1b 82bd e5e7 103d
000000b0: d6dd cb3d 6052 e1bd 6cd5 b13d 1916 35bd
000000c0: 8d85 69bc 4a5d a0bc 2283 debc c005 30bb
000000d0: 2ab9 17bd 3a2d a7bd 3a9d 4b3b d00c 6b3d
000000e0: 5d2c c53c 64e4 823d 8711 0fbd ad7e 083c
000000f0: 7b43 a33d 1736 ed3d 3dfc f5bd e104 c13d
00000100: 8585 be3d 82c0 aebd 8b1a 39bd 30b3 463d
00000110: 0a79 a33d 8ede f5bd c5ed c53b 4112 16bc
00000120: f4d8 cfbb 4600 c73d 6407 f83b 98f6 6ebd
00000130: b860 bc3d e4fb 03bd d805 b53d 9612 d53d
00000140: 9ac7 333d 3172 a3bd a4cc 63bd 9511 c7bd
00000150: 940c 83bd 8249 efbd af1d 9a3b 2aeb 4dbd
00000160: fe55 e03d 3d44 d03c dbd2 65bd d66c 00be
00000170: 643a 683d 3501 e4bd c768 36bd 6727 533d
00000180: 8425 5f3d 5846 12bd f651 af3d d804 8bbd
00000190: 7008 94bd c883 9c3d 5ffc f73b edb3 543d
000001a0: 178f 7b3c 8a61 213d f69b 93bd 0b80 0e3d
000001b0: 9300 90bc 0e84 a5bd 603f ee3d 2176 943d
000001c0: 8703 10bb ebcf f23d 25e2 eebd 901b b13d
000001d0: dc21 cabb b721 a1bd dc7b 003e 7259 e53d
000001e0: 61df 65bd 28a7 80bd 7f73 4dbd 21f5 24bd
000001f0: 7999 043d 0dfc 503d 454e aa3c 7946 fcbd
00000200: 33a2 9ebd 70a2 23bd 75fe 83bc fc78 26bc
00000210: 2ef2 153b 78d9 9cbc cf17 b9bd ea26 293d
00000220: e315 cbbd 251b c3bd 71b6 413c 7bc9 f13d
00000230: a3d3 43bd 6c41 d8bd 210b 823a 2139 593d
00000240: 6390 0d3d c626 42bb f3e1 9cbd b58e f83b
00000250: 4cd5 403c 386d e3bd 18c2 393d 04aa f03c
00000260: f273 473d 6df5 b03d 5e5e 57bd b575 4f3d
00000270: f2de c53d 16f0 f5bd ddf7 d9bd 83f0 673c
00000280: 2472 4ebd 3900 9b3d 72c9 013e aada 2cbc
00000290: c9ff 723c 0db0 a7bd b9b4 e73d f58d e4bc
000002a0: 88b2 9ebd 8da4 f9bd 3092 95bd cca8 61bc
000002b0: e52d 76bd 680b a83a e3e8 833b d9d3 b0bb
000002c0: 6db7 243b 868f 61bc df83 893d 028f ecbd
000002d0: 4c4b b6bd a873 96bc 42c5 83bd 5479 b03d
000002e0: eb6a ac3d 1aaa 023d 6869 2bbd a74d 6dbb
000002f0: 844d ca3d cc65 433c d944 ca3d e551 d73d
00000300: 56db 743c aa18 ca3d 76d9 e33a 0c31 9abc
00000310: c609 03bc c1ac d5bd e2c2 db3d 0910 053e
00000320: 2c01 afbc 7b20 a2bd bb80 34bd 406d 9e38
00000330: e21a dabd 7923 463d fcd6 9fbd fbdd 9c3d
00000340: 94b9 0d3d c68b c13d 3e73 803d 84a8 c03d
00000350: a148 d73d 4278 8e3d fb6c a1bd 3ff8 87bd
00000360: b968 2f3d b60b df3d 29d0 8cbd b913 8ebd
00000370: 7479 edbd 7489 f43c 808e adbd 78ca 84bd
00000380: c558 2c3d 5758 9abd 4bda b83d f909 d2bb
00000390: 6a8d be3c 64af 323d feac c13b 27fc 8f3d
000003a0: 6b61 dfbd 5005 a23d d491 4b3d a9d0 a23c
000003b0: 05de 793d cd3c bf3d a11c 52bd 131a 003e
000003c0: 7af9 3fbc 52a1 e0bd 7883 4c3d f7d4 a0bd
000003d0: af89 a33c eca5 bcbd 3659 503c 1373 273c
000003e0: bc2b dbbd c275 52bd f5a5 46bd 365a c2bd
000003f0: ac82 263d 3faa 56bd 6c11 9a3c e36b 8a3d

feature_extract.mlps.0.linears.1.bias f4 [64]
0.03733173 0.052801672 0.010874427 0.10226677 -0.089373425 0.03143099 0.027852638 0.020982755
0.080716334 0.10493668 0.08595225 -0.020152457 0.109239094 0.05054378 0.042479955 0.0030304238
-0.0665425 0.072393626 0.03368762 0.025434222 -0.039588954 0.11457113 0.085414514 0.11707187
-0.02821104 0.04233283 -0.049951766 0.09236183 0.10651911 0.037377417 0.10269414 -0.09401034
0.028018152 0.065969214 -0.083982736 -0.00063306023 0.06562164 -0.04063589 -0.08895753 0.06928078
-0.09369865 -0.0037824102 0.11282944 -0.033264484 -0.007716406 0.027870694 -0.110160165 -0.1111764
-0.042127974 0.022629082 0.12648344 0.039678205 -0.12503071 0.08804785 -0.05078077 0.012668102
0.088040456 0.06962196 0.05639689 0.02872228 -0.10404312 -0.027820243 0.10683778 -0.12142137
00000000: 28e9 183d 9146 583d a72a 323c 3e71 d13d
00000010: 6a09 b7bd c8bd 003d 372b e43c 07e4 ab3c
00000020: 9b4e a53d 0be9 d63d bc07 b03d c416 a5bc
00000030: bfb8 df3d ff06 4f3d 76ff 2d3d 139a 463b
00000040: 6f47 88bd 1c43 943d 08fc 093d 6e5b d03c
00000050: 0728 22bd 45a4 ea3d ceed ae3d 60c3 ef3d
00000060: d71a e7bc 3165 2d3d 399a 4cbd 3328 bd3d
00000070: b126 da3d 1019 193d 4e51 d23d 7e88 c0bd
00000080: 5386 e53c de1a 873d 24ff abbd f4f3 25ba
00000090: a364 863d d271 26bd 5e2f b6bd 15e3 8d3d
000000a0: 14e5 bfbd 50e2 77bb 1f13 e73d 5740 08bd
000000b0: e8d9 fcbb 1551 e43c a79b e1bd 74b0 e3bd
000000c0: 628e 2cbd a060 b93c e084 013e 9d85 223d
000000d0: 0d08 00be 6e52 b43d 7fff 4fbd df8d 4f3c
000000e0: 8e4e b43d f595 8e3d 6d00 673d fd4a eb3c
000000f0: 8f14 d5bd 47e7 e3bc c4cd da3d c4ab f8bd

feature_extract.mlps.0.batch_norms.0.weight f4 [64]
0.99726903 0.99989456 1.0000205 0.99703145 0.99039716 1.0030556 1.0017328 0.9980675
0.9943716 1.0057163 1.0047842 0.99687696 0.9970488 0.9992729 1.0067577 0.9996185
1.0001695 0.99897754 0.9975008 1.0014333 0.99838966 1.0048665 0.9977458 0.9956797
0.99783444 0.9955867 1.0026526 1.004412 1.0038289 1.0016773 1.004087 1.005525
0.9993263 0.9977452 1.0030075 1.0015593 0.9951068 1.0037293 1.004717 0.99565846
0.9962514 0.999039 0.9965591 1.0037594 0.9979337 0.99615276 1.0015056 1.0029633
0.99734706 0.99802047 1.0038799 0.9993139 0.9936704 1.0032024 0.99621826 0.9974294
1.0014858 1.0033568 1.0000547 0.99653465 0.9978123 1.0044355 0.99578834 0.9958544
00000000: 064d 7f3f 17f9 7f3f ac00 803f 743d 7f3f
00000010: ab8a 7d3f 2064 803f c838 803f 5a81 7f3f
00000020: 238f 7e3f 50bb 803f c59c 803f 5433 7f3f
00000030: 973e 7f3f 59d0 7f3f 70dd 803f ffe6 7f3f
00000040: 8e05 803f febc 7f3f 365c 7f3f f72e 803f
00000050: 7796 7f3f 779f 803f 456c 7f3f dde4 7e3f
00000060: 1472 7f3f c5de 7e3f ec56 803f 9390 803f
00000070: 777d 803f f636 803f ec85 803f 0bb5 803f
00000080: d9d3 7f3f 3b6c 7f3f 8d62 803f 1833 803f
00000090: 52bf 7e3f 347a 803f 919a 803f 79e3 7e3f
000000a0: 550a 7f3f 05c1 7f3f 7f1e 7f3f 307b 803f
000000b0: 9578 7f3f de03 7f3f 5631 803f 1a61 803f
000000c0: 2352 7f3f 457e 7f3f 237f 803f 09d3 7f3f
000000d0: 2f61 7e3f f068 803f 2908 7f3f 8857 7f3f
000000e0: b030 803f ff6d 803f cb01 803f e51c 7f3f
000000f0: a070 7f3f 5891 803f fceb 7e3f 50f0 7e3f

feature_extract.mlps.0.batch_norms.0.bias f4 [64]
0.0016370587 0.0031380274 0.0026374855 -0.004709892 -0.0002670021 0.0035802627 0.006357447 -0.000884596
0.002124613 0.003788588 0.0040983963 -0.004132317 -0.0030148714 0.0059031285 0.0051002293 0.0018331439
0.0023114712 -0.0068935594 -0.00038608006 -0.00034753108 -0.005189782 0.0043178485 0.0037320151 -0.0035078058
0.0042678756 -0.0041201124 -0.00060610287 0.002137551 -0.0006021047 0.0032617562 0.001260404 0.004901693
0.00081212254 0.004729501 0.0025720256 0.0005197009 -0.004657687 0.0035545907 0.0040363367 -0.0073117325
-0.0041457214 0.005309178 -0.0018874328 0.0041679586 -0.0017993979 -0.0038040509 -0.003769951 0.0035290571
0.0011730448 0.0021948502 0.0034275167 0.0006984564 -0.003917252 -0.005989229 -0.0033543606 -0.00047564707
-0.00054669636 -0.0016179748 0.004596154 -0.0028753923 -0.002064279 0.0038660544 0.0006044002 -0.0043438426
00000000: 9392 d63a 5da7 4d3b aad9 2c3b 7055 9abb
00000010: 6afc 8bb9 d7a2 6a3b 2152 d03b 3ce4 67ba
00000020: 173d 0b3b f649 783b d74b 863b 6368 87bb
00000030: 2695 45bb 086f c13b d31f a73b 1a46 f03a
00000040: 0d7c 173b 5ee3 e1bb ca6a cab9 d534 b6b9
00000050: 0c0f aabb bd7c 8d3b d394 743b 37e3 65bb
00000060: 89d9 8b3b 0202 87bb e0e2 1eba 2816 0c3b
00000070: 90d6 1dba 30c3 553b 2434 a53a 629e a03b
00000080: 9fe4 543a eef9 9a3b 6e8f 283b 893c 083a
00000090: 839f 98bb 23f4 683b 3f43 843b 4297 efbb
000000a0: d5d8 87bb 9df8 ad3b bc63 f7ba 5f93 883b
000000b0: c6d9 ebba 624d 79bb 4811 77bb c147 673b
000000c0: dac0 993a 7ad7 0f3b 30a0 603b 9e18 373a
000000d0: 4b5c 80bb 4b41 c4bb d5d4 5bbb 4560 f9b9
000000e0: 2c50 0fba 3a12 d4ba 569b 963b 1471 3cbb
000000f0: db48 07bb a15d 7d3b 9c70 1e3a cb56 8ebb

feature_extract.mlps.0.batch_norms.0.running_mean f4 [64]
0.5846409 0.5124482 -1.1098065 -0.33174467 1.2286699 -3.1591365 -1.8797859 -2.9111786
-0.10895481 -2.2860897 0.87494195 -1.5569898 1.8332508 -0.70390517 2.0997171 0.95111203
0.256168 0.38590494 -1.1609746 0.45617786 0.45720744 -0.99595743 -0.8880324 -0.27581313
0.7857528 -2.1239896 0.19840612 -0.46352476 -2.5090566 -2.0795958 -0.5439039 2.3767674
-0.72265226 0.08356782 2.7110395 -1.3739815 0.067144014 -1.8295857 -1.1289989 2.2843623
1.1397997 0.25582018 0.92766446 -0.6500866 1.4256053 3.4983015 -1.0875306 -0.022848595
0.2631864 -0.72513103 1.2382386 -0.23570465 -0.23121795 -0.1066018 2.3091712 -0.24491185
-3.0984175 0.43151143 -2.208977 1.4348658 0.6492838 2.7450385 -0.39079064 -1.6590664
00000000: 07ab 153f ce2f 033f 240e 8ebf 70da a9be
00000010: 0e45 9d3f 4b2f 4ac0 d39c f0bf c050 3ac0
00000020: b323 dfbd 4b4f 12c0 32fc 5f3f 714b c7bf
00000030: f6a7 ea3f 2133 34bf c461 0640 147c 733f
00000040: 7428 833e 5595 c53e d19a 94bf 2590 e93e
00000050: 1817 ea3e 11f7 7ebf 1756 63bf 6137 8dbe
00000060: 1827 493f 72ef 07c0 f92a 4b3e 1e53 edbe
00000070: 6294 20c0 1918 05c0 493d 0bbf f51c 1840
00000080: bdff 38bf 9b25 ab3d ac81 2d40 a0de afbf
00000090: cd82 893d dd2f eabf 0983 90bf fe32 1240
000000a0: f5e4 913f ddfa 823e 6b7b 6d3f 136c 26bf
000000b0: 3c7a b63f 2ce4 5f40 3434 8bbf fa2c bbbc
000000c0: 5ec0 863e 30a2 39bf 9a7e 9e3f 8f5c 71be
000000d0: 66c4 6cbe 0b52 dabd 76c9 1340 2cca 7abe
000000e0: 794c 46c0 11ef dc3e e15f 0dc0 afa9 b73f
000000f0: 7737 263f b6ae 2f40 b615 c8be 4a5c d4bf

feature_extract.mlps.0.batch_norms.0.running_var f4 [64]
0.3296023 0.9047447 0.049273714 1.0202056 0.9836126 1.8797358 0.69740885 0.2858386
0.5340652 0.543661 0.5909689 0.39391804 0.14137776 0.6073012 1.4185579 1.8058207
1.0475609 0.56463194 1.1448537 0.011487444 0.0016224836 0.43418914 0.16805696 0.0019032751
0.36538124 1.5032531 0.52071655 0.81997824 1.4563911 1.0102454 0.2918767 0.7201064
0.01990228 0.46749458 1.0883662 0.4403887 0.024406986 0.059331093 0.81638354 0.7458111
1.6332139 0.012688082 0.093375474 0.026165348 0.03198251 0.57045215 0.4180583 0.3354692
1.1018804 1.1257435 0.16081035 0.8023377 0.05330795 0.91325295 0.121262714 0.6095223
0.945284 0.56470567 0.7100692 1.7726794 0.21793585 0.25513008 0.4316926 0.68333375
00000000: a2c1 a83e 599d 673f 3cd3 493d 1996 823f
00000010: 09ce 7b3f 2f9b f03f 6389 323f 7059 923e
00000020: 7fb8 083f 5e2d 0b3f bd49 173f a0af c93e
00000030: 55c5 103e 1778 1b3f 4e93 b53f 2225 e73f
00000040: 7a16 863f b88b 103f 918a 923f d535 3c3c
00000050: 84a9 d43a 0a4e de3e 2017 2c3e 5177 f93a
00000060: 4013 bb3e 996a c03f ae4d 053f 18ea 513f
00000070: 066b ba3f b94f 813f dd70 953e e558 383f
00000080: 1b0a a33c 735b ef3e 954f 8b3f a17a e13e
00000090: 29f1 c73c 2905 733d 83fe 503f 7aed 3e3f
000000a0: 270d d13f ace1 4f3c a43b bf3d b658 d63c
000000b0: 1800 033d 2709 123f bd0b d63e 9ec2 ab3e
000000c0: 6b0a 8d3f 5d18 903f 78ab 243e 0166 4d3f
000000d0: 7059 5a3d f2ca 693f 9658 f83d a709 1c3f
000000e0: 22fe 713f 8d90 103f 18c7 353f 29e7 e23f
000000f0: 932a 5f3e 69a0 823e d006 dd3e f6ee 2e3f

feature_extract.mlps.1.linears.0.weight f4 [64, 64]
0.111133024 0.06703228 0.09986939 0.12894902 -0.0072589153 -0.0426006 -0.056860555 0.008514773
0.037569314 -0.026631687 0.08099134 -0.12194843 -0.102188855 -0.039049037 -0.01362787 -0.004700358
-0.03438953 -0.031180488 -0.08262102 0.031537257 0.054039195 0.0366913 -0.030356316 -0.04069446
0.07366823 -0.006833879 0.0041283094 -0.0010473342 -0.054767758 0.033594456 0.115846895 0.054511275
-0.037764926 0.026929868 -0.07549592 0.09134923 -0.032643076 0.08113491 -0.111894414 0.10820565
0.10202227 0.061397042 0.08876928 0.05142949 0.07807773 0.08857657 -0.05156266 -0.1168856
0.07401662 -0.11632038 0.029523151 -0.07310986 0.045827366 -0.005242687 0.09380569 0.06752431
0.002644297 -0.06521672 0.07386893 -0.03264863 0.07570216 0.06617776 -0.04118803 0.046258837
-0.011847289 -0.09796514 -0.09523282 0.09469975 -0.033163782 0.12031664 -0.091986164 0.11855339
-0.04217066 0.06996175 -0.121901825 0.0905326 0.043415666 -0.068668775 0.058034625 -0.065856546
0.09208172 -0.018991478 -0.015103052 0.053475242 -0.03914344 0.067373045 -0.024391456 -0.05117851
-0.10257605 0.11106523 -0.040962387 0.09890988 0.025622206 -0.06805374 0.100389436 -0.0630444
-0.010463459 0.042422842 -0.10317147 -0.012568411 -0.049332153 -0.005875382 -0.040726617 -0.10593641
-0.06559977 0.008654652 -0.026128883 -0.030592563 0.0059424303 0.013168999 -0.061913818 -0.047574483
0.10351746 0.06603648 0.10472175 0.10356052 0.10666915 0.11661544 -0.057147752 0.04931662
-0.051052388 -0.08148775 -0.0851925 -0.108966485 0.052495 0.05328828 0.052247066 -0.05532747
-0.059220955 0.09071695 -0.0693951 0.07934574 -0.06566115 -0.09917023 -0.004212973 0.109481536
0.11201184 -0.12550609 0.020713376 -0.12542696 -0.08419199 0.037551176 -0.007020361 -0.03047439
-0.067876965 -0.027240409 0.015270782 -0.014137595 -0.056097392 -0.04544414 0.11256313 0.019567119
-0.027905772 -0.085122064 -0.046762682 -0.02057925 0.11743495 -0.09192731 -0.06396106 -0.07280515
-0.016361479 0.07018137 -0.042507075 -0.036855374 -0.11413422 0.04150665 0.008944689 -0.049911264
0.12166413 0.09687195 0.0058190078 -0.04335229 -0.0039574187 0.016714938 -0.023755955 0.12373485
0.083722204 -0.06091094 -0.07886641 0.04718354 -0.00022288901 -0.021622518 -0.0888766 -0.0565584
0.1254793 0.09633587 -0.034660514 -0.012103805 0.052391496 0.009495447 0.03461174 0.08469769
0.07183185 -0.05393162 0.09848147 0.04858568 -0.05905384 -0.022636002 0.045531306 -0.055070534
-0.083771594 -0.06953034 0.08410448 -0.075996615 -0.11675014 0.08343334 -0.09541559 0.113490224
-0.12314396 0.015756596 0.010167799 0.02212228 0.040264614 -0.11622648 0.04756356 -0.008796585
-0.024352321 0.10934326 -0.034697395 -0.038390253 -0.104365975 -0.116437145 -0.095444195 0.026500944
0.03687349 -0.029553648 -0.07038825 -0.002494797 -0.032728545 0.020406026 0.05311828 -0.045934767
-0.033849362 -0.083914965 0.11674982 0.045874298 -0.118407354 0.060885336 0.061925948 0.05611379
-0.02055217 -0.09208929 0.027032297 -0.032646902 -0.032213137 -0.03623537 -0.071721286 0.04333617
0.06432305 0.007435482 0.10687967 -0.061719228 -0.096172765 -0.1265126 -0.10963167 -0.10792273
00000000: b699 e33d 3848 893d 5388 cc3d 360b 043e
00000010: 32dc edbb f77d 2ebd 9de6 68bd 8c81 0b3c
00000020: 48e2 193d b22a dabc cade a53d 19c0 f9bd
00000030: 6448 d1bd e2f1 1fbd 6e47 5fbc 7605 9abb
00000040: 09dc 0cbd 396e ffbc 3635 a9bd 362d 013d
00000050: 3458 5d3d 9e49 163d cfad f8bc 3caf 26bd
00000060: 5edf 963d bbee dfbb c546 873b b446 89ba
00000070: 2854 60bd 579a 093d 2341 ed3d 3747 5f3d
00000080: 65af 1abd 079c dc3c 9b9d 9abd 4e15 bb3d
00000090: bfb4 05bd 0f2a a63d e628 e5bd ec9a dd3d
000000a0: 0df1 d03d 777b 7b3d abcc b53d bba7 523d
000000b0: 38e7 9f3d a267 b53d 5e33 53bd b861 efbd
000000c0: 0796 973d 6139 eebd 89da f13c 9fba 95bd
000000d0: 7ab5 3b3d d9ca abbb 331d c03d 2f4a 8a3d
000000e0: f14b 2d3b 5890 85bd 9848 973d 92ba 05bd
000000f0: bc09 9b3d 3588 873d c8b4 28bd e879 3d3d
00000100: 221b 42bc f3a1 c8bd 6d09 c3bd f1f1 c13d
00000110: bfd6 07bd 9268 f63d 3e63 bcbd 1fcc f23d
00000120: 24bb 2cbd 1b48 8f3d aaa7 f9bd 2869 b93d
00000130: a0d4 313d 37a2 8cbd b7b5 6d3d ccdf 86bd
00000140: 5795 bc3d 0494 9bbc cb72 77bc db08 5b3d
00000150: df54 20bd e1fa 893d 97d0 c7bc 8fa0 51bd
00000160: 6413 d2bd 2b76 e33d 2dc8 27bd 4391 ca3d
00000170: a9e5 d13c c25f 8bbd fa98 cd3d 6c1d 81bd
00000180: ee6e 2bbc 93c3 2d3d 904b d3bd bdeb 4dbc
00000190: 8310 4abd 4786 c0bb f4d0 26bd 30f5 d8bd
000001a0: 2c59 86bd 3ecc 0d3c 3d0c d6bc 419d fabc
000001b0: b8b8 c23b c9c2 573c 5899 7dbd 76dd 42bd
000001c0: f600 d43d 223e 873d 5b78 d63d 8a17 d43d
000001d0: 5b75 da3d 13d4 ee3d c313 6abd 3900 4a3d
000001e0: 4f1c 51bd 0de3 a6bd 6879 aebd d229 dfbd
000001f0: ff04 573d d044 5a3d 0501 563d 0f9f 62bd
00000200: ac91 72bd cfc9 b93d 051f 8ebd 0580 a23d
00000210: 5a79 86bd c319 cbbd fb0c 8abb db37 e03d
00000220: 7766 e53d ab84 00be 19af a93c ed6f 00be
00000230: da6c acbd 43cf 193d 0e0b e6bb 6ea5 f9bc
00000240: 1403 8bbd 4727 dfbc 4d32 7a3c 5fa1 67bc
00000250: 61c6 65bd a223 3abd 8087 e63d 394b a03c
00000260: a59a e4bc 7a54 aebd 3a8a 3fbd d195 a8bc
00000270: bc81 f03d 6344 bcbd 04fe 82bd de1a 95bd
00000280: 8208 86bc 40bb 8f3d e61b 2ebd a9f5 16bd
00000290: 34bf e9bd e102 2a3d bf8c 123c c16f 4cbd
000002a0: 0b2b f93d cd64 c63d 60ad be3b 2c92 31bd
000002b0: 3cad 81bb c4ed 883c d99b c2bc b268 fd3d
000002c0: 8c76 ab3d c07d 79bd b684 a1bd 8743 413d
000002d0: 50b7 69b9 b521 b1bc ef04 b6bd c8a9 67bd
000002e0: a57d 003e be4b c53d 2ff8 0dbd 0a4f 46bc
000002f0: 7798 563d cb92 1b3c 0ac5 0d3d fc75 ad3d
00000300: 941c 933d 67e7 5cbd a7b0 c93d c701 473d
00000310: 70e2 71bd 236f b9bc 097f 3a3d a491 61bd
00000320: 7190 abbd ec65 8ebd f83e ac3d 1da4 9bbd
00000330: b31a efbd 19df aa3d 4069 c3bd 906d e83d
00000340: e732 fcbd fa13 813c d796 263c c939 b53c
00000350: 82ec 243d 2608 eebd 02d2 423d 8d1f 10bc
00000360: 857e c7bc 5cef df3d db1e 0ebd 193f 1dbd
00000370: d4bd d5bd 9976 eebd 3f78 c3bd 8218 d93c
00000380: a808 173d 7e1a f2bc b727 90bd c07f 23bb
00000390: 5e0e 06bd 8a2a a73c 8e92 593d 1826 3cbd
000003a0: a1a5 0abd 9cdb abbd 881a ef3d b0e6 3b3d
000003b0: 8e7f f2bd e762 793d 10a6 7d3d 93d7 653d
000003c0: 065d a8bc 4f99 bcbd d672 dd3c c2b8 05bd
000003d0: ecf1 03bd 8a6b 14bd 9ce2 92bd 4581 313d
000003e0: cebb 833d 58a5 f33b bae3 da3d 4dcd 7cbd
000003f0: 3af6 c4bd 858c 01be 9286 e0bd 9806 ddbd

feature_extract.mlps.1.linears.0.bias f4 [64]
-0.07444113 0.04753495 -0.013510507 0.034214955 -0.05077244 -0.07548736 -0.04756446 0.10044689
0.087757565 0.023501163 0.010965838 -0.020953683 0.08961051 -0.04731159 0.03844055 -0.037750132
0.11840482 0.011810307 0.096556194 0.111294106 -0.059491783 -0.09244385 0.0034721412 0.026766509
0.12023857 0.105569795 -0.08295427 0.08092091 0.019356795 -0.07118998 -0.085139416 0.08406535
0.07785155 -0.107672445 -0.075871795 0.06473812 0.054812253 0.049733933 -0.057196036 0.007717402
0.0018356603 -0.0036546013 0.03502649 -0.009464232 0.07735137 -0.12384827 0.09630555 0.11477607
0.015133892 0.068853304 -0.05919049 0.108445615 0.010536682 -0.11545661 0.05810326 0.09285545
0.03351088 0.061974097 -0.008427904 0.053154368 0.10855242 -0.11700107 -0.07332125 -0.11403116
00000000: 9774 98bd 02b4 423d 2c5b 5dbc fb24 0c3d
00000010: c3f6 4fbd 1e99 9abd f4d2 42bd 19b7 cd3d
00000020: 3dba b33d 8385 c03c 0faa 333c 0fa7 abbc
00000030: b785 b73d ccc9 41bd d773 1d3d e29f 1abd
00000040: 3a7e f23d 0580 413c 41bf c53d 2aee e33d
00000050: a8ad 73bd 3453 bdbd dd8c 633b 7045 db3c
00000060: a43f f63d fa34 d83d eee3 a9bd ddb9 a53d
00000070: 2492 9e3c 0dcc 91bd 935d aebd 742a ac3d
00000080: a270 9f3d 5f83 dcbd ac62 9bbd 6b95 843d
00000090: d082 603d cfb5 4b3d 6446 6abd 43e2 fc3b
000000a0: 8a9a f03a 0982 6fbb f077 0f3d de0f 1bbc
000000b0: 656a 9e3d 29a4 fdbd d83b c53d b70f eb3d
000000c0: 25f4 773c f602 8d3d ba71 72bd bc18 de3d
000000d0: 0ca2 2c3c 8474 ecbd affd 6d3d 002b be3d
000000e0: b442 093d 8dd8 7d3d 3115 0abc 65b8 593d
000000f0: bb50 de3d 429e efbd 7429 96bd 2b89 e9bd

feature_extract.mlps.1.linears.1.weight f4 [64, 64]
-0.025996355 0.086256765 0.0641254 -0.012203969 -0.10116213 -0.08502506 0.10065992 0.094980836
0.045499202 -0.0062785815 -0.10459242 -0.08537145 -0.088760465 0.07849334 -0.059386987 0.08079975
0.1152109 0.08624572 -0.023802167 0.004262001 0.11132173 -0.10527885 0.058898468 0.107182965
-0.01906931 -0.054991316 -0.111935325 -0.053815126 0.050404657 -0.046854723 0.0673382 -0.028413188
0.07807762 0.02078591 -0.108082905 -0.083405256 -0.06866484 0.10246629 -0.10047688 0.04974397
-0.10042358 0.037741598 -0.01968942 -0.06665993 0.10176689 -0.11754978 0.116414785 0.027357308
0.008014043 -0.07235173 -0.0047636568 0.07681921 0.069060646 0.123068206 -0.022871774 0.010828449
-0.042583615 -0.10849356 0.039819412 -0.100134864 0.08584192 -0.015185196 -0.012927343 0.05260663
0.014995968 0.08241545 0.09441463 -0.081594005 -0.11087363 -0.11371032 0.11705237 0.12027773
-0.0075526866 0.04115579 0.05154121 -0.11988261 0.04481811 -0.036692403 -0.09680798 0.00050488074
0.07701558 -0.106961414 0.027804665 -0.08612723 -0.056617822 -0.029899318 0.06787317 -0.112658545
-0.043395616 0.064698376 0.026022142 0.027881708 0.09592649 -0.030725773 0.046654303 -0.06251537
-0.013374037 0.0044870176 -0.016429007 -0.10444 0.06570499 0.055575386 0.049118087 0.056516837
-0.036918905 0.014045393 -0.060946655 0.062368363 -0.029748088 0.10926262 -0.069038585 0.12779076
0.11872849 -0.055438127 0.06435124 0.08150928 -0.12190674 0.090895936 0.045495123 -0.10613852
-0.038647674 -0.108103186 -0.048846114 -0.09217894 -0.08441174 -0.059487306 -0.030627592 -0.03241868
-0.008670526 0.06980618 0.07484149 -0.03403226 -0.079533614 0.12742461 0.115454316 -0.021101225
0.015443788 0.07214519 0.04735048 0.04736214 0.10368782 0.023160538 -0.028376387 -0.10245883
0.072995946 -0.03894084 -0.07151385 0.06466043 -0.102343954 0.09566998 -0.007418045 0.12446264
-0.061316196 0.103790216 -0.012234353 -0.120419934 0.010080228 -0.0035411667 0.047951225 0.018885184
0.008361213 -0.12891762 -0.08428406 -0.06766515 -0.047788173 -0.05582423 -0.041275308 0.056226432
0.046710983 -0.007474912 -0.13309762 0.11100376 0.06621941 -0.12395099 0.08987438 0.095371865
0.099138826 0.0012073378 -0.098190315 -0.00890028 -0.08652955 0.1028645 0.08541348 0.022140652
0.017642638 -0.050084095 -0.057260443 0.060930867 0.09039613 0.029092822 -0.01470066 0.00055562233
-0.012806 -0.012367633 -0.011514619 0.022597859 0.019358886 0.10990485 -0.08881158 -0.04959571
0.030838171 0.10811085 0.111509696 0.0672814 0.00014655736 0.07518058 -0.08706624 0.022053927
-0.04350763 0.07745972 -0.06353385 0.11807177 0.015701206 -0.11862421 0.09553522 -0.0012659688
-0.13080248 0.11682803 -0.06550295 -0.007497986 0.12179011 -0.042161103 -0.09947632 0.12776859
-0.09741894 0.11970108 0.11153519 0.0789607 0.06624282 0.020456238 -0.120768696 -0.09454034
0.085695595 0.11019384 0.06987964 -0.10364296 0.07002514 -0.0049121417 -0.017111117 -0.111289926
-0.08781961 -0.12049501 0.023323106 0.12453516 -0.06715253 -0.049829397 -0.098143496 -0.11231784
0.110313766 0.07023061 -0.0051534576 0.03280103 0.08522349 -0.017904297 -0.08572437 0.026703645
00000000: 4ff6 d4bc 63a7 b03d 2d54 833d 28f3 47bc
00000010: 172e cfbd 9e21 aebd ca26 ce3d 5085 c23d
00000020: 5f5d 3a3d 8fbc cdbb 8d34 d6bd 3ad7 aebd
00000030: 0cc8 b5bd 1ec1 a03d c53f 73bd 577a a53d
00000040: b1f3 eb3d 99a1 b03d c3fc c2bc 41a8 8b3b
00000050: a6fc e33d 709c d7bd 853f 713d be82 db3d
00000060: 3e37 9cbc 933e 61bd 593e e5bd 406d 5cbd
00000070: 1d75 4e3d bdea 3fbd 9ce8 893d c6c2 e8bc
00000080: 29e7 9f3d 3647 aa3c 925a ddbd 60d0 aabd
00000090: 27a0 8cbd d9d9 d13d d3c6 cdbd 55c0 4b3d
000000a0: e1aa cdbd ef96 1a3d b54b a1bc 0085 88bd
000000b0: 296b d03d f0bd f0bd e06a ee3d 6f1c e03c
000000c0: 554d 033c 252d 94bd 7318 9cbb 6453 9d3d
000000d0: ab6f 8d3d 2f0b fc3d 965d bbbc cf69 313c
000000e0: 286c 2ebd df31 debd ae19 233d 8213 cdbd
000000f0: e3cd af3d 54cb 78bc 35cd 53bc 0d7a 573d
00000100: a6b1 753c 6ec9 a83d 755c c13d c21a a7bd
00000110: b711 e3bd f5e0 e8bd 27b9 ef3d 2c54 f63d
00000120: 877c f7bb f992 283d e01c 533d 0485 f5bd
00000130: 3293 373d c64a 16bd 4343 c6bd f959 043a
00000140: 58ba 9d3d 960e dbbd 9cc6 e33c 7963 b0bd
00000150: 17e8 67bd 6aef f4bc 1701 8b3d 86b9 e6bd
00000160: 9abf 31bd 9580 843d 632c d53c 2e68 e43c
00000170: 1c75 c43d 9eb4 fbbc 9518 3f3d 0f08 80bd
00000180: c71e 5bbc d507 933b 2096 86bc a4e4 d5bd
00000190: 5690 863d 04a3 633d 0c30 493d 337e 673d
000001a0: 4738 17bd a61e 663c 33a3 79bd f875 7f3d
000001b0: 43b2 f3bc 15c5 df3d 1a64 8dbd 95db 023e
000001c0: ec27 f33d 1713 63bd 95ca 833d 56ee a63d
000001d0: 3eaa f9bd a627 ba3d 1859 3a3d 275f d9bd
000001e0: 064d 1ebd 3465 ddbd dd12 48bd 50c8 bcbd
000001f0: 10e0 acbd f6a8 73bd b7e6 fabc 73c9 04bd
00000200: d20e 0ebc 8bf6 8e3d 7f46 993d 6965 0bbd
00000210: 85e2 a2bd 997b 023e 5073 ec3d 7adc acbc
00000220: f107 7d3c dbc0 933d 94f2 413d cefe 413d
00000230: 485a d43d 2bbb bd3c 9975 e8bc efd5 d1bd
00000240: e67e 953d 6e80 1fbd da75 92bd b06c 843d
00000250: b599 d1bd 9fee c33d 1213 f3bb 45e6 fe3d
00000260: b126 7bbd f78f d43d 9972 48bc ba9e f6bd
00000270: 8a27 253c eb12 68bb 8168 443d 1ab5 9a3c
00000280: 78fd 083c fb02 04be 1f9d acbd 0794 8abd
00000290: 88bd 43bd f3a7 64bd 4c10 29bd b04d 663d
000002a0: 0454 3f3d 1bf0 f4bb be4a 08be f055 e33d
000002b0: 0b9e 873d 04da fdbd 0f10 b83d 5352 c33d
000002c0: 4c09 cb3d 893f 9e3a 0118 c9bd 7bd2 11bc
000002d0: 6836 b1bd 9faa d23d 43ed ae3d 5060 b53c
000002e0: 4b87 903c fb24 4dbd ed89 6abd a592 793d
000002f0: 9b21 b93d 1254 ee3c 09db 70bc 2fa7 113a
00000300: 42d0 51bc 9da1 4abc d0a7 3cbc 251f b93c
00000310: 8796 9e3c cb15 e13d d8e2 b5bd df24 4bbd
00000320: 55a0 fc3c 3969 dd3d 325f e43d d5ca 893d
00000330: 31ad 1939 47f8 993d c94f b2bd 70aa b43c
00000340: 0e35 32bd 34a3 9e3d 091e 82bd 9dcf f13d
00000350: d19f 803c 40f1 f2bd f8a7 c33d ddee a5ba
00000360: 16f1 05be 8943 ef3d 6926 86bd aab1 f5bb
00000370: 186d f93d 1fb1 2cbd 3eba cbbd c5d5 023e
00000380: 9583 c7bd d725 f53d 906c e43d 26b6 a13d
00000390: 51aa 873d d793 a73c 9455 f7bd 5e9e c1bd
000003a0: 2c81 af3d 4fad e13d 0f1d 8f3d c342 d4bd
000003b0: 5769 8f3d 08f6 a0bb 9d2c 8cbc f9eb e3bd
000003c0: c5da b3bd 16c6 f6bd 1910 bf3c 4a0c ff3d
000003d0: 4487 89bd e919 4cbd 75ff c8bd e506 e6bd
000003e0: 2fec e13d 11d5 8f3d 56de a8bb 5f5a 063d
000003f0: a789 ae3d 08ac 92bc 4290 afbd 9ac1 da3c

feature_extract.mlps.1.linears.1.bias f4 [64]
0.08048291 -0.038417775 -0.09124432 0.04581911 0.030719887 0.04525077 -0.022811461 -0.069963954
0.022144597 0.0839868 0.13032547 -0.084125295 -0.03202617 0.09665934 -0.08582399 0.09965169
0.037327666 0.07145704 -0.04052171 0.10342647 -0.12131163 0.08351744 0.006882532 0.034894258
0.066600196 -0.1259654 0.005865666 0.007128074 0.03515153 -0.015666302 0.023378525 -0.007898786
-0.109309986 -0.05671367 0.08658523 -0.10245249 -0.04541704 -0.10182959 -0.005336415 0.05427245
-0.01207247 0.06379916 -0.07616187 -0.080878265 -0.10665317 0.06378148 0.02247984 -0.09084274
-0.11733413 -0.042162403 -0.0030156479 0.08491297 -0.084305495 0.085699946 0.048557457 -0.117092736
0.04685953 0.07720953 -0.07176859 0.08488219 0.11455945 -0.09085373 0.085114986 0.07862867
00000000: 39d4 a43d f55b 1dbd 4dde babd d2ac 3b3d
00000010: 46a8 fb3c df58 393d 1adf babc 4349 8fbd
00000020: 9668 b53c 4501 ac3d 0a74 053e e249 acbd
00000030: e02d 03bd 55f5 c53d 7dc4 afbd 2f16 cc3d
00000040: e5e4 183d 1258 923d 18fa 25bd 42d1 d33d
00000050: 3b72 f8bd 310b ab3d dd86 e13b 48ed 0e3d
00000060: af65 883d 13fd 00be c634 c03b 9e92 e93b
00000070: 0dfb 0f3d 9e56 80bc 5284 bf3c e969 01bc
00000080: eadd dfbd 984c 68bd 9953 b13d 9cd2 d1bd
00000090: 3807 3abd 088c d0bd 18dd aebb ca4c 5e3d
000000a0: 9ccb 45bc 22a9 823d c1fa 9bbd 81a3 a5bd
000000b0: fa6c dabd dd9f 823d a427 b83c c20b babd
000000c0: e04c f0bd 7cb2 2cbd 2da2 45bb dae6 ad3d
000000d0: 5ca8 acbd 7483 af3d 2fe4 463d 51ce efbd
000000e0: c7ef 3f3d 0820 9e3d 69fb 92bd b7d6 ad3d
000000f0: 259e ea3d 8511 babd c450 ae3d 1108 a13d

feature_extract.mlps.1.batch_norms.0.weight f4 [64]
0.99128747 0.99735254 1.0081121 0.997176 0.99803764 1.0030739 1.0072017 0.9960306
0.9983427 1.0062987 0.9987335 1.0070131 0.9947126 0.99511194 0.9911783 0.9953068
0.9967985 0.99233365 0.994499 1.0060153 1.0153426 0.9983444 0.9932105 1.0029701
1.0056889 1.0096419 1.0013851 1.0076215 1.0064547 1.0069383 0.9930844 1.0071006
1.0048594 0.9953703 1.0038005 1.0023942 0.99253976 0.9976454 0.99260575 0.9908557
1.0018586 0.994338 0.9967183 0.98921114 0.9967736 1.0118086 1.0078546 1.0092282
0.9977814 0.9938453 1.0075511 1.0044072 1.0009555 1.0101637 0.993283 0.9940704
0.9901188 0.9962448 0.99475825 0.9946213 0.99904686 1.0028335 1.0067269 1.0015829
00000000: 04c5 7d3f 7f52 7f3f d109 813f ed46 7f3f
00000010: 657f 7f3f ba64 803f fceb 803f ddfb 7e3f
00000020: 6393 7f3f 65ce 803f 00ad 7f3f cee5 803f
00000030: 7ca5 7e3f a8bf 7e3f dcbd 7d3f 6dcc 7e3f
00000040: 302e 7f3f 9409 7e3f 7d97 7e3f 1cc5 803f
00000050: bff6 813f 8093 7f3f 0b43 7e3f 5361 803f
00000060: 6aba 803f f23b 813f 632d 803f bef9 803f
00000070: 82d3 803f 5be3 803f c73a 7e3f ace8 803f
00000080: 3c9f 803f 97d0 7e3f 897c 803f 744e 803f
00000090: 1617 7e3f b065 7f3f 691b 7e3f b8a8 7d3f
000000a0: e73c 803f ef8c 7e3f ee28 7f3f f13c 7d3f
000000b0: 8e2c 7f3f f282 813f 6101 813f 642e 813f
000000c0: 9a6e 7f3f a56c 7e3f 6ff7 803f 6a90 803f
000000d0: 4f1f 803f 0b4d 813f cb47 7e3f 667b 7e3f
000000e0: 6d78 7d3f e609 7f3f 7aa8 7e3f 809f 7e3f
000000f0: 89c1 7f3f d95c 803f 6ddc 803f de33 803f

feature_extract.mlps.1.batch_norms.0.bias f4 [64]
-0.008502668 -0.0025469363 0.0072512166 -0.0037299427 -0.004841201 0.004315489 0.00073218637 -0.004806548
0.011228046 0.005169024 0.00018322398 0.0067662615 -0.002747829 -0.004263072 -0.004752754 0.002961505
-0.0052620447 -0.0052201627 -0.008075999 0.0072722784 0.0054664565 -0.0016439522 -0.007249278 0.0032940048
0.005136407 0.0021652558 0.0017891163 0.0014417007 0.006240543 0.0057720384 -0.0057000797 0.008447258
0.004391016 -0.0038586014 0.00061414804 0.0019875742 -0.004980534 0.002128081 -0.0052620047 -0.0076055513
0.005083016 -0.005446115 -0.0023498337 -0.0058311326 -0.004469998 0.008670879 0.0058729486 0.009376374
0.006403925 -0.0050459574 0.007152542 0.005500552 0.0022048585 0.010826903 -0.0022509163 -0.0035028963
0.0052920934 -0.003565965 -0.0063773324 -0.0048793247 0.0067778034 0.0036103926 0.0043368805 0.0023552328
00000000: c64e 0bbc 80ea 26bb 9d9b ed3b 0e72 74bb
00000010: f0a2 9ebb f268 8d3b 32f0 3f3a 3f80 9dbb
00000020: d7f5 373c eb60 a93b d01f 4039 84b7 dd3b
00000030: ec14 34bb 3db1 8bbb fdbc 9bbb cf15 423b
00000040: 3b6d acbb e60d abbb 3251 04bc 4b4c ee3b
00000050: f61f b33b e279 d7ba 5a8b edbb 3be0 573b
00000060: 4e4f a83b f7e6 0d3b c880 ea3a 73f7 bc3a
00000070: 787d cc3b 5e23 bd3b bcc7 babb 5e66 0a3c
00000080: 83e2 8f3b 97e0 7cbb c7fe 203a f641 023b
00000090: bf33 a3bb 4677 0b3b e56c acbb fd37 f9bb
000000a0: 6e8f a63b 5375 b2bb abff 19bb 1613 bfbb
000000b0: 1079 92bb 4d10 0e3c dd71 c03b 5d9f 193c
000000c0: 04d8 d13b 8f58 a5bb df5f ea3b f93d b43b
000000d0: 637f 103b 5363 313c 1c84 13bb d990 65bb
000000e0: 4c69 ad3b f7b2 69bb f1f8 d0bb bee2 9fbb
000000f0: 5618 de3b 569c 6c3b 641c 8e3b 405a 1a3b

feature_extract.mlps.1.batch_norms.0.running_mean f4 [64]
1.0185475 -0.03878348 -0.25171483 -0.9629098 -0.15046158 0.08688862 7.784731e-05 -0.43082002
0.9376222 -0.0766294 -0.63898224 -0.5128982 0.28813177 -0.03478726 0.85695153 1.1575984
0.58617115 -0.30073455 0.6192149 -0.3542526 0.31033784 -0.09358049 -0.72219914 -1.1333975
-0.0045148367 -0.25809175 -0.42544994 0.5855606 -0.8456152 0.023419628 -0.3737836 -0.19825941
-0.93623346 -0.5357939 -0.22870047 0.4089648 0.0013213205 -0.8793789 0.85632384 -0.16758555
0.57224977 1.0756314 -0.13120401 0.3106052 -0.6221645 -0.030578274 -0.5900947 0.2717931
0.17175356 0.59756434 -0.8164991 0.08845811 0.7383946 -0.19740929 0.11057785 0.462551
0.72814107 0.019826123 0.94050056 -1.3442574 0.6476523 -0.18202646 0.6224666 0.18888879
00000000: c45f 823f 6ddb 1ebd c4e0 80be 4281 76bf
00000010: 9a12 1abe a9f2 b13d f541 a338 7194 dcbe
00000020: 0208 703f e0ef 9cbd 5794 23bf 4c4d 03bf
00000030: 0286 933e 167d 0ebd 2d61 5b3f 2f2c 943f
00000040: 500f 163f e1f9 99be de84 1e3f 9960 b5be
00000050: 9ae4 9e3e 21a7 bfbd 0be2 38bf 2b13 91bf
00000060: 32f1 93bb 9a24 84be 93d4 d9be 4de7 153f
00000070: 3d7a 58bf 85da bf3c 9060 bfbe 8404 4bbe
00000080: ffac 6fbf ca29 09bf 7530 6abe d663 d13e
00000090: 2930 ad3a fa1e 61bf 0a38 5b3f 8c9b 2bbe
000000a0: f67e 123f 4aae 893f 585a 06be a507 9f3e
000000b0: 2c46 1fbf 4a7f fabc 7210 17bf 7728 8b3e
000000c0: 2ae0 2f3e faf9 183f 1606 51bf 8729 b53d
000000d0: 6e07 3d3f a925 4abe a476 e23d 7cd3 ec3e
000000e0: 7467 3a3f 656a a23c a5c4 703f a010 acbf
000000f0: 8bcc 253f 2565 3abe f959 1f3f 106c 413e

feature_extract.mlps.1.batch_norms.0.running_var f4 [64]
0.31672528 0.5772508 0.41678905 0.475614 0.98387104 0.018930161 0.20007305 0.609529
0.5913401 0.45322108 0.4384402 0.33405015 0.41730383 1.5529064 0.5884127 0.9518001
0.5526739 0.71907127 0.50657177 0.52252424 1.4011109 0.36982444 0.95581484 1.2474186
0.737539 1.080057 0.7581039 0.42198735 0.49501893 1.0422963 0.27464622 0.20475093
0.3547119 0.5901538 0.25821787 0.6996658 0.27306893 0.63396627 0.75550044 0.60291904
0.43095222 0.5663048 0.72242934 0.29335165 0.6316504 1.455251 0.38017836 0.18043575
1.5922545 0.54296136 0.7182144 0.35402632 0.36987028 0.3486713 0.19491139 0.14949863
0.5946175 0.24448402 0.85184664 1.0592529 0.7092024 0.58828074 1.1996336 0.6188447
00000000: d129 a23e b5c6 133f 6065 d53e ae83 f33e
00000010: f9de 7b3f 6d13 9b3c f3df 4c3e 180a 1c3f
00000020: 1162 173f 980c e83e 3c7b e03e 9f08 ab3e
00000030: d9a8 d53e a3c5 c63f 37a2 163f 2ca9 733f
00000040: 097c 0d3f 0e15 383f b0ae 013f 26c4 053f
00000050: 9a57 b33f a159 bd3e 48b0 743f 6aab 9f3f
00000060: 5bcf 3c3f 4f3f 8a3f 1913 423f ba0e d83e
00000070: 1f73 fd3e f769 853f 6e9e 8c3e 3aaa 513e
00000080: cc9c b53e 5214 173f 2235 843e 4c1d 333f
00000090: b1cf 8b3e 9d4b 223f 7a68 413f e758 1a3f
000000a0: c5a5 dc3e 5af9 103f 21f1 383f 3032 963e
000000b0: d7b3 213f aa45 ba3f bda6 c23e 26c4 383e
000000c0: ffce cb3f 84ff 0a3f e6dc 373f f042 b53e
000000d0: a35f bd3e 0b85 b23e da96 473e 2b16 193e
000000e0: da38 183f 055a 7a3e 9f12 5a3f 9995 873f
000000f0: 4a8e 353f 9199 163f 988d 993f 9b6c 1e3f

feature_extract.batch_norms.0.weight f4 [64]
0.9934366 0.99905133 1.0009476 0.9984332 1.003438 0.99758816 0.99762225 1.0017432
0.9981638 0.99578506 0.9971483 1.002383 1.0037416 0.9943796 1.0054224 0.9997171
0.9952777 1.0036554 0.9981764 1.0000641 1.002626 1.0049607 0.996948 1.0017475
1.0027994 0.99231267 1.0049925 0.9979506 1.0042933 0.99289083 0.99687326 0.995953
1.0031402 1.000729 1.0031325 0.9975491 0.9892612 1.0049771 0.99497944 1.000713
1.0054713 0.994491 1.0027666 0.9959127 0.9991145 1.0003228 0.99866235 1.0045705
1.0056819 0.9935587 1.0046538 0.9995057 1.0009488 0.9931467 1.0008608 0.99847364
1.001134 1.0010141 1.0059854 1.0006554 1.003223 0.99725014 0.99408495 1.0023035
00000000: dc51 7e3f d4c1 7f3f 0d1f 803f 5199 7f3f
00000010: a870 803f f061 7f3f 2c64 7f3f 1f39 803f
00000020: aa87 7f3f c5eb 7e3f 1c45 7f3f 164e 803f
00000030: 9b7a 803f a98f 7e3f aeb1 803f 76ed 7f3f
00000040: 85ca 7e3f c877 803f 7d88 7f3f 1a02 803f
00000050: 0c56 803f 8da2 803f fc37 7f3f 4339 803f
00000060: bb5b 803f 3408 7e3f 98a3 803f b179 7f3f
00000070: af8c 803f 182e 7e3f 1633 7f3f c7f6 7e3f
00000080: e666 803f e317 803f a566 803f 615f 7f3f
00000090: 3940 7d3f 17a3 803f f9b6 7e3f 5d17 803f
000000a0: 49b3 803f f696 7e3f a85a 803f 22f4 7e3f
000000b0: f8c5 7f3f 940a 803f 56a8 7f3f c495 803f
000000c0: 2fba 803f dd59 7e3f 7f98 803f 9bdf 7f3f
000000d0: 171f 803f dd3e 7e3f 351c 803f f89b 7f3f
000000e0: 2925 803f 3b21 803f 21c4 803f 7a15 803f
000000f0: 9c69 803f c94b 7f3f 5a7c 7e3f 7b4b 803f

feature_extract.batch_norms.0.bias f4 [64]
-0.001488901 -0.0007224331 0.0028194224 -0.0013210877 0.0035629037 -0.0025253373 -0.005870234 0.005289688
-0.0056932946 -0.0033156557 0.00078104646 0.0023529772 0.0026976871 -0.0056526815 0.004198548 0.0038781583
-0.004051092 0.0026501312 0.008401219 0.002619547 0.0034865604 0.003932575 -0.0019259603 0.0012159625
0.00732755 -0.010498726 0.001332838 -0.001429119 0.004813439 -0.00638146 -0.0052057104 0.0040602465
0.0043451055 -0.0006079322 0.0044391546 -0.0044072852 0.0010347965 0.0037636333 -0.003966053 -0.0024763143
0.0038157874 -0.0046246545 0.0030979651 -0.0034133832 -0.00015166383 -0.0012717722 -0.0011789856 0.0040318985
0.0054543084 -0.003122903 0.0017722227 0.0003633426 0.0011176341 -0.0059367646 0.0018544305 -0.0008765438
0.00028239074 0.00054816273 0.0064087748 0.0038134556 0.0030300904 -0.0049140533 -0.007629423 0.003138861
00000000: 3a27 c3ba aa61 3dba 0fc6 383b 5928 adba
00000010: 9b7f 693b 2180 25bb 185b c0bb 1e55 ad3b
00000020: d18e babb 794b 59bb 24bf 4c3a 6834 1a3b
00000030: aecb 303b 213a b9bb f993 893b b328 7e3b
00000040: 06bf 84bb d3ad 2d3b 44a5 093c b5ac 2b3b
00000050: c77e 643b d5dc 803b 8170 fcba ee60 9f3a
00000060: f21b f03b d902 2cbc 9fb2 ae3a 4751 bbba
00000070: 0eba 9d3b 911b d1bb aa94 aabb d10b 853b
00000080: 6361 8e3b a45d 1fba 5476 913b fd6a 90bb
00000090: 02a2 873a 4aa7 763b aaf5 81bb a949 22bb
000000a0: 4a12 7a3b 6a8a 97bb 3b07 4b3b 11b3 5fbb
000000b0: f307 1fb9 98b1 a6ba 3188 9aba 041e 843b
000000c0: 0eba b23b 9ea9 4cbb ed49 e83a 057f be39
000000d0: 947d 923a 3189 c2bb 5d10 f33a dcc7 65ba
000000e0: d80d 9439 94b2 0f3a b300 d23b 2beb 793b
000000f0: 7b94 463b 1106 a1bb 3d00 fabb 59b5 4d3b

feature_extract.batch_norms.0.running_mean f4 [64]
0.060609307 0.020735115 -0.11504418 0.11305934 -0.13337867 0.0049592596 -0.009815741 -0.15459596
-0.12252354 0.18406813 -0.03867143 -0.14921081 0.1124623 -0.032143865 0.1416537 -0.09007189
-0.08080883 -0.10402694 -0.1883527 0.33663917 -0.08934862 0.45858705 0.34319425 0.25023782
0.070738405 0.68287444 -0.13947211 0.16563329 -0.010386229 -0.3933112 0.36369467 0.016851366
-0.22793046 -0.24603578 -0.0071692416 0.029189132 -0.03881334 -0.35977998 0.3922553 0.19485979
-0.0031037887 -0.21873234 -0.10647618 0.0020358479 0.12218239 0.18385081 0.1267484 -0.24956642
0.09040359 0.18244387 0.45778996 -0.009635864 0.0025571235 0.20452395 0.16344684 0.27065778
0.022322001 -0.14791316 0.4527944 0.23322572 -0.4910914 -0.037556123 -0.17782502 0.1377075
00000000: 7741 783d b0dc a93c 489c ebbd a88b e73d
00000010: 6b94 08be 4981 a23b 34d2 20bc 674e 1ebe
00000020: 9fed fabd 5b7c 3c3e ef65 1ebd b8ca 18be
00000030: a252 e63d 49a9 03bd ab0d 113e 9c77 b8bd
00000040: 1a7f a5bd 140c d5bd 88df 40be f85b ac3e
00000050: 69fc b6bd eccb ea3e 28b7 af3e 2c1f 803e
00000060: 4cdf 903d dcd0 2e3f c7d1 0ebe c69b 293e
00000070: 002b 2abc 1660 c9be 3036 ba3e e00b 8a3c
00000080: 9a66 69be cef0 7bbe f5eb eabb 0c1e ef3c
00000090: bdfa 1ebd 1535 b8be b0d5 c83e 5389 473e
000000a0: ef68 4bbb 5ffb 5fbe 2f10 dabd dc6b 053b
000000b0: c33a fa3d 6343 3c3e 55ca 013e 578e 7fbe
000000c0: 8425 b93d 91d2 3a3e 7263 ea3e bedf 1dbc
000000d0: 6a95 273b ba6e 513e 9c5e 273e a893 8a3e
000000e0: a1dc b63c 8c76 17be abd4 e73e b9d2 6e3e
000000f0: 5570 fbbe 73d4 19bd c317 36be 3203 0d3e

feature_extract.batch_norms.0.running_var f4 [64]
0.035011668 0.00896138 0.115265414 0.094721146 0.026794078 0.016059533 0.025251163 0.28495756
0.2113084 0.022923201 0.2590766 0.03295334 0.32085347 0.076893985 0.016218154 0.017533217
0.007340373 0.14606673 0.15703124 0.29037648 0.0018255007 0.19854274 0.034722816 0.016888965
0.0118740685 0.13276559 0.08515258 0.06973584 0.04396653 0.06252984 0.073860504 0.08410521
0.054660752 0.2925825 0.020858133 0.10638319 0.011601934 0.031415552 0.106252044 0.10931052
0.055052806 0.04364582 0.015630897 0.048284464 0.008666982 0.027901802 0.11520741 0.02856644
0.36065784 0.050926633 0.17153399 0.04631263 0.070762135 0.07191551 0.0416874 0.22643813
0.0119524365 0.19280252 0.0830995 0.15793858 0.034174543 0.18107001 0.5513873 0.2659207
00000000: 6568 0f3d c1d2 123c 4610 ec3d 29fd c13d
00000010: 417f db3c 488f 833c 87db ce3c f5e5 913e
00000020: 3b61 583e 70c9 bb3c b0a5 843e 15fa 063d
00000030: e846 a43e 987a 9d3d efdb 843c d2a1 8f3c
00000040: 8387 f03b 8492 153e cccc 203e 3aac 943e
00000050: a445 ef3a ca4e 4b3e 8339 0e3d ba5a 8a3c
00000060: 748b 423c b4f3 073e 7a64 ae3d aad1 8e3d
00000070: 4016 343d a50f 803d 2d44 973d 5a3f ac3d
00000080: f4e3 5f3d 60cd 953e adde aa3c 6edf d93d
00000090: 0a16 3e3c 98ad 003d ac9a d93d 32de df3d
000000a0: 0d7f 613d f6c5 323d 5e0c 803c eec5 453d
000000b0: f5ff 0d3c 5292 e43c ddf1 eb3d 2b04 ea3c
000000c0: 25a8 b83e 7298 503d 9ba6 2f3e 50b2 3d3d
000000d0: bdeb 903d 7048 933d 68c0 2a3d 66df 673e
000000e0: 27d4 433c 066e 453e 1230 aa3d a7ba 213e
000000f0: 9bfa 0b3d 6b6a 393e b827 0d3f c226 883e

feature_extract.batch_norms.1.weight f4 [64]
1.0131487 1.0119023 1.0125825 1.0047274 1.0174378 1.010094 1.0113367 1.0121056
1.010189 1.0092 1.0092319 1.0073298 1.0118649 1.00967 1.0081103 1.00607
0.9908931 1.009422 0.9879735 1.0049665 1.0072619 0.99926776 0.99602044 1.007391
1.0115072 1.0147257 1.0032264 1.0147127 0.9930284 1.006824 1.011343 1.010198
0.99624056 1.0093993 0.9938913 1.0046582 1.0024211 1.0094072 1.0116931 1.0120269
1.0096775 0.9961477 1.0105425 1.0133547 0.9998197 1.0107238 1.0105096 1.0089289
1.0008297 1.0068141 1.0055656 1.0110904 1.0122818 1.0078349 1.0003217 1.009646
1.0094491 1.0137185 1.0136067 1.0077255 1.0107396 1.0187794 0.9910561 0.9954245
00000000: dbae 813f 0486 813f 4e9c 813f e89a 803f
00000010: 673b 823f c34a 813f 7b73 813f ad8c 813f
00000020: e04d 813f 772d 813f 832e 813f 2ff0 803f
00000030: ca84 813f de3c 813f c209 813f e7c6 803f
00000040: 2cab 7d3f bd34 813f d5eb 7c3f bea2 803f
00000050: f5ed 803f 03d0 7f3f 32fb 7e3f 30f2 803f
00000060: 1179 813f 88e2 813f b969 803f 1be2 813f
00000070: 1c37 7e3f 9cdf 803f b073 813f 2b4e 813f
00000080: 9f09 7f3f ff33 813f a96f 7e3f a498 803f
00000090: 564f 803f 4134 813f 297f 813f 198a 813f
000000a0: 1d3d 813f 8903 7f3f 7559 813f 9bb5 813f
000000b0: 2ff4 7f3f 665f 813f 6158 813f 9524 813f
000000c0: 301b 803f 49df 803f 60b6 803f 696b 813f
000000d0: 7392 813f bc00 813f 8b0a 803f 153c 813f
000000e0: a135 813f 87c1 813f ddbd 813f 26fd 803f
000000f0: ea5f 813f 5d67 823f dab5 7d3f 24d4 7e3f

feature_extract.batch_norms.1.bias f4 [64]
0.012968578 0.008714213 0.011212304 0.0063179 0.00797208 0.011752659 0.009720709 0.011889619
0.010027842 0.009647801 0.009398827 0.0072896597 0.005182534 0.0062859072 0.008184195 0.0062998855
-0.010189807 0.0079951 -0.014274359 -0.0044265236 0.007281759 -0.0002518576 -0.0041669426 0.0068985526
0.011538022 0.01277535 0.0013483784 0.0141197685 -0.006714987 0.0064142067 0.010118854 0.0100944815
-0.005912972 0.008983571 -0.0060518873 -0.0056787115 0.00039773472 0.009430674 -0.00028743263 0.012444077
0.0095918095 -0.00396951 0.008924489 0.015432742 0.001943963 0.010652166 0.010308257 0.009872486
-0.0029360692 0.0073190555 -0.004231505 0.008995028 0.011791657 0.0077244714 -0.0012876109 0.009687887
0.006359903 0.013170506 0.011443595 0.0065667 0.01223659 0.0028279226 -0.010474199 -0.004542652
00000000: 297a 543c 0fc6 0e3c d0b3 373c 6306 cf3b
00000010: 549d 023c 3a8e 403c 9c43 1f3c adcc 423c
00000020: d14b 243c cf11 1e3c 8afd 193c 19de ee3b
00000030: 3fd2 a93b 03fa cd3b 0017 063c 456f ce3b
00000040: 26f3 26bc e1fd 023c 00df 69bc 5f0c 91bb
00000050: d29b ee3b c10b 84b9 d98a 88bb 410d e23b
00000060: f909 3d3c b44f 513c 12bc b03a 9a56 673c
00000070: 6509 dcbb 442e d23b 8dc9 253c 5363 253c
00000080: 9bc1 c1bb d42f 133c e94e c6bb 7c14 babb
00000090: 0d87 d039 1d83 1a3c 8eb2 96b9 3ee2 4b3c
000000a0: f726 1d3c aa12 82bb 0538 123c 9dd9 7c3c
000000b0: 93cc fe3a 6c86 2e3c f7e3 283c 35c0 213c
000000c0: 116b 40bb b0d4 ef3b 70a8 8abb e25f 133c
000000d0: cb31 413c 901d fd3b 0dc5 a8ba f1b9 1e3c
000000e0: bc66 d03b 1bc9 573c eb7d 3b3c 792d d73b
000000f0: fa7b 483c ab54 393b fa9b 2bbc 87da 94bb
