30_20_1_99_sw_1_1.5_v0.pth (torch, 93570 bytes, 30 tensors)

feature_extract.mlps.0.linears.0.weight f4 [64, 2]
00000000: 6848 96be 98a5 da3e e3a6 003f f9bb 70be
00000010: a00c 793d e986 dfbe 1f18 09bf c6f7 b13e
00000020: 6e66 053f 34e8 f1bb 2b29 34bf 4e11 42be
00000030: 5548 d7be 5a43 47be 3d97 57be 4776 14bf
00000040: 86f4 c2be f23f 943e 95a7 b5be 4c79 abbe
00000050: b1ec c7be 093f 0f3f e047 9fbe 57ac 5fbe
00000060: 4f4b 0dbe ebae 2a3f 91f0 cebe 046d 833e
00000070: ecea 1b3f acb0 153e bc2d 343f 8cd3 b0be
00000080: f65d 073f a58e 21bf dbcc c63e d9a0 06bf
00000090: 4c50 0ebf aa0b 013e 0577 86bb c1c7 683e
000000a0: db17 903c dfa8 473c 2d31 b1be a989 663e
000000b0: ee0d 5fbe c43a 0e3e 61c9 913c 91b3 3abd
000000c0: dab0 9ebe de4b 023f 05cf 21bf ea9b 8dbc
000000d0: 1740 c23e ec3c 38be 1f6a f33e cadf f7be
000000e0: 030d 1abf 9cdb a9be 8f31 06bf 966a 92bc
000000f0: 67ba 8cbe fb03 713e d49f dd3e 612b 043e
00000100: f084 b1bc 131c 87be f405 b5be 97b2 0f3f
00000110: 121c 073f 9508 af3e 18f0 a4be d3d0 83be
00000120: ffbb 9b3d 9d5c 5a3d 1949 41bd 712d dcbe
00000130: d32d f3be 551e bb3e 7578 cc3e 8a81 103f
00000140: 2603 2c3f a150 1bbe 829e 60bd 29d2 013d
00000150: d504 143e ef8e 113e 2c66 e93c 98ee abbe
00000160: 8733 64bc 8242 c13e be71 a53e e1c1 233f
00000170: 3939 a73e 448b 2abf 22e7 963e 031d 0dbf
00000180: 5745 0e3f d4a9 0dbf 1579 0ebf 8df4 253e
00000190: c5dc 113e 0abf 003f db3b e9be 1bf9 0e3f
000001a0: 7a3f f73d 7a93 fdbd a122 01bf 0d56 ad3e
000001b0: 4a80 b23d 3229 103f bbad d1be 3254 193f
000001c0: 5ecc f1be 7d44 d6be 3697 ca3e 451e b6bd
000001d0: f893 ddbe cd3c 4abd f434 313f 0d6d 00bd
000001e0: 4c6d 7e3e edc3 23be 9be0 263e a620 303f
000001f0: e0a2 ad3e 45dd fdbe 83fd d6be 3075 d5bd
-0.29352117 0.42704463 0.5025465 -0.23509206 0.060803056 -0.43657616 -0.5355243 0.3475935
0.5210942 -0.007382417 -0.7037532 -0.18951914 -0.42047372 -0.19459286 -0.21053787 -0.57992977
-0.38077182 0.28955036 -0.35479417 -0.3349098 -0.3904777 0.5595556 -0.31109524 -0.21843086
-0.13798259 0.66673154 -0.40417913 0.2566911 0.6090534 0.14618176 0.70382285 -0.34536397
0.5287775 -0.63108283 0.38828167 -0.52589184 -0.55591273 0.12602106 -0.0041035437 0.2273245
0.0175895 0.012186258 -0.3460783 0.2251345 -0.21782658 0.13889605 0.01779622 -0.045581404
-0.30994302 0.50897014 -0.6320651 -0.01728626 0.37939522 -0.1799199 0.475419 -0.48412925
-0.60176104 -0.3317536 -0.5241937 -0.01787309 -0.27485964 0.23536675 0.43286002 0.12907173
-0.021669835 -0.26388606 -0.35356104 0.5613188 0.52777207 0.34186235 -0.32214427 -0.25745258
0.07604217 0.05331098 -0.047188852 -0.4300342 -0.474959 0.3654658 0.3993565 0.5644766
0.67192304 -0.15167476 -0.054838665 0.031694565 0.14454968 0.14214681 0.028491102 -0.3358047
-0.013928301 0.37746054 0.3231334 0.6396771 0.32660845 -0.6661875 0.29473215 -0.55122393
0.55574554 -0.5533726 -0.55653507 0.1620657 0.14244373 0.502915 -0.4555348 0.55848855
0.12072654 -0.123816445 -0.50443465 0.33854714 0.087158754 0.5631286 -0.40952858 0.59894097
-0.47226232 -0.41849127 0.3956849 -0.08892492 -0.43276954 -0.04937439 0.69221425 -0.031354
0.24846381 -0.15992709 0.16296618 0.6879982 0.33913326 -0.49582878 -0.4199029 -0.10422742

feature_extract.mlps.0.linears.0.bias f4 [64]
00000000: f76e a33e c7a3 c7be da98 49bd 9b8f b23e
00000010: 0714 b4be 7aa3 c5be 10fc 3d3c abf3 13bf
00000020: 3f56 963e d9df 4abe 0408 113f aebe 623d
00000030: 9e70 ad3e 7c5c f8bd 3e6c 7fbe f96b 9cbe
00000040: 3be5 af3e 0053 243f 913a 833e 72ee 26be
00000050: 7a9c ba3e 4b15 0abf 7f81 1bbf 2b47 6abe
00000060: 5f5e a03e a595 8fbd 2b7a f9be 200b 16bf
00000070: 15ba b33e aae2 bbbe 6129 94be 06be 223f
00000080: 12a5 d03d 455a d3be cc4c 6d3d 7ebe c53e
00000090: 3440 a7be cd4c e3be ea24 2abf 833b 1abf
000000a0: be32 07bf 8fad bd3e 0e30 703d cd0e 5c3e
000000b0: 1675 cd3e b875 223f ece6 41be 80f7 213f
000000c0: a4bf e33d 0c01 113f de96 28bf 8999 9ebe
000000d0: 4c73 86be 2c21 043f 4e4b d43e f616 32bf
000000e0: 32b7 ccbe 1a4c 0cbf 7455 31bf c4a0 28bf
000000f0: f831 ab3e fe48 803e 43a4 5cbd aed2 e9bc
0.31920597 -0.3899214 -0.049218036 0.34875187 -0.3517153 -0.38601285 0.011595741 -0.5779368
0.29362676 -0.19811954 0.56652856 0.055357628 0.33874983 -0.12127015 -0.24943635 -0.30551127
0.34354576 0.6418915 0.2563062 -0.16301897 0.36447507 -0.5393874 -0.6074447 -0.22878711
0.31322 -0.07010964 -0.4872602 -0.58610725 0.35102907 -0.36696368 -0.2893782 0.635712
0.10187735 -0.41279808 0.057934567 0.38621897 -0.3266617 -0.44394532 -0.66462576 -0.6024706
-0.528118 0.37046477 0.05863958 0.21490021 0.40128392 0.63460875 -0.18935746 0.6326828
0.11120537 0.5664222 -0.65855205 -0.30976513 -0.2625984 0.51613116 0.41463703 -0.69566286
-0.39983517 -0.5480362 -0.69271016 -0.6587031 0.3343656 0.2505569 -0.05386759 -0.028542843

feature_extract.mlps.0.linears.1.weight f4 [64, 64]
00000000: f9c7 7fbd b0bd 833d 1451 e7bd 1db5 bbbd
00000010: 82bd d3bd 9c3a 6ebd d655 cdbd 41ac 9a3d
00000020: dd14 f2bd 3863 2f3c c538 ff3c ad10 e839
00000030: e1c6 813d e027 f43d 35b1 873d 0bdd f43c
00000040: 1ff6 52bd fce9 77bc 2baf ee3d cc44 4d3d
00000050: 547e 05bd 3002 46bc 976d dbbd 1be6 d5bd
00000060: bfe8 9e3d cab7 623c c3ee ba3d 27bb 9c3d
00000070: ef26 a0bc bc51 d63d 9391 283d c9d3 bc3d
00000080: d7a8 993d e341 f33d f7b0 a2bd b4dc 91bc
00000090: 7041 8c3d 16ce eabd 6686 e03c aeb0 d6bd
000000a0: 39cf 70bd 612b 4bbd b1cc 72bd 55f4 eb3c
000000b0: efcf d33d 1a0c d9bd 1205 a63d 5b05 4abd
000000c0: a3c4 60bc d2d8 abbc e844 bfbc 8d0d 04ba
000000d0: a83a 15bd 156c a6bd 4e09 de3b 0bbe 743d
000000e0: 87f1 b73c 5479 863d 5dd2 1abd 3f5e 263c
000000f0: d645 a63d 28ac f43d ef4d f9bd 5a41 bb3d
00000100: 0d63 ba3d 3bc0 b5bd 8bb0 35bd 8f50 393d
00000110: 4918 a13d e51e f8bd 32ea b13b 916e 3ebb
00000120: 6946 20bc a145 d73d cff3 b43b 2e1e 5fbd
00000130: 70d3 ba3d 3c49 11bd b660 b53d 3401 ce3d
00000140: c8f9 293d cf98 a6bd 9ef7 6dbd 0121 c6bd
00000150: 18f9 80bd 3b02 f6bd 27a9 bd3a b19d 50bd
00000160: 9a55 dc3d 4b9a bf3c 97b6 73bd 6e5d 03be
00000170: 1901 6a3d 7c1b e8bd f271 44bd 63de 533d
00000180: 3864 693d e941 1abd 85e3 b13d eadc 7fbd
00000190: 8dea 90bd 861a a23d ea87 863b 2e62 623d
000001a0: 4d6c 593c d362 143d 86ad 8dbd fa49 133d
000001b0: 0fff 8cbc 73f5 9cbd cea8 ec3d ad88 923d
000001c0: 479f a8bb 8d78 ed3d e181 e8bd 21f3 ab3d
000001d0: 4f03 14bc 4ce7 a7bd 4b74 023e 9a3f e13d
000001e0: 528f 48bd a8ed 84bd 5bae 53bd b224 2abd
000001f0: 1f8d ea3c 0cdd 5b3d 8d05 9f3c 2b6e febd
00000200: dde0 acbd 5715 27bd 57e9 6bbc 87e4 1abc
00000210: 39f5 d63a 30b4 6bbc b64d b0bd 52b0 303d
00000220: 6649 cbbd 7002 bdbd 7b00 9f3b dc00 f93d
00000230: 680a 55bd c1a8 d5bd e74b 4738 2790 553d
00000240: 7c1e 053d 1fad 76bb 2e10 93bd 313d 803b
00000250: 9206 293c 9ba5 e1bd b9aa 3d3d 48a3 f93c
00000260: 8082 253d 7bf3 bb3d 9fc6 5abd 95a1 3e3d
00000270: 5023 ce3d 551d ebbd 4741 dcbd 7967 573c
00000280: f757 47bd 67f9 8a3d 9132 003e 02d3 edbb
00000290: e2b0 583c 991d a4bd 8f14 e73d 6088 f7bc
000002a0: 8622 a0bd 6018 f3bd 12af 99bd 8399 45bc
000002b0: ca70 82bd a506 b7ba 7e82 a23b 8a75 99bb
000002c0: 9916 d3ba 5cb6 18bc c037 833d 73f7 f7bd
000002d0: c976 bebd 7308 93bc 3f64 8abd af30 a13d
000002e0: cbbf b23d 4d7d ff3c f955 16bd d73e 8bbb
000002f0: 8b77 c43d d78b 103c 8186 c93d d83b e13d
00000300: b96d 563c edad d73d 71dd 003b 67b0 85bc
00000310: 4b7e c2bb ca71 d2bd e5e0 dd3d a8c9 063e
00000320: 6f10 a1bc c423 9cbd e4da 3bbd 134d 1f3b
00000330: 42f2 dbbd a88d 503d e5c3 9dbd 8795 aa3d
00000340: 763c 163d 5cdd c33d fcb4 873d 90e5 c03d
00000350: 0764 d83d d88c 933d 4f38 9cbd c76a 89bd
00000360: 79f0 233d 6ca6 e23d 495f 7ebd de37 87bd
00000370: f597 eabd 4175 013d aa1f abbd b708 83bd
00000380: 2c26 303d 2891 9fbd 58a8 b93d c7fa 6ebb
00000390: 3314 c23c 29cb 363d 519f f23b 8779 913d
000003a0: 0772 d5bd ab44 a73d b7f6 4d3d 78e2 a53c
000003b0: 82ff 793d 3f14 c13d 56be 54bd 582c ff3d
000003c0: 0d66 08bc b967 d9bd 39fd 4f3d 8f6e a2bd
000003d0: c4b6 bf3c 3ab6 b7bd dbf0 5c3c d084 053c
000003e0: 2b37 d5bd 21ae 3ebd 969d 3fbd 2fa4 bdbd
000003f0: 7c43 433d 7275 53bd a86e 9f3c 18f0 8d3d
-0.06244657 0.064326644 -0.11294761 -0.09165404 -0.1033888 -0.058161363 -0.100261375 0.07552386
-0.118203856 0.010704808 0.031155 0.00044262913 0.06336761 0.11921668 0.066255964 0.029890558
-0.05150425 -0.01513147 0.116545044 0.050114438 -0.03259118 -0.0120854825 -0.10714262 -0.1044428
0.077592365 0.013837764 0.091275714 0.07652884 -0.019549815 0.10464808 0.041154455 0.09220082
0.07502907 0.11877801 -0.079439096 -0.017805435 0.06848419 -0.11465089 0.027407836 -0.10482918
-0.058791373 -0.049601916 -0.05927724 0.02880303 0.103423946 -0.10598011 0.08106436 -0.049321514
-0.013718757 -0.020977411 -0.023348287 -0.00050374196 -0.036432892 -0.08126084 0.0067760115 0.05975155
0.022454036 0.0656611 -0.037798274 0.010154306 0.08118789 0.11946899 -0.12173068 0.09143324
0.09100924 -0.08874556 -0.044357818 0.045242842 0.0786596 -0.12115268 0.0054295296 -0.0029057602
-0.009782412 0.105113275 0.0055222283 -0.05447214 0.0912236 -0.035470232 0.08856337 0.10058823
0.041497976 -0.08134615 -0.058097474 -0.09674264 -0.06297511 -0.12012144 0.0014469967 -0.050931636
0.10758515 0.023389002 -0.059500303 -0.1282861 0.057129953 -0.11333367 -0.04796023 0.051725756
0.05698034 -0.037660513 0.08685974 -0.06246654 -0.07075987 0.07915215 0.0041055577 0.055269413
0.01327045 0.03622706 -0.069178626 0.03595922 -0.017211465 -0.07664003 0.115556344 0.07154975
-0.0051459405 0.11595259 -0.113528974 0.083959825 -0.009033992 -0.08198413 0.12739675 0.10998459
-0.048964806 -0.06490642 -0.05167995 -0.0415389 0.028631745 0.053677604 0.019411827 -0.124233566
-0.08441327 -0.040791836 -0.014398894 -0.009453899 0.0016399986 -0.014386222 -0.08608572 0.043136902
-0.09926109 -0.092289805 0.004852352 0.12158367 -0.052011877 -0.10432578 4.7515987e-05 0.052139428
0.032499775 -0.003763981 -0.071808204 0.0039135446 0.010316508 -0.11017915 0.046305392 0.030473366
0.040407658 0.091772996 -0.053412076 0.046540815 0.10065329 -0.11480204 -0.10754638 0.013147228
-0.048667874 0.06785851 0.1251929 -0.00725782 0.013225766 -0.08013458 0.11283218 -0.030216396
-0.07819085 -0.118698835 -0.07504095 -0.012060526 -0.06369169 -0.0013963772 0.0049594035 -0.004683201
-0.0016104757 -0.009320822 0.06407118 -0.12107744 -0.093 -0.017948365 -0.06757402 0.07870614
0.08727988 0.031187678 -0.036703084 -0.0042494345 0.095931135 0.008822403 0.09840108 0.109977424
0.013087683 0.105312206 0.001966324 -0.016319467 -0.0059354655 -0.1027561 0.10833911 0.13162863
-0.019661156 -0.07624009 -0.045863047 0.0024307414 -0.107395664 0.050916344 -0.077033795 0.08329301
0.036678754 0.09563705 0.06626317 0.094187856 0.10565954 0.07204598 -0.076279275 -0.06709819
0.040024254 0.11066899 -0.06210259 -0.06602453 -0.11454765 0.031605963 -0.08355649 -0.063981466
0.043005154 -0.07791358 0.09065312 -0.0036465393 0.023691272 0.044627342 0.007404246 0.071032576
-0.104221396 0.08167394 0.050284114 0.02024959 0.061034687 0.0942769 -0.05193933 0.1245963
-0.008325112 -0.10615487 0.0507786 -0.07931244 0.02340258 -0.08970304 0.013485159 0.008149341
-0.10410913 -0.04655278 -0.046781145 -0.09259831 0.04767178 -0.051625676 0.019461945 0.0693056

feature_extract.mlps.0.linears.1.bias f4 [64]
00000000: a6d9 183d 1659 5e3d 7247 1c3c 65e9 d23d
00000010: e07d b6bd c2b8 f73c 0884 e23c d79b ac3c
00000020: 7994 a53d eacb d43d cbc5 af3d 327d a6bc
00000030: 6003 df3d da0d 533d 802a 2e3d 160c 383b
00000040: eb24 88bd 8463 943d d19c 0c3d ab05 ce3c
00000050: 0ef4 22bd e4eb e73d 7c9e b03d 3096 f23d
00000060: a3c1 dfbc 20ee 1f3d 9f6a 4dbd f2fc bf3d
00000070: 5a43 dd3d 34c6 0f3d 51e9 d13d 59e7 bfbd
00000080: 50d8 e33c a518 883d 3433 abbd 8009 e5b8
00000090: e07c 863d 1bc5 24bd ddd7 b3bd 5314 8e3d
000000a0: ab1c c0bd 4b67 39bb 26e5 e43d 5473 03bd
000000b0: 8592 11bc ea67 e23c b512 e2bd e9da e1bd
000000c0: 113e 2abd bd69 bd3c 6e2e 023e d1b6 213d
000000d0: b9f1 febd fcc2 b53d 77c4 4dbd 3558 533c
000000e0: 2a0f b33d 2eb6 8b3d e6b4 6a3d 6275 f03c
000000f0: 6f60 d3bd 6521 e7bc a2fa d83d 96c3 f9bd
0.03731694 0.054284178 0.009538518 0.10298423 -0.089107275 0.030239467 0.027650848 0.021070404
0.080849595 0.10390456 0.08582648 -0.02032337 0.108893156 0.05152688 0.042521 0.0028083376
-0.066476665 0.072455436 0.03432924 0.025149187 -0.03978353 0.113242894 0.086239785 0.11845052
-0.027314013 0.039045453 -0.05015051 0.09374417 0.10803862 0.03510113 0.1024958 -0.09370298
0.027813107 0.066453256 -0.083593756 -0.000109213404 0.06566787 -0.040227037 -0.08781407 0.0693747
-0.09380468 -0.0028290327 0.11176519 -0.032092407 -0.008885031 0.02763744 -0.11038724 -0.11028082
-0.041563097 0.023121709 0.12713024 0.039480988 -0.12448449 0.08875081 -0.05023619 0.012899448
0.08743127 0.068218574 0.057301424 0.029352847 -0.103211276 -0.028214166 0.105946794 -0.12195508

feature_extract.mlps.0.batch_norms.0.weight f4 [64]
00000000: d88a 7e3f 6585 803f e330 813f 03f8 7e3f
00000010: 059c 7c3f 357c 803f b504 803f 82a2 7f3f
00000020: a714 803f dd3d 803f c0cc 803f d2b5 7f3f
00000030: 0d42 803f d9b9 7f3f e8fd 803f 3e4f 7f3f
00000040: 416b 7f3f 4fed 7e3f e431 7f3f b6ef 7f3f
00000050: d814 7f3f 44ac 803f 8e38 7f3f 9d8f 7f3f
00000060: 91c9 7f3f 0555 7e3f 9a3f 813f 3658 803f
00000070: bf89 803f 76d8 7f3f dfab 803f b4b0 803f
00000080: 4191 803f 4ad5 7d3f b428 803f f17c 803f
00000090: 7ac2 7f3f c2ce 803f 997a 803f 7dbe 7e3f
000000a0: 6f9a 7e3f 6295 803f 335b 7e3f 696c 803f
000000b0: 90ba 7f3f 8f70 7e3f adef 7f3f 0050 803f
000000c0: 4758 7f3f 875b 7f3f bb44 803f bf20 803f
000000d0: e6bb 7e3f 994c 803f 590a 7f3f e910 7f3f
000000e0: 818f 7f3f 6af4 803f e88c 7e3f 2d91 7e3f
000000f0: d1f9 7e3f 7283 803f 97ab 7e3f 4c7a 7f3f
0.9943061 1.0040709 1.0093044 0.99597186 0.98675567 1.0037905 1.0001436 0.9985734
1.0006303 1.0018879 1.0062485 0.9988681 1.0020157 0.99892956 1.0077486 0.9973029
0.9977303 0.99580854 0.996855 0.99975145 0.9964118 1.0052571 0.9969567 0.9982851
0.9991694 0.9934848 1.0097535 1.002692 1.0042037 0.9993967 1.0052451 1.0053926
1.0044328 0.9915358 1.0012422 1.0038129 0.9990612 1.0063097 1.0037414 0.9950941
0.99454397 1.0045588 0.9935791 1.0033084 0.99894047 0.993905 0.9997509 1.0024414
0.99744076 0.99749035 1.0020975 1.0009993 0.9950546 1.0023376 0.99625164 0.9963518
0.99828345 1.0074589 0.99433756 0.9944027 0.9959994 1.0040114 0.99480575 0.99795985

feature_extract.mlps.0.batch_norms.0.bias f4 [64]
00000000: acd8 e43a c6b4 d23b b16b 603b 34ac c8bb
00000010: 0ea0 22bb 2e57 a23b 68fb d33b 0225 b1ba
00000020: 4d32 883a 9a5a 423b 95c2 063b c6d6 9dbb
00000030: bdb4 223a e57f 263b f0fc f23b 3d0f a13a
00000040: ecaa 933b c07e 5fbb 895c 58bb 2e5d c1ba
00000050: b7de acbb 9632 ce39 b85e bd3b 1004 6b3a
00000060: cfae e53a 8142 35bb afee 753b 9546 2a3c
00000070: 1aad 0e3b 8de1 0d3c 27e9 3b3b d3ad 883b
00000080: d81c ad3b ab15 fcba 2ac5 e03b 94f2 a1ba
00000090: 62fd 03ba 9b94 d43b 86f6 eb3b 0953 39bc
000000a0: 7479 39bb 41de 7a3b e7fc f9ba 7f7f 103b
000000b0: ce43 d6b9 317c 203a 2809 97bb 3108 1a3b
000000c0: 9204 183b cd91 07ba 6475 a739 992b de3a
000000d0: 8956 e6bb 8740 e2bb 093d a9bb c3f6 30bb
000000e0: b67c a8bb 9a58 203b 9b16 123b 4d76 9bbb
000000f0: 875a b0bb e888 013c 1dac fab9 6d18 50b9
0.0017459593 0.0064302413 0.0034243877 -0.006124044 -0.0024814638 0.0049542403 0.006469179 -0.0013515058
0.0010390967 0.0029656054 0.0020562757 -0.0048168628 0.00062067417 0.002540582 0.0074154064 0.0012287867
0.0045064595 -0.0034102648 -0.003301414 -0.0014752501 -0.005275573 0.0003932907 0.0057791136 0.0008965144
0.001752341 -0.0027658048 0.00375263 0.010392805 0.0021770657 0.0086597325 0.0028672905 0.004171112
0.0052829795 -0.0019232532 0.0068594413 -0.0012355619 -0.00050350104 0.0064874417 0.0072010187 -0.011311301
-0.0028301151 0.0038279446 -0.0019072563 0.002204865 -0.0004086778 0.00061220216 -0.004609246 0.0023503418
0.0023196083 -0.00051715673 0.00031940185 0.0016950249 -0.0070293588 -0.006904665 -0.0051647467 -0.002700255
-0.00514182 0.0024466873 0.0022291306 -0.004744327 -0.0053818855 0.007906176 -0.0004781195 -0.00019845525

feature_extract.mlps.0.batch_norms.0.running_mean f4 [64]
00000000: 73bd 1d3f 4e38 073f 8050 8ebf 196f b3be
00000010: f1d9 a33f c376 4ac0 84e0 f0bf c877 3ac0
00000020: 6718 a7bd e159 12c0 12df 6f3f 35a3 c7bf
00000030: 8ec1 e83f e74c 2abf bb97 0640 181a 6f3f
00000040: e60b 533e cdf7 b83e e487 92bf d394 f43e
00000050: 731f e93e 1763 7dbf 6625 66bf 3d59 9bbe
00000060: 5c2f 4b3f 0dfe 07c0 71a2 4b3e c1bf f0be
00000070: c4c3 20c0 db32 05c0 fa07 f8be 5f52 1840
00000080: 36ca 39bf 5588 a33d 03c7 2d40 3823 b0bf
00000090: ba00 8b3d f947 eabf 5366 8fbf 8769 1240
000000a0: c066 953f de46 933e 360c 6d3f 2f11 29bf
000000b0: dba6 b83f 6cf3 5f40 c3d7 88bf c9cc 8fbc
000000c0: 51c9 903e 2ea4 3bbf b1aa 9e3f 9f4f 18be
000000d0: ab59 71be 9f3d e2bd 2ae0 1340 5473 8bbe
000000e0: 277e 46c0 6023 e73e 7448 0dc0 3537 b93f
000000f0: 95a2 293f 54bf 2f40 6bd2 cebe ff84 d4bf
0.616172 0.5282029 -1.1118317 -0.35045698 1.2800885 -3.1634986 -1.8818517 -2.9135609
-0.08158951 -2.2867358 0.93699753 -1.5596682 1.8184068 -0.66523594 2.103011 0.9339919
0.20610008 0.36126557 -1.144772 0.47769794 0.45531806 -0.98979324 -0.89900815 -0.3034152
0.7936914 -2.124881 0.19886185 -0.47021297 -2.5119486 -2.081229 -0.48443586 2.3800275
-0.72574174 0.07984988 2.7152717 -1.3760748 0.06787248 -1.8303214 -1.1203102 2.2876909
1.1671982 0.28765005 0.9259676 -0.66041845 1.442592 3.4992323 -1.0690845 -0.017553704
0.28278592 -0.73297393 1.2395841 -0.14874123 -0.23569362 -0.110469095 2.310557 -0.27236426
-3.1014497 0.45144176 -2.2075472 1.4469973 0.66263705 2.7460527 -0.4039491 -1.6603087

feature_extract.mlps.0.batch_norms.0.running_var f4 [64]
00000000: 99d5 973e 3242 5c3f 6dc6 393d 5f2f 783f
00000010: 4fe1 753f cd5e e83f 7ecd 2a3f 92c1 8f3e
00000020: c249 fa3e dfa2 043f a923 063f 68c9 c23e
00000030: 5fec 053e 706f 0d3f f054 ad3f e3bf d73f
00000040: 38aa 723f 11f0 033f 1b0c 893f c0dd 383c
00000050: cc24 9f3a ff49 cf3e 8f4e 243e 2d19 a63a
00000060: 130e ac3e 37b9 b53f 79fb fa3e 4524 433f
00000070: 6779 b13f 002c 7a3f 714b 823e 038b 303f
00000080: c320 a03c 99bd de3e c0cc 8a3f 22a5 d43e
00000090: 722c ba3c fe1c 6b3d 4aaf 423f 3dc4 393f
000000a0: 2c3b c83f 41fb 263c cf86 b13d d4c9 c73c
000000b0: 736d fa3c 3720 0b3f ba66 c83e 1b90 9f3e
000000c0: e946 853f cca3 883f dcb8 203e bc59 343f
000000d0: 205d 493d e00f 5c3f 2d91 f03d 91de 133f
000000e0: ea57 683f cde2 0a3f 6629 2c3f 2636 d83f
000000f0: 4bbc 553e 647d 7a3e 7bcc ca3e a8f6 243f
0.2965515 0.86038506 0.04535525 0.9694728 0.9604692 1.8153931 0.66719806 0.2807737
0.48884398 0.5181102 0.52398163 0.38044286 0.1307845 0.55248165 1.3541546 1.6855434
0.94790983 0.5153819 1.0706819 0.011283338 0.0012141704 0.40486142 0.16045593 0.0012672298
0.33604488 1.4197148 0.49019983 0.7622722 1.3865174 0.9772339 0.25448182 0.68962115
0.019546872 0.43504027 1.0843735 0.41532236 0.022726271 0.057400696 0.7604872 0.7256506
1.5643058 0.01019174 0.08668291 0.024388231 0.030569768 0.5434603 0.39140874 0.3116463
1.0412265 1.0674987 0.15695518 0.70449424 0.049161077 0.85961723 0.1174644 0.57761484
0.90759146 0.5425232 0.6725067 1.6891525 0.2087261 0.24461895 0.3960913 0.6443887

feature_extract.mlps.1.linears.0.weight f4 [64, 64]
00000000: 340a e83d f272 993d a4e6 d13d e218 083e
00000010: 3898 313a 7e7b 10bd 1e05 66bd 0ce8 843b
00000020: 0db2 163d a66e afbc 84b1 a13d 021e edbd
00000030: 3c18 cfbd dd19 31bd 6602 92bc dd5f 9dbb
00000040: 58ba d7bc b435 f9bc 3eb3 a3bd 16c5 f53c
00000050: e646 663d 4c88 203d 14e0 12bd 7675 57bd
00000060: 56f3 8d3d 99d0 69bc 6665 c73b f475 c33a
00000070: 12c1 44bd 00f7 213d 75c7 db3d fc53 473d
00000080: ce10 f6bc ef4a e53c 1510 94bd 8cab b13d
00000090: 691b 08bd d0c5 a93d 5c90 edbd 8b2b d93d
000000a0: c11c ce3d 4222 813d 5616 ab3d bbcd 513d
000000b0: 3f7f 983d a8c0 b93d 2662 66bd d66f f2bd
000000c0: 9447 9d3d 3f87 f9bd 1df0 e93c 80e4 96bd
000000d0: a807 473d 3a0b 28bc 9267 c13d ed95 8c3d
000000e0: d897 123c 2ce5 8fbd 7de8 9c3d 7c14 08bd
000000f0: b02e 9a3d 54f1 893d 6b2d 31bd 0360 3b3d
00000100: 1b6f 90bc 8e1f d6bd d0c1 acbd d98c c83d
00000110: bbba 1abd 142e df3d 4736 acbd 21de e03d
00000120: 7e61 58bd e2cd 9e3d 6d21 f1bd a87d b73d
00000130: 3bae 633d 9b24 84bd 6b95 773d a7a7 a6bd
00000140: 3ac0 a03d 89d3 76bc 7c3b c9bc 97c8 653d
00000150: 8e64 28bd d291 8f3d 3ede bebc e7ec 3abd
00000160: d719 babd c133 db3d 5979 4cbd 4811 b83d
00000170: 18c6 673c d910 aebd a678 de3d f06c 82bd
00000180: def5 0bbc 83bf 0f3d 42b5 e4bd c204 37bc
00000190: c584 3dbd 9e43 19bc 8178 33bd 088c eabd
000001a0: 413a 88bd 2e99 15bc 3530 0cbd 3e55 fabc
000001b0: 437d 7b3b 7e8f a73c c40d 80bd 99f6 45bd
000001c0: c6c3 de3d 0022 903d 08cf be3d f52c be3d
000001d0: d968 d03d f8dc fc3d 2d40 66bd 8541 603d
000001e0: 5c32 75bd 1a6d 99bd 0e0c b2bd 2c01 debd
000001f0: eadb 603d d1f3 2f3d 2df1 353d d5b2 87bd
00000200: ca5d 77bd f1f9 a73d 2d60 95bd e57f 9f3d
00000210: ccb8 8ebd a3c0 d2bd bec5 d6bb de52 df3d
00000220: e74a e13d be21 01be 337f b13c 9cba 01be
00000230: 565b b7bd 0104 153d cdd3 21bc f649 f7bc
00000240: 0617 91bd 6c4e f3bc 03a3 4e3c 07be 8fbc
00000250: 5c47 73bd 958d 39bd b924 e53d ae10 a03c
00000260: a04b e2bc 57d9 b0bd 51ab 49bd d081 b8bc
00000270: 3f99 f33d 839a bebd 9484 80bd 1576 98bd
00000280: 89ea 97bc 06fe 8b3d 33db 36bd 0d97 19bd
00000290: 295e eabd a7be 233d 2367 0a3c abff 52bd
000002a0: 009f f23d 9f1c c13d 0aab 983b 8e4c 3bbd
000002b0: 1c2a f4bb 08e0 8b3c 9d38 d7bc 8a19 f83d
000002c0: 4254 af3d c074 6fbd d0d6 a6bd a1a8 333d
000002d0: fe19 17bb d56f d9bc afbd b2bd 4025 67bd
000002e0: fda5 fa3d dc36 cb3d d8fc 0cbd d33c 73bc
000002f0: 5550 503d 646b b93b bb79 0a3d 027a a93d
00000300: 2ac3 9f3d 7da0 3cbd c9e8 db3d 754e 543d
00000310: 4492 64bd ad5a afbc 38dc 653d 9926 6fbd
00000320: 4451 b0bd d213 86bd d01b b23d 691d 95bd
00000330: 67c0 ecbd d92c b03d c047 b2bd 63c1 023e
00000340: 0230 f6bd f2e7 ae3c e5ed 343c e587 143d
00000350: 1aaf 3e3d cab8 e9bd f8c3 443d 934c 25bc
00000360: 84c2 d3bc 5423 e43d 7ff7 03bd 7894 e2bc
00000370: 30dd d4bd 5b70 d4bd 9a7a b7bd 64bc bb3c
00000380: 3db9 023d a470 05bd 7cde 87bd 1084 9fbb
00000390: 0c50 f7bc cd57 043d 33b6 583d 1270 40bd
000003a0: edb6 08bd 0d02 a2bd 669e ed3d 4c8f 5b3d
000003b0: 413c f1bd 7fc3 813d 5b41 7a3d 1e77 683d
000003c0: 08ee 98bc 4448 b9bd e2eb d13c a79f 11bd
000003d0: 2c97 f3bc e03d c3bc df54 8fbd e3cb 373d
000003e0: 3884 9a3d a27d 0c3c 5bae df3d 2625 74bd
000003f0: b579 a8bd ee14 01be 0f74 e7bd 1618 ddbd
0.11330071 0.07492627 0.10249069 0.13290742 0.00067746965 -0.03527402 -0.056157224 0.0040559825
0.036790896 -0.021415066 0.078951865 -0.11577989 -0.10112044 -0.043237556 -0.01782341 -0.0048026876
-0.026333973 -0.030421115 -0.07993172 0.030001204 0.056219958 0.039192483 -0.03585823 -0.052602254
0.06931178 -0.014270925 0.0060850857 0.0014912472 -0.04803569 0.0395422 0.10731403 0.048664078
-0.03003731 0.027989833 -0.0722963 0.08675298 -0.033229265 0.08289683 -0.115998 0.10604008
0.10064078 0.06305362 0.083538696 0.05122159 0.07446145 0.090699494 -0.056245945 -0.11837737
0.07679668 -0.12183999 0.028556878 -0.07367802 0.048591286 -0.010256583 0.094435826 0.068645336
0.008947335 -0.07026133 0.07661531 -0.03322266 0.07528436 0.06735483 -0.043256205 0.04574586
-0.017631104 -0.10455237 -0.08435404 0.097924896 -0.037775736 0.108974606 -0.0840879 0.10979868
-0.05282735 0.07754113 -0.117739536 0.08959514 0.05558608 -0.064522944 0.06044523 -0.08137446
0.07849164 -0.015065082 -0.024564497 0.0560995 -0.04111152 0.07010235 -0.023299333 -0.045636084
-0.0908696 0.10703231 -0.049920414 0.08987671 0.01414635 -0.08499307 0.108628556 -0.063684344
-0.008542506 0.03509475 -0.11167385 -0.011170568 -0.046269197 -0.0093545 -0.043816093 -0.1145249
-0.06651736 -0.009130759 -0.03422566 -0.030558225 0.0038374222 0.020454165 -0.062526256 -0.048330877
0.108771846 0.07037735 0.09316832 0.092859186 0.10176248 0.12346834 -0.056213547 0.054749984
-0.05986248 -0.074915126 -0.086937055 -0.10840067 0.054897226 0.04295713 0.044419456 -0.066259064
-0.06039218 0.082019694 -0.07293735 0.07788066 -0.06968841 -0.10290649 -0.0065543344 0.109044775
0.110006146 -0.12610528 0.021667099 -0.12668842 -0.08952968 0.03638077 -0.009877157 -0.030186635
-0.070844695 -0.02970048 0.012612107 -0.017546667 -0.059394225 -0.04530104 0.11188645 0.019539203
-0.027623951 -0.08635204 -0.049235646 -0.022522837 0.11894464 -0.093068145 -0.06275287 -0.07444397
-0.018544452 0.068355605 -0.04464264 -0.03749757 -0.11443741 0.039976742 0.008447441 -0.051513355
0.11846733 0.09429287 0.0046590613 -0.045727305 -0.007451309 0.0170746 -0.026272113 0.12114246
0.08560993 -0.05846095 -0.08146441 0.04386199 -0.0023056264 -0.026542583 -0.087275855 -0.05643201
0.12238691 0.09922573 -0.034420818 -0.014846045 0.05085786 0.005658554 0.033807497 0.08275224
0.078008965 -0.04605149 0.107377596 0.051832635 -0.055803552 -0.021405542 0.05611822 -0.05838642
-0.0860925 -0.06546749 0.08696711 -0.07281 -0.11560135 0.08602304 -0.087050915 0.12769084
-0.120208755 0.021350835 0.011043047 0.03626241 0.04655371 -0.11412199 0.048038453 -0.0100890575
-0.025849588 0.11139551 -0.032218453 -0.027658686 -0.10393751 -0.103729926 -0.08958931 0.02291698
0.03191494 -0.032578126 -0.066342324 -0.004868038 -0.030189537 0.032310296 0.052908134 -0.04698188
-0.033377577 -0.079105474 0.11602478 0.053603455 -0.11779071 0.06336116 0.061097484 0.056754224
-0.01866819 -0.09046987 0.025625173 -0.035552647 -0.02973517 -0.023833215 -0.0699861 0.044872176
0.0754475 0.008574875 0.109219275 -0.05960574 -0.08226339 -0.1260564 -0.11301433 -0.1079561

feature_extract.mlps.1.linears.0.bias f4 [64]
00000000: 51eb 95bd 2ab0 423d 76a8 65bc a2a0 0d3d
00000010: fc5b 50bd abe8 99bd ada2 3ebd ca0b ce3d
00000020: bfc7 b43d 3234 ca3c d9d1 3c3c 3674 afbc
00000030: e74f b73d 23a5 41bd 4e97 1d3d 702d 1abd
00000040: 6387 f43d 78f0 443c 5cfb c53d 9d2d e13d
00000050: 7f16 74bd b112 bdbd 8b36 703b f98c da3c
00000060: ed86 f63d fa8a d73d e3e8 adbd 4ea6 a63d
00000070: c074 9a3c 17a7 91bd 1c45 afbd ec1f ac3d
00000080: 605a 9f3d 4448 dcbd ff89 9bbd d5c5 813d
00000090: 5197 603d 9b0b 493d 74e3 68bd f37d f53b
000000a0: 19bc f13a 9574 8abb bc58 0b3d 2f7d 1ebc
000000b0: 92ea 9e3d ebec fdbd f612 c63d 3b05 e93d
000000c0: 6d3b 783c 9814 8c3d 18b6 6fbd 4044 de3d
000000d0: b224 2d3c 82d8 ebbd 7dd0 6c3d c50f bf3d
000000e0: 25f8 063d 96dd 7d3d 5b8c 08bc 436e 593d
000000f0: d79c dd3d 9769 efbd c8d7 95bd b8d7 e9bd
-0.07320274 0.047531284 -0.014017215 0.03457702 -0.050868973 -0.07515081 -0.04654186 0.10060842
0.08827161 0.024683092 0.011524641 -0.021417718 0.08950787 -0.047276627 0.038474374 -0.03764099
0.119398855 0.012020223 0.096670836 0.10995028 -0.059591766 -0.09232081 0.0036653604 0.02667855
0.12037454 0.105245546 -0.08491685 0.08137189 0.018854499 -0.07111948 -0.085581034 0.08404526
0.077809095 -0.10755971 -0.0759468 0.063365616 0.054831807 0.049083333 -0.05685754 0.007491821
0.0018442898 -0.0042253234 0.03402017 -0.009673401 0.077595845 -0.12398704 0.09671585 0.11377951
0.015150887 0.068398654 -0.058523268 0.108528614 0.010567831 -0.11515905 0.057816017 0.0932918
0.032951493 0.0619789 -0.008334245 0.05308367 0.108209305 -0.116900615 -0.07316548 -0.11418098

feature_extract.mlps.1.linears.1.weight f4 [64, 64]
00000000: c816 90bc 832a b23d 87ac 7f3d 2cd0 09bc
00000010: af4f bdbd 5662 a5bd f3fb d63d 1ef6 cf3d
00000020: dc5e 623d c61d 74bb b772 cabd d4a2 a9bd
00000030: 5e70 afbd db00 943d 24d5 77bd 3ca5 9e3d
00000040: a52f 013e 52cf a53d aeef a7bc 06ce 003c
00000050: 4fba f03d 3db6 c7bd f57b 6d3d 7dd4 e93d
00000060: 7636 d0bc f3d0 57bd bf31 e8bd d6fa 72bd
00000070: 3acc 583d b82d 37bd 8137 913d 9b80 d1bc
00000080: 1a97 ab3d bea7 8f3c e930 d5bd aa79 a3bd
00000090: c73b 83bd 75b5 c53d acde c6bd e59c 343d
000000a0: 363f b8bd 89d7 1b3d d892 50bc b24b 73bd
000000b0: 0552 dc3d e028 ddbd 84c4 f13d d5cb d53c
000000c0: 408f 8b3c 6b2c 8fbd febd c3ba 19e3 a03d
000000d0: 8ecb 9b3d fbbd 033e f4fb b3bc 6ff0 833c
000000e0: 9d22 2abd 2df8 e6bd f4e3 383d 7ae5 cfbd
000000f0: 3311 af3d f9a9 a7bc e61f 3c3a ab0c 7b3d
00000100: 0ccd 663c 2831 b03d 0192 be3d f53e adbd
00000110: 52c3 e4bd bff3 f4bd 4cfc fc3d c963 e13d
00000120: e697 c339 a0a6 513d 5300 293d 5e59 e5bd
00000130: daac 333d cfcc 1abd 5df6 bdbd ab1c bb3b
00000140: 8c1c 923d 3138 d2bd 31f1 bb3c c610 b1bd
00000150: 0c0a 50bd e584 e6bc aead 963d 54b5 efbd
00000160: 70f9 3fbd 0b53 963d 956a 3c3d 83a9 e73c
00000170: cd45 bd3d 2b82 0dbd de78 293d daa7 5fbd
00000180: 33e1 a4bc b1e4 053b 2729 82bb 185d d0bd
00000190: 702c 6b3d c38e 6b3d bba5 5f3d a44b 6f3d
000001a0: 4195 13bd 83ce 923c ead7 45bd c776 883d
000001b0: 6f38 23bd c4af ec3d 5fd7 87bd 4ad9 043e
000001c0: db2b ed3d 4822 3bbd 8306 733d b903 a53d
000001d0: 2e15 06be 72af a93d 7b32 3f3d 3df3 d8bd
000001e0: 3a9d ecbc 6d85 dabd bc95 27bd 89af c7bd
000001f0: 1aa6 a6bd eb4f 72bd a746 bebc c70c b6bc
00000200: 1e73 26bd 8088 af3d e196 a93d e77c 31bd
00000210: 9b57 e9bd eb31 ef3d a48d f03d c497 0bbd
00000220: 378e 543b c849 8c3d 81cf 013d 6963 663d
00000230: a8eb b53d 393e dc3c 44d2 ddbc f693 e6bd
00000240: 5784 ce3c ea31 13bd f5c9 69bd dbec 783d
00000250: e27a f7bd fb1e 7f3d 58db f5bc db42 c13d
00000260: 4c8d 19bd 6a6b e83d 0280 9bbc 0ff6 e6bd
00000270: 0754 213c 8784 59bc 0c47 b63c af20 fc3c
00000280: 4d40 91bb 5d25 01be f9b2 c2bd 1c62 95bd
00000290: df3a 72bd ed86 2abd 13c1 82bd dda1 843d
000002a0: 75a5 863c 3fe6 24bc ef6d 19be e891 d83d
000002b0: 36db 213d bd74 eebd cb92 df3d efca c33d
000002c0: 0a67 833d 4b63 b0bb e532 bebd bc53 8dbb
000002d0: 4bd4 dcbd 4a0d b03d c5e9 ab3d 8077 113d
000002e0: a30f b23c c688 28bd df25 97bd 6d38 8e3d
000002f0: 7068 943d 2299 de3c 10b8 d2bc ba7e 88ba
00000300: 762d d0bb cb48 51bc 7556 e1bb 06e5 b73c
00000310: c565 933c f3d4 e53d f1d6 babd 0d56 41bd
00000320: c757 dc3c b917 d23d 55c7 e23d 41a7 903d
00000330: 64d2 81bb e042 a43d 4a8b aabd ace8 c83c
00000340: a120 2dbd 37a4 ac3d 223c 7dbd 39ac f83d
00000350: 69cb 6e3c bc62 f4bd f263 af3d ca82 0cbb
00000360: d5f1 05be 838a e13d 1c19 99bd 13ae d3bb
00000370: 88a5 fe3d fe88 19bd 2a27 cfbd cff7 063e
00000380: edfe c3bd b36d f33d e8a4 d73d 461e a33d
00000390: 369b 8f3d 68db 743c 8204 02be e47a abbd
000003a0: 19b4 b43d 32da e03d 354f 7c3d bd2f d5bd
000003b0: 906c 8d3d 525d b6bb b2cf 03bc 36a8 d9bd
000003c0: 7b0a b4bd ddbf fabd 6f88 d73c 1496 033e
000003d0: 6596 86bd 786d 45bd ac64 cbbd 45df e2bd
000003e0: 2155 e63d b190 913d f5a0 b0bb 16c4 173d
000003f0: 5825 a93d 48ee 88bc 8dbe b1bd 8471 c33c
-0.017588988 0.08699515 0.062420394 -0.008411448 -0.09243714 -0.08075397 0.10497274 0.10154365
0.055266246 -0.0037249192 -0.09885161 -0.0828301 -0.08566354 0.07226726 -0.060506 0.0774636
0.12615831 0.08096184 -0.02050003 0.00786162 0.117542855 -0.09751556 0.057979543 0.11417482
-0.025416594 -0.052689504 -0.11337613 -0.059321247 0.05292914 -0.044721335 0.07090665 -0.02557402
0.0837843 0.01753604 -0.104097195 -0.0798219 -0.06407886 0.09653751 -0.0971044 0.04409494
-0.089964315 0.038047347 -0.012730323 -0.05939836 0.107578315 -0.10798812 0.118050605 0.026098171
0.01703608 -0.06990894 -0.0014933941 0.078558154 0.07607184 0.1286544 -0.021970727 0.016105859
-0.041536916 -0.112778045 0.045139268 -0.10151191 0.08548202 -0.020466791 0.0007176384 0.061291378
0.014086973 0.08603126 0.09305192 -0.08459274 -0.11170067 -0.119605534 0.12352809 0.11005361
0.00037306471 0.051184297 0.041260075 -0.11198686 0.043866016 -0.037792977 -0.09275506 0.0057102046
0.07134351 -0.10264624 0.022942157 -0.086457774 -0.05079083 -0.02813954 0.073573455 -0.117045075
-0.04686874 0.07340058 0.046000082 0.028279072 0.09241829 -0.034547966 0.041375034 -0.054603435
-0.020126915 0.00204305 -0.003972191 -0.10174006 0.057415426 0.057509195 0.054601412 0.058421746
-0.03603101 0.017920738 -0.048301615 0.0666328 -0.03984874 0.11556962 -0.06632876 0.12973514
0.115806304 -0.04568699 0.059332382 0.08057351 -0.13094017 0.08285417 0.046679 -0.10593269
-0.028883565 -0.1066998 -0.040914282 -0.097502775 -0.0813715 -0.059158247 -0.023227049 -0.02222289
-0.040637128 0.08570957 0.08280731 -0.043332007 -0.113936625 0.11679443 0.11745766 -0.03408028
0.00324334 0.0685001 0.03169203 0.05624715 0.088828385 0.026885139 -0.027077802 -0.1125869
0.025209589 -0.035936274 -0.057077367 0.060772758 -0.12083985 0.062285405 -0.030011818 0.0943658
-0.037488267 0.113486126 -0.018981937 -0.11277401 0.009846694 -0.013276226 0.022250675 0.030777304
-0.004432714 -0.12611909 -0.095067926 -0.072941035 -0.059138175 -0.04163258 -0.06384482 0.064761855
0.016436318 -0.010064661 -0.14983343 0.105747044 0.039515696 -0.1164336 0.109166704 0.09560191
0.064161375 -0.0053829304 -0.09287051 -0.0043129604 -0.10782679 0.08596285 0.083941974 0.035514355
0.021735972 -0.041146062 -0.0738027 0.06944356 0.07246482 0.027172629 -0.025722533 -0.0010413744
-0.0063530756 -0.012773703 -0.0068767616 0.022448074 0.017992863 0.112222575 -0.09123028 -0.047201205
0.026897324 0.10258431 0.11073176 0.07063151 -0.003961848 0.08020568 -0.083273485 0.02452501
-0.042267445 0.08429759 -0.061824925 0.12142224 0.014574864 -0.119328946 0.08563985 -0.002144026
-0.13080533 0.11012747 -0.07475492 -0.0064599602 0.12433916 -0.03748416 -0.10114892 0.13180469
-0.095701076 0.11886158 0.105295 0.079647586 0.07012026 0.014944889 -0.12697032 -0.08373049
0.088234134 0.109791175 0.061598975 -0.10409496 0.06905472 -0.005565324 -0.008045124 -0.10627787
-0.087910615 -0.12243626 0.026310174 0.12850219 -0.06571654 -0.0482001 -0.09931311 -0.110777415
0.11246706 0.07107676 -0.0053902813 0.037052236 0.08259076 -0.016715184 -0.08678923 0.02385784

feature_extract.mlps.1.linears.1.bias f4 [64]
00000000: f9ab ab3d 1451 21bd b24b bbbd ffa7 453d
00000010: a3e9 0a3d c586 493d e37d b6bc b1f7 cdbd
00000020: c2ba a83c 1013 b33d f514 093e 6313 a8bd
00000030: 160d 03bd 0891 c63d 56bf b5bd 4e40 c93d
00000040: 9875 163d 06c3 923d 091b 29bd 200b d63d
00000050: 381b f9bd cc91 c13d a92d 073c 33dd 0e3d
00000060: e6ff 883d 13c8 01be f223 1c3c f658 243c
00000070: 64a0 103d c4ef 5abc 5ba6 d53c acec 0fbc
00000080: 5638 e3bd ed46 64bd 28a9 b73d 73e5 d5bd
00000090: 1306 44bd 8384 d2bd 33f9 d4bb 27d0 5f3d
000000a0: 8c95 46bc 3386 853d 4e3f 95bd 31e0 a4bd
000000b0: 48ce 0bbe e212 8b3d d7bb bd3c 04fe cbbd
000000c0: 8821 f0bd a6ad 2fbd 6d6e 7bb9 6806 b03d
000000d0: f043 b2bd 3ff9 b43d 7888 463d 2cb7 f1bd
000000e0: 5af4 3e3d bb05 9d3d 15af 8ebd 3692 ab3d
000000f0: ccca f63d e52f bebd 2737 ae3d 4f11 a13d
0.083824106 -0.039383963 -0.09145297 0.048255917 0.03391422 0.049200792 -0.022276824 -0.10057009
0.020596866 0.0874387 0.133869 -0.08206823 -0.0319949 0.09695631 -0.08874385 0.09826718
0.03673324 0.07166104 -0.04128555 0.10451341 -0.12163395 0.09451637 0.008250632 0.03487892
0.06689434 -0.12673979 0.009530054 0.010030976 0.03530921 -0.013362829 0.026080301 -0.008784454
-0.110947296 -0.055731703 0.08967811 -0.104441546 -0.047857355 -0.10279181 -0.0064994334 0.05464187
-0.012120616 0.06519737 -0.07287465 -0.080505736 -0.13652909 0.06790711 0.023160858 -0.09960559
-0.117251456 -0.042890213 -0.00023978362 0.08594972 -0.08704364 0.088366024 0.04846999 -0.118025154
0.04661975 0.076671086 -0.06966988 0.08377497 0.12050399 -0.09286479 0.08506613 0.078646295

feature_extract.mlps.1.batch_norms.0.weight f4 [64]
00000000: 93b6 7f3f 288a 803f cd95 813f 1fc7 7e3f
00000010: 9d09 7e3f 742a 803f 0072 7f3f 470d 803f
00000020: 1d51 803f 4eeb 803f 1e3f 7f3f 5069 813f
00000030: ac1a 7e3f c56b 7d3f 1c7e 7d3f e76f 7e3f
00000040: 3b5c 823f a46b 7b3f 15c3 7e3f 0e0a 813f
00000050: cec2 843f 002a 7f3f 9803 7e3f 718b 803f
00000060: f328 803f 1740 813f 7f93 803f 5ba3 813f
00000070: b2dc 803f 018b 803f 1bbe 7e3f ea31 813f
00000080: daaf 803f 606c 7e3f 4ab2 803f d5e9 7e3f
00000090: cda6 7d3f 08a7 803f 7436 7f3f a961 7d3f
000000a0: 982a 7f3f 0dcc 7d3f a00d 803f ba70 7b3f
000000b0: 243b 803f f1a3 813f 4586 813f d779 803f
000000c0: 9eca 7d3f 3407 7d3f 0418 813f 43d4 803f
000000d0: b89c 803f 903e 803f fdbd 7b3f 855c 7e3f
000000e0: e527 7b3f 73be 7e3f 45a8 7e3f 7bce 7f3f
000000f0: 8849 7d3f b729 7f3f 0471 813f b15b 803f
0.9988796 1.0042162 1.012384 0.99522585 0.9923342 1.0012956 0.99783325 1.0004052
1.0024754 1.0071809 0.99705684 1.0110264 0.9925945 0.9899257 0.9902055 0.993895
1.0184397 0.9821112 0.9951642 1.0081193 1.037195 0.9967346 0.99224234 1.0042554
1.0012497 1.0097684 1.0045012 1.0127977 1.0067351 1.0042421 0.9950883 1.0093358
1.0053666 0.9938412 1.005441 0.9957555 0.9908264 1.0050974 0.99692464 0.9897714
0.9967437 0.9913948 1.0004158 0.9821888 1.0018048 1.0128156 1.0119101 1.0037183
0.99137294 0.98839116 1.0085454 1.0064777 1.0047827 1.0019093 0.98336774 0.99359924
0.9810775 0.9950935 0.9947551 0.9992444 0.98940325 0.99673027 1.0112615 1.0027982

feature_extract.mlps.1.batch_norms.0.bias f4 [64]
00000000: e0e4 91bb f5e2 823b d2ae 2b3c 4561 6cbc
00000010: 43b1 10bb 311c 283b a930 90bb 04f3 90bb
00000020: 7c8a 9d3c 2bf3 d73b 18d8 99bc 4060 323c
00000030: a0d2 0fbc 88fb 17bc 2dc8 e7bb 5b45 963a
00000040: 6d37 1cbb 702c 37bc 9709 c3bb 53ff 803c
00000050: a4d7 e23c 6118 293a fc77 11bb 9b2b d13b
00000060: e677 bbba 3392 7fbb f304 d339 3ae4 40bb
00000070: 44a6 303c a085 7a3c dfc7 51bb c31b 503c
00000080: 3ad3 583a 724c 95bb dcb4 123b 179a 2cba
00000090: 3ddf 3a3b 19b5 493b ca64 9cba c505 04bb
000000a0: 97ac c03a 8dec c6bb c515 84ba 3dd2 44bc
000000b0: 59b5 33bc 4660 2f3c 8ab7 f23b 053e 033c
000000c0: d8fc 0e3c 9a4c 26bc 2efc aa3b e2de 2e3c
000000d0: 79b8 093b b504 363b 81a0 d3bb eba3 fc39
000000e0: ba4f c13b 81cf 4dbb 2a2c 3abc 1353 b1bb
000000f0: ca3d 10bb 14e7 0abc bd5e 383c 63b1 323a
-0.004452333 0.0039943405 0.010478692 -0.014427488 -0.0022078312 0.002565157 -0.004400332 -0.004423501
0.019231074 0.006590267 -0.0187798 0.010887206 -0.008778244 -0.009276278 -0.0070734234 0.0011464761
-0.0023836747 -0.011180028 -0.005952071 0.015746748 0.027690716 0.0006450471 -0.002219676 0.006383372
-0.00143027 -0.0038997054 0.00040248744 -0.0029432909 0.010781828 0.015290648 -0.0032010002 0.012701931
0.00082712213 -0.004556232 0.0022385633 -0.00065842405 0.0028514408 0.0030778109 -0.0011931893 -0.002014504
0.0014699873 -0.0060706795 -0.0010077289 -0.012013015 -0.01096853 0.010704106 0.0074071335 0.008010392
0.008727275 -0.010150099 0.0052180504 0.010673257 0.0021014495 0.0027773802 -0.0064583425 0.00048187314
0.0058993967 -0.00314042 -0.011363069 -0.0054115145 -0.0022009485 -0.008477945 0.011253056 0.0006816594

feature_extract.mlps.1.batch_norms.0.running_mean f4 [64]
00000000: 80d8 763f abbc 3ebe d509 adbe 4c54 51bf
00000010: 7b66 47be 8af1 74bd 6dd9 81bd 7910 c9be
00000020: 088f 663f 0bbd c0be 64be c0be 03db 20bf
00000030: a635 913e f8b3 0dbe 6965 2e3f 7a4f 8e3f
00000040: 39ce 813f 28ab ebbe a185 203f 243a c6be
00000050: 8ccd 003f 41d3 ccbe e030 75bf 134d 97bf
00000060: 2521 c0bd 52c4 4dbe d861 01bf f4a9 353f
00000070: faa4 58bf 5e01 5bbe ce52 04bf 050f a5be
00000080: db56 71bf 7a08 3dbf fd00 3dbe 23a2 b03e
00000090: a4e2 75be fd86 8abf 4415 703f 6596 24bf
000000a0: 82bb ff3e eebf 7c3f a1dd fbbc e9e3 b93e
000000b0: 0415 fcbe 5cff 1ebe 769f 04bf 7cf2 a63e
000000c0: 6309 67bd 7e8a 243f 8191 58bf 9859 503e
000000d0: b449 5d3f 48c8 8bbe 8e92 483e 8590 f23e
000000e0: 2a56 0a3f 2193 02be 4003 8c3f 0084 bdbf
000000f0: 471f 2b3f 9f87 91bd d685 2e3f 065b 0e3e
0.964241 -0.18626659 -0.33796564 -0.8176925 -0.19472687 -0.059800662 -0.06340299 -0.3927038
0.90062 -0.37644228 -0.37645257 -0.62834185 0.28361243 -0.13838184 0.6812349 1.1118004
1.0141059 -0.4602902 0.627039 -0.38716233 0.5031364 -0.40004924 -0.957777 -1.1820396
-0.09381322 -0.20094422 -0.5053992 0.7096245 -0.84626734 -0.2138724 -0.5168885 -0.32238021
-0.94273156 -0.7384106 -0.18457408 0.344987 -0.24012238 -1.0822445 0.9378245 -0.64291984
0.49947745 0.9873036 -0.03074533 0.36306694 -0.49234784 -0.155271 -0.5180582 0.32606876
-0.056405436 0.6427382 -0.8459702 0.20346677 0.8644059 -0.2730124 0.19587156 0.47375885
0.54037726 -0.12751438 1.0938492 -1.4805908 0.668446 -0.07105946 0.6817297 0.1390191

feature_extract.mlps.1.batch_norms.0.running_var f4 [64]
00000000: dd64 863e 42ed 623f 67e0 233f 0069 f63e
00000010: 4f86 ac3f 6de5 503d bbe4 d43e 2163 da3e
00000020: 1ac4 e63e f61f 813f ab31 553e 198b a63e
00000030: 82ac 9e3e 0f7b 8d3f 28ab 923e 4fb3 883e
00000040: 64e7 823e 5ab7 1a3f 9512 193f 52dd 9c3e
00000050: d48f 1b3f bb38 c63e b30a 923f 64e0 9b3f
00000060: f9de 443f 16c9 843f b4ee 883f 14bd b83d
00000070: 64bf 073f ab4e 8f3f dfae f93e eb3a 9d3e
00000080: 7e4a 123f 82a9 693f 191c 293f e1db 873f
00000090: 5818 323e 520d 923f ef5e fc3e 12eb 533f
000000a0: 4cd2 d73e 5d46 0e3f 5931 ae3e 5a16 573e
000000b0: 12ea c43e 9ffb b53f 5888 c63e 0f83 823e
000000c0: c3c0 b03f 5e15 c83e 7bcc 9b3f aa7c 013f
000000d0: f5b0 bb3e babb 9e3e e2da 433e 1a93 243e
000000e0: 92cc bd3f 6a41 9a3e eac9 633f 78ea 203f
000000f0: 3512 8b3f 80b1 f53e 1e43 483f 3ed1 653f
0.26248828 0.88643277 0.64014286 0.48126984 1.3478488 0.051000047 0.41580757 0.42653754
0.4507149 1.0087879 0.20819728 0.32527998 0.30990988 1.105318 0.28646207 0.26699302
0.25567162 0.6043602 0.5979398 0.30637604 0.6076634 0.38715157 1.1409515 1.2177854
0.7690273 1.0373867 1.0697846 0.09020439 0.53026414 1.1195883 0.4876623 0.30709013
0.57144916 0.91274273 0.660585 1.0613977 0.17392099 1.1410315 0.4929118 0.82780564
0.4215263 0.55576116 0.34022024 0.2100462 0.3845983 1.4217414 0.38775897 0.25490615
1.3808826 0.39078802 1.2171777 0.5058085 0.36658445 0.310026 0.19126466 0.1607174
1.4828055 0.30128032 0.8897997 0.6285777 1.0864931 0.47986984 0.7822741 0.89772403

feature_extract.batch_norms.0.weight f4 [64]
00000000: 1d2d 7e3f e692 803f 0ec9 813f e5ff 7f3f
00000010: 366a 803f 3267 7f3f 75c7 7f3f 36fd 7f3f
00000020: 6458 7c3f 7b9a 7e3f 4d9e 7f3f a780 803f
00000030: f526 813f 139a 7d3f 6da6 803f 9ac2 803f
00000040: 1ae7 7e3f e03a 7f3f efdf 7e3f fe8d 7f3f
00000050: 4d73 803f 3a63 803f be16 7f3f 073e 803f
00000060: 6c53 7f3f bf83 7d3f 14c0 803f 1233 803f
00000070: c988 803f 252d 7f3f d205 803f 43e7 7d3f
00000080: dd81 803f 5d20 803f cc7b 7f3f 3ea1 7f3f
00000090: fcbf 7d3f 5e9e 803f 7897 7f3f 6c12 803f
000000a0: e6c9 803f cd26 7e3f d5fc 7f3f 535c 7f3f
000000b0: 47a6 7e3f 2876 7f3f 1c73 7f3f fb0b 803f
000000c0: 8717 813f 27b5 7e3f 05d9 803f 20b6 7f3f
000000d0: 485d 7f3f f439 803f 3829 803f dec3 7f3f
000000e0: 8f93 7f3f bd91 803f d7ca 803f 0136 803f
000000f0: 0b40 803f 85c0 7f3f dd7e 803f cfe3 7f3f
0.9928759 1.004483 1.0139482 0.9999984 1.0032413 0.9976684 0.9991372 0.99995744
0.98572373 0.9945447 0.9985092 1.0039262 1.0090014 0.99063224 1.0050789 1.0059388
0.99571383 0.9969921 0.99560446 0.9982604 1.0035187 1.0030282 0.99644077 1.0018929
0.99736667 0.99029154 1.0058618 1.0015585 1.0041744 0.9967826 1.0001776 0.99181
1.0039631 1.0009876 0.99798274 0.9985541 0.9912107 1.004833 0.998405 1.0005622
1.0061615 0.99277955 0.99995166 0.9975025 0.9947247 0.9978967 0.9978502 1.0003656
1.0085305 0.99495167 1.0066229 0.99887276 0.9975171 1.0017686 1.0012579 0.99908245
0.9983453 1.0044476 1.0061902 1.0016481 1.0019544 0.99903136 1.0038716 0.99956983

feature_extract.batch_norms.0.bias f4 [64]
00000000: 0437 683b ea23 8a3a 57dd 093c 1cc4 d4ba
00000010: f166 b13b f65e f9ba 4465 203b 42cb a5ba
00000020: 0cb4 2dbc 3758 5dbb 3d40 053b 793b 2e3b
00000030: 15bd c13b 0fc2 b2bb 4663 c13b a42a 7e3c
00000040: 147a afbb 96d1 58bc b204 cf3c d272 fc3a
00000050: 2911 023c ab16 813a 7e37 023b 513a 913a
00000060: 12a7 ff3b 2d10 14bc 3df5 cc3a 960b 7a3a
00000070: 5cac ed3b e669 f93a 5419 39bb 7e80 fbbb
00000080: 1464 d93b 36a8 54bb 07bb d439 3b70 dcba
00000090: 20bb 0f3c 5ec5 203b b25f 0ebb 6a9e 84bb
000000a0: 7ef0 963b f174 f1ba 4cb4 07bb a21e b7bb
000000b0: 5bf7 0bbb bbcb 2abb bf28 f8ba 9b4f 363a
000000c0: 305c d83a 1f12 3abb 17e9 fe3b 7a07 c6ba
000000d0: 9d97 a8ba c1bd 5cba 9b9b cebb 9645 2bbb
000000e0: 7a32 88bb 5333 213b 4a44 c03b 5c45 f13b
000000f0: 4e3e 173b a7f1 9abb 421b 18bb 57f5 b739
0.0035433182 0.0010539268 0.008414588 -0.0016232762 0.005413883 -0.0019025493 0.0024474422 -0.0012649077
-0.010602009 -0.0033774504 0.0020332478 0.0026585741 0.005912433 -0.0054552625 0.005901727 0.015513096
-0.005355129 -0.013233563 0.025270794 0.0019260293 0.007938662 0.0009848675 0.0019869502 0.0011080002
0.0078018988 -0.00903706 0.0015637052 0.00095384696 0.007253213 0.0019028753 -0.0028243857 -0.0076752296
0.0066342447 -0.0032448894 0.00040575137 -0.0016818115 0.008772641 0.0024531703 -0.002172452 -0.0040472047
0.0046063056 -0.0018421692 -0.002070683 -0.0055883685 -0.0021357152 -0.0026061374 -0.0018933042 0.0006954611
0.0016506966 -0.0028392149 0.0077792513 -0.0015108429 -0.0012862567 -0.00084206095 -0.0063051707 -0.0026134006
-0.004156408 0.0024597242 0.0058675157 0.0073630046 0.0023077908 -0.0047285142 -0.0023209606 0.00035087272

feature_extract.batch_norms.0.running_mean f4 [64]
00000000: d618 873d 9c24 cd3b d089 03be 12d2 203e
00000010: 7db4 d1bd 45ed c73c 9980 923c 0e83 cebd
00000020: 5a94 19be 02ba 4a3e 9a36 56bd 0e04 fdbd
00000030: 3487 ad3d 83ab 99bd ffa9 273e 99d3 82bd
00000040: c129 79bd b8b3 cdbd 78cd 98be ca8a b23e
00000050: 9169 93bd c6c1 fe3e 135e b23e 3b3b 803e
00000060: 6685 343b a15d 333f 4884 1ebe 6bd2 173e
00000070: 57f7 0cbd 6778 d0be 1ce9 ac3e 3654 da3c
00000080: 93bc 7ebe 71fe 60be 905c b43c 5a9f b5bc
00000090: bc9a 8abd feec c2be 7c91 c83e a460 573e
000000a0: 021b 67bc f0e8 68be 5ee1 0bbd 36bd febd
000000b0: 19e7 c83d 2d11 663e de7a 063e 1d86 7bbe
000000c0: 979b 0d3e 10af 403e 667d c23e ad89 b73c
000000d0: 65cc af3c 748a 243e 71f2 853e fa94 9e3e
000000e0: 6ccf 563d 09e3 afbd 3938 ed3e 62fc 583e
000000f0: e15f ecbe e381 00bd 9039 12be d74b dc3d
0.06596534 0.0062604677 -0.1284554 0.15705135 -0.102395035 0.024405131 0.017883586 -0.100835904
-0.14997998 0.19797519 -0.052298166 -0.12354289 0.084730536 -0.075034164 0.16373442 -0.06388015
-0.060830835 -0.10044044 -0.2984426 0.34871513 -0.071978696 0.49757212 0.34837398 0.2504519
0.0027545332 0.7006474 -0.15480149 0.14826362 -0.03441557 -0.4071686 0.33771598 0.026651483
-0.24876623 -0.21972062 0.022016793 -0.022170711 -0.067677945 -0.38071436 0.39173496 0.21032959
-0.01410556 -0.22745109 -0.034150474 -0.12438433 0.098097034 0.2246749 0.13132808 -0.24562879
0.13828884 0.18816781 0.37986296 0.022404516 0.021459768 0.1606844 0.2616153 0.30973035
0.052443907 -0.085882254 0.46331957 0.21190026 -0.461669 -0.03137387 -0.14279771 0.10756653

feature_extract.batch_norms.0.running_var f4 [64]
00000000: 7ee8 0f3d 7e7f 043c dea3 c43d 904e d93d
00000010: e007 0c3d b1de ba3c 143b 5e3d d09f 933e
00000020: 9182 5f3e fc46 183d 82fa 793e 3f42 093d
00000030: c421 a03e da58 fc3d a737 da3c 07ac 813c
00000040: f977 283c f88b f83d 5cbd 2f3e 7aa6 823e
00000050: 4165 103c d4c9 503e f045 fe3c 279f b43c
00000060: 3785 533c a6bd 0f3e bcfd 833d cdd1 963d
00000070: 9f56 073d c95c 763d af4b 8f3d e3ba cc3d
00000080: b377 7e3d efee 7a3e 7995 053d 6b05 f03d
00000090: 1691 633c 8ee2 0e3d 15e8 e03d 9168 db3d
000000a0: 88af a63d e8e4 453d 69f1 613c 00eb 0a3d
000000b0: abf7 5d3c fd0f 843d 6b27 d53d 4d01 3f3d
000000c0: 35e1 cc3e 77f6 433d e3e8 433e 209c 503d
000000d0: e97a cd3d 0c45 8b3d 6a5f 923d d3b0 513e
000000e0: 3b69 453c f077 113e 219f b93d 919f 2a3e
000000f0: 06ac 0e3d aae2 173e 7276 053f b413 503e
0.03513383 0.008087037 0.09601568 0.10610688 0.034187198 0.022811266 0.05425556 0.28832865
0.21827151 0.03717707 0.24411967 0.033510443 0.3127576 0.123216346 0.026637865 0.0158291
0.01028251 0.12136072 0.17162079 0.25517637 0.008813203 0.20389491 0.031039208 0.022048546
0.012910179 0.14037189 0.0644488 0.07364235 0.033041593 0.06014708 0.069968574 0.09996583
0.062125873 0.24505208 0.03261325 0.117197834 0.013889572 0.034884028 0.10981766 0.10713304
0.08138949 0.048314005 0.013790467 0.03391552 0.013547818 0.06448362 0.10407909 0.0466321
0.4001557 0.04784247 0.19131808 0.050930142 0.10033209 0.06800279 0.07147105 0.2047761
0.012049015 0.14205909 0.090635546 0.16662432 0.034832023 0.14832559 0.5213386 0.20320016

feature_extract.batch_norms.1.weight f4 [64]
00000000: ab33 843f 4fbd 833f c45f 883f d6d8 813f
00000010: ca62 853f 7cdb 833f 708f 833f 444f 883f
00000020: ce7a 843f 6b7e 823f 1470 823f 86f4 813f
00000030: d63c 863f 426b 833f 319a 823f 12b6 823f
00000040: c8ad 803f 3411 833f 08da 833f 53f3 833f
00000050: 2c59 823f 059b 823f ef02 813f 6f0b 843f
00000060: 635c 823f 78e9 833f 7cc2 823f 3020 853f
00000070: b6a7 823f 9983 833f 3ff3 833f 1b5a 843f
00000080: 0671 813f d059 823f fe53 843f c559 843f
00000090: d087 823f e6a2 823f 09bb 863f 7dbb 833f
000000a0: 92ec 813f 979e 863f d25b 823f ad55 833f
000000b0: 422b 873f c157 833f 0676 843f 9c84 823f
000000c0: dd0c 813f 6b3e 823f 01bb 853f e20e 843f
000000d0: 7592 843f a8e4 823f 1731 813f d034 823f
000000e0: c8ad 823f 0f29 853f 5b95 833f 08bf 823f
000000f0: 248f 863f c267 8a3f 0ce8 7e3f 6ce0 823f
1.0328268 1.0292147 1.0654225 1.0144298 1.0420773 1.0301356 1.0278149 1.064919
1.0349977 1.019483 1.0190454 1.0152748 1.0487316 1.0267107 1.0203305 1.0211813
1.0053034 1.0239625 1.0300913 1.0308632 1.0183463 1.0203558 1.007902 1.0315989
1.0184444 1.0305624 1.0215602 1.0400448 1.0207431 1.0274535 1.0308608 1.0339998
1.0112617 1.0183659 1.0338132 1.0339895 1.0197697 1.0205963 1.0525829 1.0291592
1.015032 1.0517148 1.0184271 1.0260521 1.0560076 1.0261155 1.0348518 1.0196719
1.008205 1.0175298 1.0447694 1.0317042 1.0357195 1.022603 1.0093106 1.0172367
1.0209284 1.0403155 1.0279955 1.0214548 1.0512433 1.0812914 0.99572825 1.0224738

feature_extract.batch_norms.1.bias f4 [64]
00000000: ddc4 f83c 597b a93c 6d7b 4e3d 7227 863c
00000010: 1f58 dc3c a56a 023d ec4e aa3c b49f 4f3d
00000020: ba4b e93c adfd 983c de49 553c 1faa 823c
00000030: e48c 1f3d 2bc9 a33c d614 ab3c 375a 673c
00000040: 9130 4a3b d71a bc3c 637d 9c3c b0c2 d13c
00000050: 7be4 a33c 0b23 fd3b 700f 023c f17c d63c
00000060: 5fdc 903c 128c c63c db56 b23c b974 0b3d
00000070: 7610 493c 3223 723c b9de c33c 1c6e 1b3d
00000080: e8cb 803b 165b 4f3c 3a71 f13c 5136 373c
00000090: 2c05 5c3c d55f b73c 7211 913c dac9 cc3c
000000a0: c4b1 873c f884 c73c 8975 673c 64ae fb3c
000000b0: 989a f83c f387 8e3c 7518 023d a72f 5f3c
000000c0: f4f6 263b 9ed8 983c 60f3 c83c ef61 fd3c
000000d0: 35b8 b53c 18bb b33c 3f87 3f3c 53ff 6b3c
000000e0: dcdc 913c 568c ec3c e4f7 843c b3d1 833c
000000f0: b592 243d 0136 b43c f1ad 69ba 2311 8a3c
0.03036731 0.0206887 0.050410677 0.01637623 0.026897488 0.031839985 0.020789586 0.050689414
0.028478492 0.01867565 0.0130181 0.01595026 0.038952723 0.019993385 0.020883959 0.01412063
0.0030851702 0.022962017 0.019102758 0.02560553 0.020006409 0.0077251247 0.007938251 0.026182624
0.017683206 0.024236713 0.021769932 0.034046862 0.012271991 0.014778899 0.023909913 0.037946805
0.0039305575 0.012655994 0.029472936 0.011182384 0.013428967 0.022384563 0.017708514 0.024998594
0.016564257 0.024355397 0.014127144 0.030722804 0.030347154 0.01739881 0.031761605 0.013622201
0.0025476785 0.018657979 0.024530113 0.030930487 0.022182563 0.0219398 0.01168996 0.014404136
0.01780551 0.028875511 0.016231485 0.016091203 0.040178973 0.021998407 -0.0008914164 0.016853875
