30_20_1_99_sw(1000)_1_0.5_v0.pth (torch, 93810 bytes, 30 tensors)

feature_extract.mlps.0.linears.0.weight f4 [64, 2]
00000000: 1700 99be bef7 d73e 8817 003f f1f4 72be
00000010: 730e 793d 4d85 dfbe 015a 08bf af72 b33e
00000020: 179b 033f 844f 8abc 7ccc 32bf 168f 47be
00000030: 9e08 d7be 27c2 47be f3d4 54be 6627 15bf
00000040: db63 c5be 8dcf 913e 5f71 b6be 3eb6 aabe
00000050: a438 cdbe a99e 0c3f 9670 9ebe 6f60 61be
00000060: a263 0abe 7966 2b3f f34f d2be 8c1a 803e
00000070: 02b0 1b3f cda0 163e 30ff 343f ed2e afbe
00000080: c489 093f e66a 1fbf 7ae5 c83e fd95 05bf
00000090: ec14 0fbf e4e9 fb3d bdca 00bc 7a7d 653e
000000a0: e4ce a53c 4cb3 1b3c 88e1 b1be bb30 653e
000000b0: 8d59 5dbe ae00 103e dd99 b53c ed3a 29bd
000000c0: a06d 9fbe 6aef 013f 753f 22bf df54 7dbc
000000d0: 4757 c23e 9909 38be 141d f43e 122c f7be
000000e0: ff61 1abf 1b32 a9be 7bdd 04bf f28f c2bc
000000f0: 40ec 91be 78d9 663e e005 dd3e 635f 053e
00000100: 9680 91bc ef20 89be 66b3 b4be ccda 0f3f
00000110: a0f4 033f 6480 b53e 4d83 a6be 9c3d 82be
00000120: 0942 9e3d 325e 553d 87d0 3dbd 22bf dcbe
00000130: 8c0c f4be 5d3f ba3e 9b1e cb3e 9b2e 113f
00000140: 7cfa 2a3f 2291 1fbe 75af 72bd ca54 de3c
00000150: 9c1a 173e e580 0e3e 5ebb f73c a90b abbe
00000160: 283a 86bc 4abc bf3e e85a a73e fbcd 223f
00000170: 69b2 a53e 9f4f 2bbf 1877 963e fd54 0dbf
00000180: 4d81 0d3f f36e 0ebf ca3b 0ebf 05ed 263e
00000190: 0ccc 103e 5006 013f 3fc0 f0be 8048 0b3f
000001a0: 77de f83d 39f6 fbbd 4905 01bf d590 ad3e
000001b0: 572c b23d 5332 103f 405c cfbe f17c 1a3f
000001c0: f5a9 f1be 8f67 d6be 7b14 c93e 2b6a bcbd
000001d0: 17fb ddbe 8ffa 46bd 1ed2 303f 6a96 06bd
000001e0: 1e15 7c3e 5b24 26be 8aaa 293e c66e 2f3f
000001f0: f2db ae3e 84a6 fcbe 651d d8be c0f1 d0bd
-0.2988288 0.421812 0.50035906 -0.2372625 0.060804795 -0.43656388 -0.53262335 0.35048434
0.51408523 -0.01688362 -0.6984327 -0.19488177 -0.41998762 -0.19507657 -0.20784359 -0.5826324
-0.38552746 0.2847866 -0.3563337 -0.33342165 -0.40082276 0.54929596 -0.3094527 -0.22009443
-0.1351457 0.66953236 -0.4107662 0.25020254 0.6081544 0.14709778 0.70701885 -0.3421549
0.5372584 -0.6227249 0.39237577 -0.5218199 -0.558913 0.123004705 -0.007860837 0.22411147
0.020240255 0.009503197 -0.3474238 0.2238187 -0.21616192 0.1406276 0.022168094 -0.04131596
-0.31138325 0.5075594 -0.6337808 -0.015462129 0.37957212 -0.17972411 0.47678435 -0.4827581
-0.6030578 -0.3304604 -0.5190045 -0.02375028 -0.28500557 0.22543895 0.43168545 0.13024668
-0.01776151 -0.2678294 -0.3529312 0.5619323 0.51545143 0.35449517 -0.3252205 -0.2543763
0.07727439 0.052091785 -0.046341445 -0.43114573 -0.47665823 0.36376467 0.39671788 0.5671174
0.6678846 -0.15582708 -0.05924936 0.02714004 0.14756244 0.13916357 0.03024071 -0.33407333
-0.016385153 0.3744834 0.32686543 0.6359555 0.3236268 -0.6691837 0.29387736 -0.55207807
0.5527542 -0.55638045 -0.5555998 0.16301353 0.14140338 0.5040026 -0.47021672 0.544075
0.12151807 -0.123028226 -0.5039869 0.3389956 0.086998634 0.5632679 -0.4050007 0.60346895
-0.4719998 -0.41875884 0.39273438 -0.091999374 -0.4335563 -0.048578795 0.69070613 -0.03285829
0.2461743 -0.16224806 0.16568962 0.685284 0.3415218 -0.4934579 -0.42209926 -0.1020236

feature_extract.mlps.0.linears.0.bias f4 [64]
00000000: 2e6c a33e 960e c8be 5b1e 45bd 3e4e b23e
00000010: 0ef1 b3be 59df c5be 6e54 383c 240f 14bf
00000020: 2c90 963e 40ce 4bbe c6e3 103f 7ef9 643d
00000030: 8ca7 ac3e 4254 f9bd c081 7fbe a85c 9cbe
00000040: c1f9 af3e c27a 243f 1941 833e 9d04 27be
00000050: 524a bb3e 37e3 09bf 4c7a 1bbf 6ed1 68be
00000060: 3c86 a03e c009 93bd c898 f9be 0a27 16bf
00000070: 50bc b33e 3102 bcbe 2ce1 93be 6190 223f
00000080: 8880 d33d cda2 d3be ab39 733d 3449 c63e
00000090: d09d a7be 1c33 e3be 2013 2abf 8529 1abf
000000a0: 9d33 07bf f31d bb3e f8d8 763d 9f24 5b3e
000000b0: 2b7e cd3e bf9e 223f ff0a 42be 34ff 213f
000000c0: 8164 e33d db04 113f f07f 28bf 6f85 9ebe
000000d0: 3492 86be 4c02 043f e46d d43e 0e37 32bf
000000e0: 6daf ccbe 4768 0cbf 0327 32bf cf86 28bf
000000f0: 80e1 ab3e 9968 803e 18ac 5fbd 86df eabc
0.31918472 -0.39073628 -0.048124652 0.3482532 -0.35144848 -0.38646963 0.011250598 -0.578356
0.2940687 -0.19902897 0.56597555 0.055901997 0.33721578 -0.12174274 -0.2495184 -0.3053944
0.34370235 0.64249814 0.25635603 -0.16310354 0.3658014 -0.5386233 -0.60733485 -0.22736141
0.31352413 -0.07179594 -0.48749375 -0.5865332 0.3510461 -0.36720422 -0.2888273 0.63501555
0.1032725 -0.41335145 0.05938117 0.38727725 -0.3273759 -0.4437493 -0.6643543 -0.60219604
-0.5281313 0.36546287 0.06026551 0.21400689 0.4013532 0.6352348 -0.18949507 0.63280034
0.11103154 0.56648034 -0.6582022 -0.30961177 -0.2628342 0.51566005 0.4149009 -0.69615257
-0.3997759 -0.54846615 -0.6959078 -0.658307 0.3357048 0.25079802 -0.05460748 -0.028671037

feature_extract.mlps.0.linears.1.weight f4 [64, 64]
00000000: b9da 84bd ae9b 803d d7d8 d9bd 0253 bcbd
00000010: 4d92 d7bd 81c7 62bd 71c1 c8bd b3a8 a63d
00000020: 3d53 f3bd e412 4f3c 3756 eb3c f95f d53a
00000030: dd30 753d caab f33d c433 823d f36b e83c
00000040: 4f06 52bd 7075 6cbc e23a f23d 45eb 3c3d
00000050: c675 15bd ea38 4bbc 7508 dcbd f00e c6bd
00000060: 2a35 9b3d 7dba 873c 22cc b73d 62cb 9b3d
00000070: c990 91bc 1df5 db3d 16e8 243d e0d0 b63d
00000080: b351 a73d 3517 ef3d b632 abbd c89f 87bc
00000090: 9aae 833d f913 ddbd 6324 db3c bd38 dfbd
000000a0: f0f9 77bd f911 4abd d519 82bd 65e8 103d
000000b0: 39dc cb3d 6051 e1bd cbd7 b13d c60f 35bd
000000c0: 0285 69bc 0b64 a0bc 4b82 debc 5813 30bb
000000d0: 8dba 17bd 8530 a7bd 6696 4b3b a512 6b3d
000000e0: 172d c53c 16e6 823d 2610 0fbd 5e8e 083c
000000f0: 1648 a33d 3d36 ed3d fbfc f5bd 8105 c13d
00000100: bf7a be3d 5ca5 aebd db0b 39bd bba0 463d
00000110: 308f a33d 92e7 f5bd f16f c53b e0fb 15bc
00000120: f771 d0bb 2404 c73d e956 f73b baf3 6ebd
00000130: 7e57 bc3d 6a0e 04bd b605 b53d c32c d53d
00000140: a9de 333d 8b67 a3bd 20de 63bd 0f19 c7bd
00000150: 3211 83bd e752 efbd 0588 993b 5bd8 4dbd
00000160: 2d4b e03d 1920 d03c b99b 65bd a666 00be
00000170: 182d 683d 4f0a e4bd 607c 36bd 6c23 533d
00000180: c530 5f3d f65b 12bd 4e4a af3d 8c01 8bbd
00000190: 3610 94bd 2d89 9c3d b660 f73b 62a0 543d
000001a0: 0bae 7c3c ed4f 213d aba4 93bd df8d 0e3d
000001b0: 531e 90bc 418d a5bd a848 ee3d c27f 943d
000001c0: c675 0ebb 18c7 f23d dee7 eebd cd10 b13d
000001d0: 1c60 c9bb 012b a1bd 1a79 003e 884e e53d
000001e0: a5d4 65bd 4683 80bd b185 4dbd 30c6 24bd
000001f0: 65be 043d 09f1 503d ff77 aa3c 884f fcbd
00000200: a89f 9ebd 5b9f 23bd 51fe 83bc 3e72 26bc
00000210: 21da 153b 18ea 9cbc 201b b9bd ae25 293d
00000220: 1215 cbbd 1b1d c3bd 8dc9 413c 07c7 f13d
00000230: 65d5 43bd a740 d8bd d7c3 813a 7c3c 593d
00000240: 2f97 0d3d 31d8 41bb 31e4 9cbd fd84 f83b
00000250: cecc 403c 716c e3bd 87c3 393d 68ae f03c
00000260: 187e 473d 2af1 b03d 595b 57bd 4f7f 4f3d
00000270: f7db c53d 65f4 f5bd 12f7 d9bd 58e7 673c
00000280: 8972 4ebd 4b04 9b3d 13c9 013e 60ec 2cbc
00000290: c0f8 723c 7eb0 a7bd 8fb5 e73d 5190 e4bc
000002a0: 74b2 9ebd 9ba4 f9bd 0c93 95bd 17a9 61bc
000002b0: 252f 76bd 99e9 a73a e1f5 833b 1dc2 b0bb
000002c0: 7854 253b b29b 61bc 5a83 893d 8a8d ecbd
000002d0: 6547 b6bd 4570 96bc bcc5 83bd 9b7c b03d
000002e0: ed68 ac3d 44aa 023d 7572 2bbd ed63 6dbb
000002f0: cc51 ca3d ca61 433c db46 ca3d ae4d d73d
00000300: a67e 743c d217 ca3d fe96 e43a 3d39 9abc
00000310: cf04 03bc 77af d5bd f2ba db3d 4910 053e
00000320: c70c afbc 7c21 a2bd 9d97 34bd 4ad3 8738
00000330: f023 dabd 1320 463d 9ed4 9fbd e0dc 9c3d
00000340: 6dc4 0d3d 9a8f c13d 8671 803d 6ba1 c03d
00000350: 194b d73d 4576 8e3d 496f a1bd fbf5 87bd
00000360: c04d 2f3d b90a df3d 55d1 8cbd 640c 8ebd
00000370: 3081 edbd 6c86 f43c df91 adbd 04c8 84bd
00000380: 945c 2c3d 5765 9abd 54db b83d 3f22 d2bb
00000390: c791 be3c afb2 323d b479 c13b 5efb 8f3d
000003a0: 2b62 dfbd cd03 a23d 2492 4b3d ccdb a23c
000003b0: d1cf 793d b93a bf3d bd17 52bd 311b 003e
000003c0: f8be 3fbc d9a2 e0bd 5d7a 4c3d e7dd a0bd
000003d0: dda5 a33c 12a8 bcbd bf2c 503c 2b10 273c
000003e0: cc2c dbbd 1177 52bd a2a6 46bd bd59 c2bd
000003f0: d476 263d 30b4 56bd 8a1e 9a3c 6b6a 8a3d
-0.064870305 0.062796935 -0.10637062 -0.0919552 -0.105259515 -0.055366043 -0.09802521 0.081376456
-0.11881111 0.012638781 0.028727634 0.0016279212 0.059861053 0.118980005 0.0635753 0.028371787
-0.051275548 -0.014432296 0.11827637 0.046122808 -0.03648927 -0.012403706 -0.107438006 -0.09670818
0.075784996 0.016568417 0.08974482 0.076071516 -0.017769234 0.10740111 0.040260397 0.089265585
0.0816988 0.11674348 -0.08359282 -0.016555682 0.06429787 -0.10794825 0.026750749 -0.10899494
-0.060541093 -0.049333546 -0.06352583 0.03537788 0.099541135 -0.11001849 0.08683737 -0.044204496
-0.014252903 -0.019578954 -0.027161738 -0.0026866999 -0.037043143 -0.08163551 0.0031064986 0.057390828
0.024069352 0.06391542 -0.03492751 0.008334724 0.07972734 0.11582611 -0.12011143 0.09424878
0.09300756 -0.085276335 -0.045177322 0.04849313 0.07986295 -0.12007059 0.0060253073 -0.00915429
-0.006361242 0.09717587 0.0075482023 -0.058337905 0.09196375 -0.03224031 0.0883898 0.10408928
0.043913517 -0.07978734 -0.055631757 -0.097215764 -0.06399764 -0.11685734 0.0046854042 -0.05025516
0.10951839 0.02540593 -0.05605671 -0.12539157 0.05668363 -0.11134779 -0.044552207 0.051547453
0.05448987 -0.035732232 0.08559094 -0.067874044 -0.072296545 0.07643352 0.0075493706 0.051910765
0.015422354 0.039382864 -0.07209142 0.034803268 -0.017592585 -0.08083583 0.11634952 0.0725093
-0.002173768 0.1185438 -0.11665319 0.086457826 -0.0061454903 -0.078695305 0.12546197 0.11196619
-0.056110997 -0.062750384 -0.050176326 -0.04022807 0.032408137 0.05101112 0.020809172 -0.12319857
-0.07745296 -0.039946895 -0.016112478 -0.010159073 0.002286561 -0.019154593 -0.09038377 0.0412957
-0.09916128 -0.09527036 0.011827839 0.118055396 -0.04781093 -0.105592065 0.0009900284 0.053036198
0.034568008 -0.0029578323 -0.076607116 0.007584213 0.011767579 -0.11104668 0.045352485 0.029380038
0.048704237 0.086397484 -0.05257735 0.05065852 0.096610956 -0.12009505 -0.10642828 0.014154278
-0.050402198 0.07569178 0.1267436 -0.010554403 0.014829814 -0.0818796 0.113139264 -0.027900847
-0.07748881 -0.12189599 -0.073034376 -0.013773224 -0.060103554 0.0012810706 0.004027114 -0.005394234
0.002522735 -0.013770031 0.067145064 -0.11550434 -0.08900336 -0.018364081 -0.06434199 0.086175166
0.084184505 0.03190066 -0.0418572 -0.003622289 0.09878883 0.01192517 0.09876796 0.10512863
0.014922773 0.098678246 0.0017440019 -0.018826121 -0.007996752 -0.10433858 0.10729016 0.12994494
-0.021368397 -0.07916543 -0.044089902 6.476657e-05 -0.10651386 0.048370432 -0.078042254 0.07659316
0.034611154 0.09451218 0.06271653 0.09405788 0.105123706 0.06956152 -0.07882554 -0.06638714
0.042798758 0.10890717 -0.068758644 -0.06935957 -0.11596906 0.029849254 -0.08475088 -0.064834625
0.042080477 -0.0753886 0.090262085 -0.006412774 0.023262871 0.043627437 0.0059044007 0.07030366
-0.10907396 0.07910881 0.049699917 0.019880198 0.060989205 0.09337372 -0.05129217 0.12510373
-0.011703245 -0.10968561 0.049921382 -0.078548245 0.01997655 -0.09211744 0.012705981 0.010196726
-0.10701904 -0.05138308 -0.048498757 -0.094897725 0.040640667 -0.052417934 0.01881339 0.06758579

feature_extract.mlps.0.linears.1.bias f4 [64]
00000000: 8e01 193d c466 583d 8108 333c 8378 d13d
00000010: f209 b7bd 0e8f 003d 869a e43c 352c ac3c
00000020: 375b a53d 0cab d63d 3695 b03d c4b5 a5bc
00000030: ade7 df3d bd9d 4f3d 1021 2e3d 3989 473b
00000040: 8270 88bd 824e 943d 0d7a 0a3d 487c ce3c
00000050: e57f 22bd 618d ea3d b8fb ae3d 1cb1 ef3d
00000060: 5e37 e6bc 82c7 2d3d 29b1 4cbd 391f bd3d
00000070: c5ca da3d a111 193d 2f2a d23d 308a c0bd
00000080: 573d e63c 303f 873d df89 abbd 304a 27ba
00000090: 2058 863d 6359 26bd ab52 b6bd b9c9 8d3d
000000a0: 22b9 bfbd fe6f 78bb 7c41 e73d 4700 08bd
000000b0: 627b fdbb 1286 e43c 0de1 e1bd 1f79 e3bd
000000c0: e321 2dbd 9c4b b93c 4191 013e edda 223d
000000d0: df23 00be 832e b43d 9f2a 50bd 1dd1 4f3c
000000e0: b1db b33d 7584 8e3d 3002 673d 7a18 ec3c
000000f0: 1d25 d5bd 7779 e5bc daf3 da3d 0d82 f8bd
0.037355 0.05283238 0.01092732 0.10228064 -0.08937444 0.031386428 0.027905714 0.021017173
0.080740385 0.10481843 0.0862221 -0.020228274 0.109328605 0.05068754 0.042512 0.0030446781
-0.06662084 0.07241537 0.033807803 0.025205746 -0.03967275 0.11452747 0.08544105 0.11703703
-0.028102573 0.042426594 -0.04997364 0.09234471 0.106832065 0.037370328 0.10261952 -0.09401357
0.028105421 0.06603849 -0.08375906 -0.0006381599 0.06559777 -0.04061259 -0.089024864 0.06923241
-0.09361483 -0.003790855 0.11291787 -0.03320339 -0.0077356556 0.027895961 -0.11029253 -0.111070864
-0.042268645 0.022619061 0.12653066 0.039759565 -0.12513684 0.08797934 -0.050821897 0.012684134
0.08782137 0.06958858 0.05639857 0.028820265 -0.104074694 -0.02801202 0.10691042 -0.1213418

feature_extract.mlps.0.batch_norms.0.weight f4 [64]
00000000: 974c 7f3f 1ff9 7f3f 2900 803f 343d 7f3f
00000010: 848a 7d3f 8a64 803f a839 803f 8881 7f3f
00000020: 518d 7e3f 5dbb 803f a19c 803f 8632 7f3f
00000030: e73e 7f3f 2bcf 7f3f f0dd 803f b4e6 7f3f
00000040: 2c05 803f d6bb 7f3f af5c 7f3f c52e 803f
00000050: a095 7f3f 11a0 803f f36c 7f3f 64e5 7e3f
00000060: d071 7f3f 17de 7e3f bf56 803f c290 803f
00000070: 677d 803f 1a37 803f 1b86 803f e3b4 803f
00000080: 8bd2 7f3f 8f6a 7f3f 7a62 803f 3f33 803f
00000090: 5cbe 7e3f 467a 803f 0a9a 803f bce3 7e3f
000000a0: 120b 7f3f 2bc0 7f3f e01d 7f3f 447b 803f
000000b0: 5679 7f3f 6604 7f3f ca32 803f 6e61 803f
000000c0: 5451 7f3f bb7d 7f3f 947e 803f 0ed3 7f3f
000000d0: a861 7e3f 0069 803f f607 7f3f 3e57 7f3f
000000e0: aa30 803f 0f6f 803f 7102 803f 301d 7f3f
000000f0: 8e70 7f3f 2491 803f 94ec 7e3f d5ef 7e3f
0.9972624 0.99989504 1.0000049 0.99702764 0.99039483 1.0030682 1.0017595 0.99807024
0.9943438 1.0057179 1.0047799 0.9968647 0.99705356 0.9992549 1.006773 0.999614
1.0001578 0.9989599 0.997508 1.0014273 0.99837685 1.0048848 0.9977562 0.9956877
0.9978304 0.9955763 1.0026473 1.0044177 1.003827 1.0016816 1.0040926 1.0055202
0.9993064 0.9977197 1.0030053 1.0015639 0.99509215 1.0037315 1.0047009 0.99566245
0.99626267 0.999026 0.9965496 1.0037618 0.9979452 0.99616086 1.00155 1.0029733
0.9973347 0.99801224 1.0038629 0.9993142 0.9936776 1.0032043 0.9962152 0.99742496
1.0014851 1.0033892 1.0000745 0.9965391 0.9978112 1.0044293 0.9957974 0.99584705

feature_extract.mlps.0.batch_norms.0.bias f4 [64]
00000000: 216e d53a 035f 4d3b b5db 2b3b d05c 9abb
00000010: 67fa 76b9 f39d 6a3b 255a d03b e389 67ba
00000020: 8fab 0a3b f25b 773b 5703 863b 0d99 87bb
00000030: b130 45bb 6170 c13b 613e a73b 35c0 ef3a
00000040: 0f31 173b 400e e3bb 9980 c7b9 02a2 bab9
00000050: 7d76 aabb 000d 8e3b 4999 753b 0feb 65bb
00000060: 60fa 8b3b fd38 87bb 67f7 1cba c57a 0b3b
00000070: 61e1 1dba bdcc 553b 8fe0 a63a 39a8 a03b
00000080: 4c1b 503a fc01 9a3b 61ff 273b f5de 113a
00000090: e578 98bb c942 683b f526 843b 005c efbb
000000a0: 2274 87bb ea17 ae3b 67bc fbba 578f 883b
000000b0: c14b eaba 1f07 79bb c19a 74bb b39d 673b
000000c0: 3f7c 973a 470d 0f3b 48ed 5e3b 43b5 363a
000000d0: 7836 80bb 30a4 c3bb 8711 5cbb 0eb5 f9b9
000000e0: 7c81 12ba 9d51 d0ba 2b62 973b fe62 3dbb
000000f0: be52 07bb 586d 7d3b d15c 253a c281 8ebb
0.0016283431 0.003133715 0.0026223485 -0.004710771 -0.0002355367 0.0035799711 0.0063584023 -0.00088324974
0.0021159386 0.0037744013 0.0040897536 -0.004138118 -0.0030088837 0.005903289 0.0051038717 0.0018291535
0.0023070013 -0.006929189 -0.0003805205 -0.0003559739 -0.005202113 0.004335046 0.0037475398 -0.0035082733
0.0042717904 -0.0041266666 -0.00059877936 0.0021282893 -0.0006022659 0.0032623254 0.0012731719 0.004902866
0.0007938638 0.0046999436 0.0025634395 0.0005564534 -0.0046530836 0.0035440198 0.0040329644 -0.0073046684
-0.004133717 0.0053129094 -0.0019205929 0.004167478 -0.001787536 -0.003799863 -0.0037323686 0.0035341799
0.0011557414 0.0021827982 0.0034015942 0.0006969759 -0.003912743 -0.0059705004 -0.0033579783 -0.00047627877
-0.00055887527 -0.0015893463 0.004619857 -0.0028898115 -0.0020648683 0.003866991 0.0006308081 -0.0043489644

feature_extract.mlps.0.batch_norms.0.running_mean f4 [64]
00000000: caba 183f 9965 fc3e 116f 8ebf ad34 9fbe
00000010: 2ab6 9a3f a675 48c0 428e eebf 4bd3 39c0
00000020: 07e2 bfbd 6a70 11c0 2204 643f afc5 c5bf
00000030: 1961 eb3f c419 30bf c4e2 0440 3d68 6c3f
00000040: 347c 703e 629c bd3e e4ca 91bf afbb e93e
00000050: 53b4 e93e e07e 7bbf 7427 61bf 10b3 8dbe
00000060: b052 4c3f 7d5d 06c0 1a0b 3c3e f8ed f6be
00000070: b119 1fc0 64cf 03c0 aa5a 08bf 0e0e 1740
00000080: 2de1 38bf 1ec6 c73d a03e 2c40 0c49 aebf
00000090: 936a 833d fffe e9bf e41c 8ebf b93d 1140
000000a0: 6093 8e3f 7622 843e f90a 6c3f 61d3 26bf
000000b0: d498 b63f 931c 5f40 78d9 8cbf a48f 0dbd
000000c0: 162b 773e ff18 34bf 27d4 9d3f 2643 5ebe
000000d0: eee5 71be f016 b2bd b599 1340 9048 6abe
000000e0: 8426 45c0 2600 d53e 654d 0cc0 824c b43f
000000f0: b7bf 233f e34d 2f40 630a cfbe 1546 d2bf
0.5966002 0.49296263 -1.1127645 -0.31094876 1.2086842 -3.1321807 -1.8637164 -2.9035213
-0.09369283 -2.2724862 0.89068806 -1.5450953 1.8389007 -0.68789315 2.0763407 0.92346555
0.2348488 0.37033373 -1.1390042 0.45651004 0.4564539 -0.9824047 -0.87950826 -0.27675676
0.7981367 -2.099456 0.1836361 -0.4822843 -2.485943 -2.059533 -0.5326334 2.3602328
-0.7221859 0.09754585 2.6913223 -1.3616042 0.06416812 -1.8280944 -1.1102567 2.2693923
1.1138725 0.25807542 0.9220424 -0.6516629 1.426539 3.486119 -1.1003866 -0.034560814
0.2413753 -0.7035064 1.2330369 -0.21705303 -0.23622867 -0.08695781 2.3062565 -0.22879243
-3.0804758 0.41601676 -2.1922238 1.4085848 0.6396441 2.7391288 -0.40437612 -1.6427637

feature_extract.mlps.0.batch_norms.0.running_var f4 [64]
00000000: ec49 9d3e 7a2b 583f ea31 433d 898e 733f
00000010: 7ca9 6b3f 5fc9 e13f fed3 273f 81c0 8c3e
00000020: a6f3 fe3e 3677 033f ce03 0d3f f101 be3e
00000030: 7d6f 0a3e 7e03 113f bf53 aa3f 34b7 d73f
00000040: e3e1 793f 1cb7 063f 9af5 883f 521c 393c
00000050: 57ba c73a d44f cf3e 987c 203e 3623 e93a
00000060: 767d ae3e d52a b43f b4ce f83e ad9c 433f
00000070: 705d af3f 3835 723f f94e 8b3e 3e0e 2d3f
00000080: 35a7 a03c 113c df3e 2c3d 833f 9f9e d43e
00000090: 9350 bc3c 0dc0 6e3d b4d6 423f 3b47 353f
000000a0: 8f5f c33f 3021 423c 35a0 b43d 4e3b d13c
000000b0: eebf 003d 5964 0b3f bf1a c83e 0161 a03e
000000c0: fe6e 833f bd9e 863f 2337 1f3e 0764 3f3f
000000d0: 884e 4b3d 3204 5a3f feef f23d 8179 113f
000000e0: d077 643f e819 073f 1350 2a3f b763 d43f
000000f0: a81c 503e 386e 7d3e 5c09 ce3e 4a19 243f
0.3072046 0.8444134 0.047655024 0.95139366 0.9205549 1.7639579 0.6555785 0.2749062
0.49795264 0.51353776 0.5508393 0.37110856 0.13519092 0.56645954 1.3306807 1.6852784
0.976103 0.5262315 1.0699952 0.011298256 0.0015238029 0.40490592 0.15672529 0.0017786983
0.34080094 1.4075571 0.48595202 0.76410943 1.370039 0.94612455 0.2720869 0.67599857
0.01961098 0.43600515 1.0253043 0.41527268 0.02298764 0.058288623 0.7610886 0.70811814
1.5263537 0.011848733 0.088196196 0.025540974 0.03143304 0.54449993 0.39082906 0.31324008
1.0268247 1.0517193 0.15548377 0.74762005 0.04963544 0.8516265 0.11862181 0.56826025
0.8924532 0.52773905 0.66528434 1.659293 0.20323431 0.24749076 0.40241516 0.6410109

feature_extract.mlps.1.linears.0.weight f4 [64, 64]
00000000: 5498 e33d 5a46 893d bf88 cc3d 270d 043e
00000010: 9ef9 edbb c673 2ebd d5e3 68bd 396a 0b3c
00000020: 28dc 193d 3927 dabc 65e7 a53d f0c0 f9bd
00000030: 3b3b d1bd 09dd 1fbd 1c7b 5fbc cc1d 9abb
00000040: 7cde 0cbd a277 ffbc de37 a9bd 741f 013d
00000050: ba44 5d3d 395d 163d 70c8 f8bc beb5 26bd
00000060: 60db 963d 8885 e0bb 6d18 873b b615 89ba
00000070: 3457 60bd e49b 093d b547 ed3d 6a41 5f3d
00000080: c3a1 1abd 2b90 dc3c d49e 9abd 0f13 bb3d
00000090: 65ae 05bd 9f26 a63d 632d e5bd f397 dd3d
000000a0: 15ea d03d 537e 7b3d e3c8 b53d e19b 523d
000000b0: c7e1 9f3d bf71 b53d 7039 53bd 526c efbd
000000c0: 02a0 973d 0e37 eebd 80ce f13c fabe 95bd
000000d0: 1fc3 3b3d 7d2e acbb 202b c03d 7356 8a3d
000000e0: 5808 2d3b 2c84 85bd 6c4c 973d 57ce 05bd
000000f0: df07 9b3d 1085 873d a7bb 28bd bb73 3d3d
00000100: 06a9 42bc 08a1 c8bd a903 c3bd bcee c13d
00000110: cae3 07bd be4b f63d f547 bcbd eec4 f23d
00000120: ddb6 2cbd 9340 8f3d 559b f9bd b357 b93d
00000130: fdec 313d d39a 8cbd 11dc 6d3d ade3 86bd
00000140: 7094 bc3d 305c 9bbc 7076 77bc 6525 5b3d
00000150: c856 20bd c1fa 893d 4ec5 c7bc 1288 51bd
00000160: fd03 d2bd dc7d e33d bbc9 27bd 798a ca3d
00000170: 01a3 d13c fa7d 8bbd 4eaf cd3d 9c24 81bd
00000180: def2 2bbc 10bd 2d3d d755 d3bd a820 4ebc
00000190: c001 4abd 129a bfbb 19d0 26bd 39fc d8bd
000001a0: 3151 86bd aef4 0d3c fafb d5bc 3555 fabc
000001b0: d375 c23b 2d8f 573c 39a9 7dbd 1de1 42bd
000001c0: 1101 d43d ca4a 873d aa78 d63d 0d18 d43d
000001d0: c676 da3d e8ea ee3d 0517 6abd 3606 4a3d
000001e0: 4c20 51bd 83d6 a6bd 327d aebd 312b dfbd
000001f0: 7921 573d 8444 5a3d 48f9 553d 73a1 62bd
00000200: 1799 72bd 01c1 b93d 341f 8ebd 2085 a23d
00000210: 1a79 86bd 1411 cbbd d3a0 8abb 6934 e03d
00000220: f362 e53d f27d 00be 743c a93c 9f70 00be
00000230: 2065 acbd fed1 193d 3d2f e6bb 8feb f9bc
00000240: 5304 8bbd c455 dfbc fd22 7a3c 7e92 67bc
00000250: 02bd 65bd aefe 39bd 6286 e63d 3023 a03c
00000260: 5eb7 e4bc 3f56 aebd 2493 3fbd 07bf a8bc
00000270: 817f f03d e447 bcbd d716 83bd f31c 95bd
00000280: 50d3 85bc 26ba 8f3d 931e 2ebd c8fc 16bd
00000290: 4ad1 e9bd 3705 2a3d 5f6e 123c e577 4cbd
000002a0: 5238 f93d 8e58 c63d 46d6 be3b 8192 31bd
000002b0: ea4f 80bb b42b 893c 1a65 c2bc d173 fd3d
000002c0: c777 ab3d 878c 79bd 5388 a1bd 573f 413d
000002d0: e831 5db9 6337 b1bc 02f3 b5bd 568b 67bd
000002e0: e57b 003e 6530 c53d d3f4 0dbd 94fd 45bc
000002f0: ff95 563d ba89 1b3c 0dc0 0d3d 9e71 ad3d
00000300: b91e 933d 3efd 5cbd 03b2 c93d 9f01 473d
00000310: f5f2 71bd b46a b9bc 9174 3a3d b692 61bd
00000320: db90 abbd 0963 8ebd 1d3e ac3d a8b1 9bbd
00000330: 9219 efbd 7fe0 aa3d 4c66 c3bd 855c e83d
00000340: 6e32 fcbd 9c0a 813c a486 263c 0931 b53c
00000350: 51eb 243d 0107 eebd 97d3 423d 563b 10bc
00000360: 7e96 c7bc bcef df3d fd22 0ebd 344f 1dbd
00000370: fabc d5bd 9a7f eebd 527b c3bd ba16 d93c
00000380: 030a 173d 7416 f2bc 2a28 90bd 2963 23bb
00000390: 790e 06bd 6521 a73c f392 593d de2a 3cbd
000003a0: 1ea2 0abd 780a acbd 521a ef3d 43e3 3b3d
000003b0: cd7c f2bd 4463 793d 70a7 7d3d 39db 653d
000003c0: 785c a8bc 6a98 bcbd 0d6e dd3c 22bf 05bd
000003d0: d7f0 03bd 0e71 14bd e3e1 92bd b083 313d
000003e0: 2eb3 833d b3ac f33b c5e3 da3d 43cb 7cbd
000003f0: 40fc c4bd fd8c 01be 8387 e0bd 8508 ddbd
0.11113039 0.067028716 0.0998702 0.12895642 -0.0072624227 -0.04259088 -0.056857903 0.008509212
0.037563473 -0.026630031 0.08100776 -0.12195003 -0.102163754 -0.039029155 -0.013640191 -0.004703259
-0.034391865 -0.031184975 -0.08262609 0.031524137 0.05402062 0.036709998 -0.030369014 -0.040700667
0.07366061 -0.0068518557 0.004122785 -0.0010458741 -0.054770663 0.033595935 0.11585943 0.054505743
-0.037751924 0.026924213 -0.07549825 0.091344945 -0.03263702 0.08112835 -0.111902975 0.10819998
0.102008976 0.06139977 0.08876207 0.05141819 0.078067355 0.08859586 -0.05156845 -0.11690582
0.07403566 -0.116315946 0.029517412 -0.073118165 0.04584038 -0.0052545653 0.093832254 0.0675477
0.0026402678 -0.065193504 0.07387623 -0.032667484 0.07569861 0.066171765 -0.041194584 0.046252947
-0.011881119 -0.09796339 -0.095221825 0.09469363 -0.03317622 0.120261654 -0.09193412 0.118539676
-0.04216658 0.069947384 -0.1218783 0.090499304 0.0434389 -0.06865468 0.0580712 -0.065863945
0.09208 -0.018964857 -0.015103921 0.05350246 -0.03914526 0.06737281 -0.024386074 -0.051155157
-0.10254667 0.1110799 -0.04096387 0.09889693 0.025590422 -0.068111375 0.10043202 -0.06305811
-0.010494916 0.042416632 -0.10319107 -0.012581028 -0.049318075 -0.005847224 -0.0407258 -0.10594983
-0.06558455 0.008664293 -0.026121128 -0.030558208 0.005934456 0.013156694 -0.06192896 -0.047577966
0.10351766 0.06606062 0.104722336 0.1035615 0.106671855 0.116658986 -0.05715086 0.04932233
-0.05105619 -0.081463836 -0.08519973 -0.1089691 0.052522156 0.053287998 0.052239686 -0.05532975
-0.05922803 0.09070016 -0.06939545 0.07935548 -0.06566067 -0.09915367 -0.0042305975 0.109474964
0.11200514 -0.12548044 0.02065871 -0.12542962 -0.084177256 0.03755378 -0.007024674 -0.03050783
-0.06787934 -0.027262576 0.015267131 -0.014134048 -0.056088455 -0.045408897 0.112561 0.019548029
-0.027919468 -0.08512544 -0.046771184 -0.020598901 0.117430694 -0.091933995 -0.06400841 -0.07280912
-0.016336113 0.07017927 -0.042509627 -0.036862165 -0.11416872 0.04150888 0.008937447 -0.049919028
0.12168945 0.09684859 0.005823883 -0.043352608 -0.0039157765 0.016744472 -0.02372985 0.12375606
0.08372455 -0.060925033 -0.0788733 0.047179546 -0.00021094794 -0.021632856 -0.08884241 -0.056529365
0.12547262 0.09628371 -0.03465731 -0.0120843835 0.05238914 0.009493286 0.034606982 0.084689364
0.07183594 -0.053952448 0.09848406 0.04858553 -0.059069593 -0.022633888 0.045521323 -0.055071555
-0.08377238 -0.06952483 0.08410285 -0.076022446 -0.11674799 0.083436005 -0.09540996 0.11345772
-0.12314306 0.01575213 0.010163937 0.022118108 0.040263478 -0.1162243 0.04756507 -0.008803209
-0.024363752 0.109343976 -0.034701336 -0.038405612 -0.10436435 -0.11645432 -0.09545006 0.026500095
0.036874782 -0.029551722 -0.07038911 -0.002493093 -0.032728646 0.020401666 0.053118657 -0.04593932
-0.033846013 -0.08400434 0.11674942 0.04587103 -0.1184021 0.060885683 0.06192726 0.05611727
-0.020551905 -0.09208758 0.027030015 -0.03265298 -0.032212105 -0.03624063 -0.07171991 0.043338478
0.0643066 0.007436359 0.10687975 -0.061717283 -0.09618425 -0.12651439 -0.10963347 -0.107926406

feature_extract.mlps.1.linears.0.bias f4 [64]
00000000: 928a 98bd ddc0 423d cc79 5ebc c31e 0c3d
00000010: c193 4fbd 1e4f 9abd 9839 43bd 12d4 cd3d
00000020: a0cf b33d 9dd8 c03c 0d12 343c c7f5 abbc
00000030: 2c85 b73d cee7 41bd 2da3 1d3d bb9d 1abd
00000040: 517f f23d 92e9 403c 2be2 c53d 6dfa e33d
00000050: aba6 73bd aa46 bdbd e01c 643b e600 db3c
00000060: 9264 f63d 0d3f d83d 7dea a9bd 9fa7 a53d
00000070: a821 9e3c 06a5 91bd c05e aebd 3d4e ac3d
00000080: 9a8a 9f3d ab70 dcbd 89a9 9bbd 9b8c 843d
00000090: 28bb 603d 45a0 4b3d 085a 6abd 8a49 fd3b
000000a0: ad7d f93a 11f5 6abb 0130 0f3d 20ee 19bc
000000b0: 1f65 9e3d d299 fdbd 8823 c53d 50ea ea3d
000000c0: 98b3 783c 2a2e 8d3d 747d 72bd 2def dd3d
000000d0: b91b 2d3c 5c9e ecbd 5739 6e3d 2655 be3d
000000e0: e1ec 083d 74db 7d3d 30cc 0bbc 4405 5a3d
000000f0: 214e de3d 06df efbd 122a 96bd e775 e9bd
-0.07448305 0.04754721 -0.013578843 0.034209024 -0.05067802 -0.07534622 -0.047662348 0.10050215
0.08779836 0.02354079 0.010990632 -0.02099122 0.089609474 -0.047340207 0.038485695 -0.03774808
0.1184069 0.0117744375 0.09662279 0.11131749 -0.05948512 -0.09241994 0.003480725 0.026733827
0.12030901 0.10558901 -0.08296678 0.08088612 0.019303158 -0.07111554 -0.08514166 0.0841336
0.07790108 -0.10763677 -0.07600696 0.06472131 0.054865986 0.04971339 -0.057214767 0.007729714
0.0019034647 -0.0035851637 0.03495789 -0.009395152 0.07734131 -0.123828545 0.09625918 0.11470473
0.015179537 0.06893571 -0.059201673 0.10836635 0.010565692 -0.11553642 0.058160152 0.092935845
0.03342903 0.061976865 -0.008532569 0.053227678 0.10854746 -0.1171246 -0.07332243 -0.11399441

feature_extract.mlps.1.linears.1.weight f4 [64, 64]
00000000: 3a04 d5bc 01a3 b03d e863 833d 30e4 47bc
00000010: a040 cfbd 621a aebd 7421 ce3d 0597 c23d
00000020: ff20 3a3d 98e5 cdbb 1b3b d6bd d9c9 aebd
00000030: 34d2 b5bd 3bc2 a03d 053f 73bd ab80 a53d
00000040: 41f5 eb3d 32a5 b03d 470d c3bc 5c67 8c3b
00000050: d500 e43d 4698 d7bd ca1c 713d d985 db3d
00000060: 7d45 9cbc 5c4d 61bd f346 e5bd 126c 5cbd
00000070: f384 4e3d 1ec5 3fbd 20e5 893d ed89 e8bc
00000080: aaee 9f3d 963f aa3c cc5d ddbd b7c2 aabd
00000090: 9286 8cbd 0ed8 d13d fcca cdbd e7c6 4b3d
000000a0: d9aa cdbd ea92 1a3d 6537 a2bc 489a 88bd
000000b0: 065d d03d 42d4 f0bd 3987 ee3d 1e03 e03c
000000c0: 3074 033c 452a 94bd 2ca7 9bbb a35d 9d3d
000000d0: 3673 8d3d ac0f fc3d b719 bbbc c37d 313c
000000e0: f842 2ebd fd31 debd fa0a 233d e206 cdbd
000000f0: 04ca af3d c1f7 78bc 878a 54bc 023e 573d
00000100: e599 753c 0bc7 a83d f344 c13d a815 a7bd
00000110: 7710 e3bd 1ae2 e8bd 1db5 ef3d af53 f63d
00000120: 5ef3 f6bb 3387 283d 183d 533d 2e8a f5bd
00000130: 999b 373d dd5a 16bd ab55 c6bd 7b2f f339
00000140: d1c6 9d3d ba1c dbbd 9dc0 e33c e263 b0bd
00000150: 2be0 67bd c1da f4bc cb0c 8b3d 0cb5 e6bd
00000160: 5bc5 31bd 0d7e 843d 04ec d43c 704b e43c
00000170: b276 c43d d2ee fbbc 3529 3f3d b61d 80bd
00000180: de09 5bbc 70ea 923b b4a3 86bc 90e7 d5bd
00000190: a58e 863d cf90 633d 912d 493d cd5c 673d
000001a0: 821e 17bd 4fc4 653c 3683 79bd 2076 7f3d
000001b0: 9288 f3bc 20bf df3d ba63 8dbd 73d7 023e
000001c0: 6b31 f33d b830 63bd eecc 833d 06ea a63d
000001d0: 85a5 f9bd 182e ba3d dd4f 3a3d bc64 d9bd
000001e0: be6a 1ebd 6e68 ddbd 061d 48bd f6cb bcbd
000001f0: b7df acbd c9a6 73bd 0bfb fabc 36d4 04bd
00000200: 9a7c 0dbc 1bef 8e3d 4c4c 993d 6f67 0bbd
00000210: daef a2bd 077b 023e 7676 ec3d d8cd acbc
00000220: b0ed 7c3c f9c0 933d 2ce1 413d 150a 423d
00000230: 5b58 d43d fab4 bd3c 5684 e8bc 91d7 d1bd
00000240: f777 953d 7b86 1fbd a36f 92bd fb6f 843d
00000250: 6596 d1bd c0ee c33d 5f78 f3bb 13e1 fe3d
00000260: c30c 7bbd 6b93 d43d b53f 48bc 519e f6bd
00000270: 8744 253c 9a7f 67bb 7c50 443d 11c9 9a3c
00000280: 1313 093c 29f8 03be a1a8 acbd faa2 8abd
00000290: 3caf 43bd 93a5 64bd bc18 29bd fc48 663d
000002a0: a624 3f3d ab22 f5bb 174d 08be ea54 e33d
000002b0: 1786 873d e3dc fdbd 8219 b83d a152 c33d
000002c0: 40f6 ca3d 7375 9e3a 3e16 c9bd e297 11bc
000002d0: 2636 b1bd 03aa d23d d801 af3d 3193 b53c
000002e0: f9b3 903c 7b24 4dbd ba90 6abd 3c99 793d
000002f0: a821 b93d 894b ee3c 8af0 70bc 4200 0f3a
00000300: fc7c 51bc d399 4abc eea3 3cbc a920 b93c
00000310: a79d 9e3c ab16 e13d 40df b5bd 8125 4bbd
00000320: 96a8 fc3c d16b dd3d ff5e e43d d6cc 893d
00000330: 5688 1b39 38fa 993d 5742 b2bd 8cc6 b43c
00000340: 3135 32bd 3bb6 9e3d a91e 82bd e8d1 f13d
00000350: 7fa9 803c abf0 f2bd e6a2 c33d 6fe1 a5ba
00000360: 02f3 05be d854 ef3d 3a21 86bd b9af f5bb
00000370: c96c f93d 9aaf 2cbd 3abb cbbd 50d7 023e
00000380: f382 c7bd ed24 f53d e669 e43d 51b8 a13d
00000390: 6eab 873d 4d82 a73c 3553 f7bd 5692 c1bd
000003a0: e584 af3d 7db3 e13d 631f 8f3d d13e d4bd
000003b0: d566 8f3d bdb9 a0bb 0333 8cbc 0ee2 e3bd
000003c0: b9d7 b3bd a5b8 f6bd 260f bf3c bd0c ff3d
000003d0: 1a87 89bd d219 4cbd 0806 c9bd a608 e6bd
000003e0: 36ef e13d b4d3 8f3d 149b a8bb fb58 063d
000003f0: 7588 ae3d 8bbe 92bc 488d afbd 3ad3 da3c
-0.026002992 0.086248405 0.0641554 -0.0122004 -0.10119748 -0.08501126 0.100649744 0.09501461
0.045441624 -0.006283473 -0.10460492 -0.08534593 -0.08877984 0.078495465 -0.059386272 0.08081182
0.11521388 0.086252585 -0.023810042 0.0042847823 0.11132971 -0.10527091 0.058865346 0.10718889
-0.019076103 -0.055005416 -0.11195173 -0.053814 0.05041976 -0.046818845 0.06733155 -0.02838608
0.078091934 0.020782273 -0.10808906 -0.0833792 -0.06861605 0.10246287 -0.10048482 0.049750235
-0.10042352 0.037737764 -0.019801805 -0.06670052 0.10173993 -0.11759235 0.116468854 0.027345236
0.008023307 -0.07234625 -0.004750153 0.076838754 0.0690674 0.12307677 -0.02283941 0.010833207
-0.042544335 -0.10849378 0.03980539 -0.100110784 0.08583453 -0.015195788 -0.012972481 0.05254937
0.014990305 0.082410894 0.09436979 -0.081584275 -0.11087125 -0.113712505 0.117044665 0.1202768
-0.007536336 0.04114456 0.051571935 -0.11989246 0.044826124 -0.036707748 -0.096843086 0.00046383947
0.07703937 -0.106988385 0.027801806 -0.08612801 -0.056610268 -0.029889466 0.067895494 -0.11265001
-0.043401103 0.06469355 0.025991447 0.027868003 0.09592952 -0.030753527 0.046670157 -0.06255667
-0.013369052 0.0044835135 -0.016435482 -0.10444558 0.06570176 0.055558022 0.04911572 0.056484986
-0.03689433 0.014023854 -0.060916148 0.062368512 -0.029728208 0.10925126 -0.06903787 0.127775
0.1187466 -0.055466384 0.064355716 0.08150105 -0.121897735 0.09090823 0.04548632 -0.10614917
-0.038676016 -0.10810934 -0.048855804 -0.0921859 -0.08441108 -0.05948523 -0.030637285 -0.032428943
-0.008635664 0.069791995 0.074852556 -0.03403419 -0.07955904 0.12742244 0.11546032 -0.021094248
0.0154375285 0.07214541 0.04733388 0.047372896 0.10368415 0.023157585 -0.028383415 -0.10246194
0.07298272 -0.03894661 -0.07150199 0.06466671 -0.102337636 0.09567022 -0.007430121 0.12445273
-0.061291467 0.1037968 -0.01222222 -0.12041915 0.010087139 -0.003532386 0.04792832 0.018894704
0.008366364 -0.12887634 -0.08430601 -0.067693666 -0.04777454 -0.055821966 -0.041283354 0.056221947
0.04666581 -0.0074809394 -0.13310657 0.111001804 0.066173725 -0.123956464 0.0898924 0.095372446
0.0991025 0.0012089446 -0.098186955 -0.008886309 -0.08652906 0.102863334 0.085452735 0.022164913
0.017663943 -0.05008362 -0.05726693 0.06093715 0.090396225 0.029088752 -0.0147057865 0.00054550555
-0.012786146 -0.012365776 -0.011513693 0.022598581 0.019362284 0.10990652 -0.08880472 -0.049596313
0.030842107 0.1081158 0.111509316 0.067285225 0.00014832741 0.075184286 -0.087040596 0.02206733
-0.04350776 0.077496015 -0.06353504 0.118076146 0.015705822 -0.1186231 0.09552555 -0.0012655685
-0.13080981 0.116861045 -0.06549306 -0.0074977544 0.12178952 -0.042159654 -0.0994782 0.12777448
-0.097417735 0.11969934 0.11153011 0.07896484 0.066244945 0.020447874 -0.12076417 -0.094517395
0.085702695 0.11020563 0.069884084 -0.10363544 0.070020355 -0.004904954 -0.017114168 -0.11127101
-0.0878138 -0.12046937 0.023322653 0.124536015 -0.06715222 -0.04982931 -0.098156035 -0.11232118
0.11031954 0.07022801 -0.00514544 0.032799702 0.08522121 -0.017913124 -0.08571869 0.026712049

feature_extract.mlps.1.linears.1.bias f4 [64]
00000000: 0d3a a53d 5f28 1dbd 60b5 babd e89c 3b3d
00000010: 3843 fb3c fe88 393d 45de b9bc 7b40 8fbd
00000020: ba9a b53c a4fc ab3d f974 053e 7b5b acbd
00000030: 2b39 03bd 141e c63d dfe0 afbd 0d11 cc3d
00000040: c55b 183d 1d2e 923d 1302 26bd 6cd8 d33d
00000050: 6dff f8bd 2f1c ab3d e0dc e03b 17f3 0e3d
00000060: 3530 893d 11d7 00be 0ca5 c43b f3db e93b
00000070: ced7 0f3d 1801 80bc a0fb bf3c eecd 01bc
00000080: e908 e0bd 6c41 68bd 644a b13d 3dca d1bd
00000090: c28d 39bd a75d d0bd 084d b1bb 57f5 5d3d
000000a0: 4976 48bc 0bbc 823d b6fd 9bbd 8253 a5bd
000000b0: e437 dabd ae93 823d db1d b73c 3ade b9bd
000000c0: f934 f0bd 94ff 2cbd 6a9d 42bb abf4 ad3d
000000d0: 5db1 acbd 6db0 af3d 7c2e 473d 7ae4 efbd
000000e0: 31bc 3f3d c92f 9e3d 4c3c 93bd dda4 ad3d
000000f0: 3f6d ea3d bdb7 b9bd 827f ae3d 4a27 a13d
0.08067713 -0.03836858 -0.09116626 0.045803934 0.0306717 0.04529666 -0.022688994 -0.069947205
0.022168506 0.08397797 0.13032903 -0.08415886 -0.03203694 0.09673706 -0.08587813 0.0996419
0.037196893 0.07137702 -0.040529322 0.103440136 -0.121580936 0.08354985 0.006862268 0.034899797
0.06698648 -0.12582041 0.0060011204 0.0071368157 0.035117917 -0.015625522 0.023435414 -0.007922633
-0.109391995 -0.056703016 0.08656767 -0.10243652 -0.045301206 -0.10174113 -0.005410794 0.054189052
-0.012235233 0.063835226 -0.07616751 -0.080725685 -0.106551915 0.06375824 0.022353103 -0.090755895
-0.11728854 -0.042235926 -0.0029695877 0.08493932 -0.08432267 0.085785724 0.048628315 -0.117135
0.046810333 0.07723958 -0.07189235 0.08478711 0.11446618 -0.090682484 0.08520414 0.07868822

feature_extract.mlps.1.batch_norms.0.weight f4 [64]
00000000: 73c4 7d3f 0553 7f3f 3409 813f dc46 7f3f
00000010: 2e7f 7f3f b564 803f 55eb 803f bdfc 7e3f
00000020: 8d93 7f3f 6bce 803f 9cad 7f3f 25e6 803f
00000030: 3aa5 7e3f 82bf 7e3f cdbd 7d3f c9ca 7e3f
00000040: 3f2c 7f3f 2409 7e3f 5397 7e3f 6dc5 803f
00000050: 14f8 813f 5693 7f3f 6942 7e3f 2e61 803f
00000060: c2ba 803f 653b 813f 502d 803f 8ffa 803f
00000070: a1d3 803f 2fe3 803f 4a3b 7e3f b4e8 803f
00000080: 629f 803f 98d0 7e3f 437d 803f 5c4e 803f
00000090: 2117 7e3f bc66 7f3f 281b 7e3f 78a9 7d3f
000000a0: f03c 803f 4d8d 7e3f 9428 7f3f fe3c 7d3f
000000b0: 7f2c 7f3f 7d82 813f 6801 813f f02d 813f
000000c0: b86d 7f3f 1f6c 7e3f a1f7 803f bd90 803f
000000d0: 1c1f 803f ce4c 813f 5546 7e3f 117c 7e3f
000000e0: c077 7d3f be09 7f3f 8fa8 7e3f cc9e 7e3f
000000f0: fec0 7f3f 6b5d 803f 75dc 803f df33 803f
0.9912788 0.9973605 1.0080934 0.997175 0.99803436 1.0030733 1.0071818 0.996044
0.9983452 1.0062994 0.9987428 1.0070235 0.99470866 0.9951097 0.9911774 0.99528176
0.9967689 0.992327 0.9944965 1.006025 1.0153832 0.9983419 0.99320084 1.0029657
1.0056994 1.0096251 1.0013828 1.0076464 1.0064584 1.0069331 0.9930922 1.0071015
1.004864 0.9953704 1.0038227 1.0023913 0.9925404 0.99766135 0.9926019 0.99086714
1.0018597 0.9943436 0.9967129 0.9892119 0.9967727 1.0117947 1.0078554 1.0092144
0.9977679 0.9938373 1.007557 1.0044171 1.0009494 1.0101564 0.9932607 0.9940806
0.9901085 0.9962424 0.9947595 0.99461055 0.9990386 1.0028509 1.0067278 1.001583

feature_extract.mlps.1.batch_norms.0.bias f4 [64]
00000000: 1a97 0bbc 1d26 26bb 6507 ed3b ab85 74bb
00000010: 189e 9ebb 6961 8d3b ef91 3e3a a01a 9dbb
00000020: 0093 373c bd74 a93b 9002 5639 95cb dd3b
00000030: 1983 34bb 4316 8cbb ac09 9cbb 5275 413b
00000040: d213 acbb b53a abbb a642 04bc e441 ee3b
00000050: bd49 b33b 3e39 d8ba 75c9 edbb fb76 573b
00000060: a865 a93b b9f5 0c3b 6f0f eb3a 079c be3a
00000070: d03a cc3b be3e bd3b 0388 babb bf6e 0a3c
00000080: 2df3 8f3b ce49 7dbb 471b 3b3a 4c0f 023b
00000090: c636 a3bb 5dc7 0b3b 0172 acbb a1f1 f8bb
000000a0: b8ee a63b 9350 b2bb d355 1abb e264 bfbb
000000b0: 8967 92bb cdc8 0d3c fa56 c03b a483 193c
000000c0: 54b5 d13b 1d4b a5bb f880 ea3b 8274 b43b
000000d0: cd44 103b c582 313c dbf5 13bb 2576 64bb
000000e0: 32e5 ac3b f7d4 69bb b51f d1bb 92c4 a0bb
000000f0: 4469 dd3b 08a2 6d3b 273d 8e3b 980a 193b
-0.008519912 -0.0025352307 0.0072335475 -0.0037311118 -0.0048406236 0.0043145907 0.00072696706 -0.0047944337
0.011204481 0.005171387 0.00020409585 0.0067686536 -0.002754396 -0.0042751147 -0.004761895 0.0029519391
-0.005251386 -0.0052255043 -0.008072531 0.0072710384 0.005471437 -0.0016496552 -0.0072566816 0.0032877314
0.005169589 0.0021508767 0.0017933677 0.0014542349 0.006232597 0.0057753017 -0.0056924834 0.0084492555
0.0043930025 -0.0038648727 0.00071375485 0.0019845543 -0.0049808947 0.0021328547 -0.0052626138 -0.007597164
0.0050943755 -0.005441734 -0.002354969 -0.0058408836 -0.0044679088 0.008653832 0.0058697434 0.0093697645
0.00639979 -0.0050443546 0.0071564876 0.005507053 0.0022013665 0.010834401 -0.0022576961 -0.0034860459
0.0052763456 -0.0035679915 -0.0063819536 -0.0049062455 0.0067569334 0.0036259908 0.004340786 0.0023352262

feature_extract.mlps.1.batch_norms.0.running_mean f4 [64]
00000000: cb75 813f 3e74 29bd 2b58 7dbe db13 75bf
00000010: d42b 1fbe 57f3 af3d f41c 033b 3218 d9be
00000020: b9ab 6f3f fbe7 91bd 7a5e 23bf 4c39 03bf
00000030: 5553 933e 95dc 04bd 1f5d 593f 7444 943f
00000040: a7d3 133f 6b3f 98be 185e 1b3f d6d5 b2be
00000050: 064f 9d3e d4bd bcbd cf38 37bf b0dc 90bf
00000060: c323 b3bb 1bce 84be acc4 d6be 4115 163f
00000070: cd48 57bf c069 b33c 237b bebe d40c 4bbe
00000080: 727a 6fbf d348 08bf 0096 6cbe f8dd ce3e
00000090: f92d 48bb efc3 5fbf 027c 583f 974b 29be
000000a0: 885e 123f 7ca1 883f b20f 06be 6ea9 9e3e
000000b0: 7f26 1fbf 6ebe 16bd 8b64 15bf aea2 8a3e
000000c0: b04b 273e 0f23 193f b3ea 50bf 760d a83d
000000d0: b322 3b3f 8be9 45be 0ece d83d a2e9 ed3e
000000e0: 2065 383f 2a2c a83c aed2 6e3f f325 abbf
000000f0: f800 263f 9cd3 35be c398 1e3f 8823 423e
1.0114073 -0.041370623 -0.24740665 -0.9573342 -0.15544063 0.08591335 0.002000627 -0.42401272
0.936214 -0.07124325 -0.63816035 -0.51259303 0.28774515 -0.032436926 0.84907717 1.158339
0.5774483 -0.29735884 0.6069045 -0.3492877 0.30724353 -0.09215894 -0.7157106 -1.1317348
-0.0054669096 -0.25938496 -0.41946924 0.5862618 -0.8409546 0.021901011 -0.3720332 -0.19829112
-0.9354621 -0.5323612 -0.23104095 0.40403724 -0.003054498 -0.87408346 0.8456422 -0.16532741
0.57175493 1.0674281 -0.13091925 0.3098864 -0.62168115 -0.0368027 -0.5835654 0.2707724
0.16337466 0.5981912 -0.8160812 0.082056925 0.7309982 -0.19327371 0.10586177 0.4646731
0.72029305 0.020528872 0.9329022 -1.3370956 0.6484523 -0.17756504 0.61951846 0.18958867

feature_extract.mlps.1.batch_norms.0.running_var f4 [64]
00000000: 12c5 a53e 047a 123f 18d0 d33e 2bf7 f83e
00000010: c1b2 753f 3b09 9a3c 9afd 463e ba2a 1d3f
00000020: 9ec6 183f 5eab de3e a126 e43e cc36 aa3e
00000030: 76dd d53e f4de c03f 8190 183f 2195 783f
00000040: deac 0a3f 98bc 393f cbf9 003f e832 043f
00000050: d5ac b03f 83f5 bf3e e0af 7b3f 7331 a53f
00000060: a717 423f d0cb 893f e064 3e3f 369b d43e
00000070: 0d4a fb3e d7e1 813f f76a 8c3e 945e 4b3e
00000080: 276a b73e eb86 1a3f d8d6 853e 96ee 303f
00000090: 201b 8a3e e8b5 263f 83f3 3e3f c85d 183f
000000a0: c995 dc3e aec7 113f 061c 3b3f 11c0 9b3e
000000b0: c95f 233f 0355 b43f 8b8e c33e 3e72 373e
000000c0: 4506 c63f 3cea 0b3f 3b40 353f 1d5d aa3e
000000d0: 9547 bf3e 32c7 b13e 3fe5 3a3e 837f 173e
000000e0: 3f6d 1b3f d45f 773e 9f5a 5a3f 51b4 873f
000000f0: 4ec7 383f 3ce8 173f b042 963f 7f09 1a3f
0.32376915 0.5721743 0.413697 0.48626074 0.9597588 0.01880323 0.19432679 0.6139332
0.59678066 0.43490118 0.44560722 0.33244932 0.41770524 1.506804 0.59595495 0.9710255
0.54170024 0.72553396 0.50381154 0.51640177 1.3802744 0.37491998 0.9831524 1.2905716
0.7581734 1.0765324 0.74372673 0.41524667 0.49079934 1.0147046 0.27425358 0.19860297
0.35823175 0.6036212 0.26140475 0.69114053 0.2697382 0.65121317 0.7459032 0.595181
0.43083027 0.5694531 0.73089635 0.30419973 0.6381803 1.4088444 0.3819469 0.17914674
1.5470663 0.5465429 0.7080113 0.33274165 0.373593 0.34722286 0.18251513 0.14794736
0.6071357 0.2415765 0.85294527 1.0601903 0.72179115 0.59338737 1.1739101 0.6017074

feature_extract.batch_norms.0.weight f4 [64]
00000000: d850 7e3f 1ac1 7f3f 5e1f 803f 5699 7f3f
00000010: cb70 803f 1d62 7f3f d463 7f3f ba38 803f
00000020: db87 7f3f 76eb 7e3f 2344 7f3f 3b4e 803f
00000030: e67a 803f 4690 7e3f 1cb2 803f 12eb 7f3f
00000040: 7fcc 7e3f 9d77 803f 9187 7f3f 7f02 803f
00000050: 3d56 803f 66a2 803f 2238 7f3f 4939 803f
00000060: b25c 803f 8108 7e3f 64a4 803f b479 7f3f
00000070: 6d8c 803f 722e 7e3f 7633 7f3f 04f7 7e3f
00000080: 5d66 803f 8917 803f c966 803f 0a5f 7f3f
00000090: 2340 7d3f 70a2 803f efb6 7e3f 3a17 803f
000000a0: 16b4 803f c096 7e3f 985a 803f abf4 7e3f
000000b0: 49c6 7f3f 270b 803f bca8 7f3f 4496 803f
000000c0: 85ba 803f 4758 7e3f 9598 803f 79dd 7f3f
000000d0: da1e 803f ab3e 7e3f 971c 803f 4b9b 7f3f
000000e0: fc24 803f e920 803f e3c3 803f 8d15 803f
000000f0: 7969 803f f14b 7f3f 2d7c 7e3f 774b 803f
0.9934211 0.99904025 1.0009573 0.9984335 1.0034422 0.99759084 0.997617 1.0017312
0.99816674 0.99578035 0.99713343 1.0023874 1.0037506 0.99438894 1.0054355 0.99968064
0.99530786 1.0036503 0.9981623 1.0000762 1.0026318 1.004956 0.99695027 1.0017482
1.0028288 0.99231726 1.0050168 0.9979508 1.0042855 0.9928962 0.996879 0.99595666
1.0031239 1.0007182 1.0031368 0.99754393 0.9892599 1.0049572 0.99497885 1.0007088
1.0054958 0.99448776 1.0027647 0.99592084 0.99911934 1.0003403 0.99866843 1.0045857
1.0056921 0.9935345 1.0046564 0.99947315 1.0009415 0.99314374 1.0008725 0.99846333
1.0011287 1.0010043 1.005978 1.0006577 1.0032188 0.9972525 0.9940823 1.002303

feature_extract.batch_norms.0.bias f4 [64]
00000000: 9114 c4ba 3bb7 3dba b9d1 383b 38e8 acba
00000010: 9a6b 693b c256 25bb 560d c1bb 1288 ad3b
00000020: e2bd babb 312c 59bb 27da 4e3a 9ac7 1a3b
00000030: 5f7f 303b 5265 b9bb ebec 893b 4ca0 7d3b
00000040: ad61 84bb d1e6 2c3b 4799 093c 8b6d 2e3b
00000050: e9ef 643b 2ab1 803b 1b67 fcba 06ff 9f3a
00000060: e16e f13b 3ca3 2bbc 7d1a b13a 144e b9ba
00000070: 6678 9d3b d8ef d0bb 20df aabb 89c8 853b
00000080: 910b 8e3b c54d 25ba e968 913b 5398 90bb
00000090: 1bb7 873a 8881 753b 972a 82bb 0c99 22bb
000000a0: eb34 7a3b bf85 97bb 2833 4b3b 51d4 5ebb
000000b0: 3d6c 1db9 91ba a5ba 5e27 9aba ca6c 843b
000000c0: 0fb4 b33b 24b9 4cbb 1ab5 e83a 5709 b439
000000d0: 7a8f 933a 81cd c2bb 49c9 f33a 1c56 67ba
000000e0: 85b4 8339 b547 0a3a 7328 d23b 94de 793b
000000f0: d86c 463b 20e3 a0bb 22f0 f9bb ccd9 4d3b
-0.0014959743 -0.00072370813 0.0028201176 -0.0013191765 0.0035617114 -0.0025228714 -0.0058914823 0.005295762
-0.0056989053 -0.0033137912 0.00078907836 0.0023617507 0.0026931388 -0.0056578303 0.004209151 0.003870028
-0.004039964 0.0026382694 0.008398361 0.0026615586 0.0034933037 0.0039273696 -0.0019256802 0.001220674
0.007367954 -0.01047593 0.0013511922 -0.0014137649 0.0048056124 -0.006376248 -0.005214587 0.0040827435
0.004334875 -0.0006305839 0.004437555 -0.0044126897 0.0010354252 0.003746124 -0.0039723623 -0.0024810461
0.0038178514 -0.004624098 0.0031005833 -0.0034001062 -0.00015013009 -0.0012644102 -0.0011761 0.004041289
0.005484111 -0.0031238282 0.0017754168 0.00034339234 0.0011257969 -0.005944908 0.0018599416 -0.0008824782
0.00025120765 0.00052749674 0.0064135133 0.0038127052 0.0030277278 -0.004909888 -0.007627503 0.0031410335

feature_extract.batch_norms.0.running_mean f4 [64]
00000000: 9b34 793d 4ba0 aa3c 42fa eabd a3c2 e63d
00000010: f7b5 08be 2b1f ae3b 94b2 0fbc 05b0 1cbe
00000020: 1739 f9bd d31c 3c3e fd35 1bbd 73cf 18be
00000030: c75d e73d 85d5 01bd 7ca0 103e ae35 b6bd
00000040: d606 a5bd 3386 d2bd cdb8 3fbe c7dd aa3e
00000050: 1b41 b6bd 217e e93e ea88 af3e b410 803e
00000060: 50d4 923d e11f 2e3f 70b2 0dbe 6c62 293e
00000070: b272 1ebc 3f02 c8be 4afc b93e 6f5b 8d3c
00000080: 170d 69be df44 7abe 09f9 e2bb 1178 f23c
00000090: 76ca 1ebd 5c11 b7be e1bc c73e 6163 473e
000000a0: c17c 53bb 4876 5ebe 0033 d8bd 0f33 303b
000000b0: d009 f73d 387d 3b3e ba8c 003e d714 7fbe
000000c0: 495e b53d b03c 3a3e e661 ea3e 2f60 14bc
000000d0: c6c5 c93a 35bd 503e 89ff 253e 381c 8a3e
000000e0: 5f27 b53c 4d11 16be d7d3 e63e ea01 6d3e
000000f0: 6c57 fabe 5736 19bd 50f7 34be bc8f 0b3e
0.060841184 0.020828387 -0.11473514 0.11267593 -0.13350664 0.005313774 -0.008770604 -0.15301521
-0.12169092 0.1837037 -0.037893284 -0.14922886 0.112971835 -0.03169777 0.1412372 -0.08896957
-0.080579445 -0.10279503 -0.1872284 0.33372328 -0.08899137 0.4560404 0.34284145 0.25012743
0.07169402 0.68017393 -0.138376 0.16541451 -0.0096709 -0.39064214 0.36325294 0.017255513
-0.227589 -0.24440335 -0.00692666 0.029598268 -0.0387673 -0.35755432 0.3901129 0.19471504
-0.0032270404 -0.21724808 -0.105566025 0.0026885902 0.120624185 0.18309486 0.12553683 -0.24910294
0.08855874 0.18187213 0.45777816 -0.009056135 0.0015394024 0.20384677 0.1621076 0.26974654
0.0221135 -0.14655037 0.45083496 0.23145261 -0.48894823 -0.03740534 -0.17672467 0.13629049

feature_extract.batch_norms.0.running_var f4 [64]
00000000: d70c 0d3d 56b5 153c 33cb ed3d 5226 c23d
00000010: bbbb e13c 74a8 823c 5448 d63c 40ca 8e3e
00000020: c287 563e 4e91 bc3c 7a8f 853e 2ce6 073d
00000030: ef9f a53e fbfe 9c3d 18e1 893c 5153 913c
00000040: be45 e83b 99c7 163e 7365 1f3e 61e1 943e
00000050: 50d4 e53a 7cbf 463e f442 103d c420 8e3c
00000060: 128e 493c 9d53 0b3e 2def ae3d efa2 8f3d
00000070: 248f 303d 21b2 823d fc87 983d 032c aa3d
00000080: 2ce1 613d 4e39 943e ba03 b13c 96c6 d53d
00000090: 4592 443c 4560 033d 4ec3 de3d 70c2 df3d
000000a0: fdbc 633d 530d 3b3d a4eb 833c 4fbc 433d
000000b0: 34d7 123c 622c e23c 16a9 f13d 5a8d f03c
000000c0: 585d b63e eb7f 4f3d 19b7 303e 4e1b 403d
000000d0: e74f 903d 0675 923d 6831 2e3d bbaa 663e
000000e0: 3cf3 443c 7c20 473e 1052 aa3d 3fad 253e
000000f0: bbc6 0e3d a2cb 383e f201 0c3f 05f6 893e
0.034436073 0.009137472 0.11611023 0.09479965 0.027555337 0.015949465 0.026157536 0.2788868
0.20950225 0.023018505 0.26086026 0.033178493 0.32348582 0.07665821 0.016830966 0.017739924
0.007088392 0.14724578 0.15566044 0.290782 0.0017534588 0.19408983 0.0352201 0.017349608
0.012301939 0.13606115 0.08541713 0.07013499 0.04310526 0.06381632 0.07447812 0.08309176
0.05514638 0.2894997 0.021608222 0.10438268 0.011997764 0.03207423 0.10877095 0.10925758
0.055600155 0.045667004 0.016103573 0.047787007 0.008962441 0.027609054 0.11799829 0.029364277
0.3561809 0.0506591 0.17257346 0.04690104 0.0704649 0.07151227 0.042527586 0.22526066
0.012020882 0.19445986 0.083164334 0.1617937 0.034857493 0.1804643 0.5469047 0.2694551

feature_extract.batch_norms.1.weight f4 [64]
00000000: 6dae 813f 2d86 813f 579c 813f 079b 803f
00000010: f53a 823f a74a 813f 4b73 813f b48c 813f
00000020: 054e 813f 982d 813f 722e 813f 5ff0 803f
00000030: 5485 813f bd3c 813f 0c0a 813f 02c7 803f
00000040: 35aa 7d3f dc34 813f 54ed 7c3f 4fa2 803f
00000050: 2bee 803f 13d0 7f3f 09fb 7e3f 1af2 803f
00000060: 1b79 813f 66e2 813f c269 803f f6e1 813f
00000070: 0b37 7e3f bfdf 803f b573 813f 594e 813f
00000080: e409 7f3f d633 813f 4970 7e3f 5498 803f
00000090: 9f4f 803f 9834 813f d97e 813f d689 813f
000000a0: 2d3d 813f 4903 7f3f 5559 813f 9fb5 813f
000000b0: 6ef3 7f3f 415f 813f ab58 813f 9024 813f
000000c0: 8b1b 803f 6edf 803f 52b6 803f b36b 813f
000000d0: 5392 813f ed00 813f 1c0b 803f 373c 813f
000000e0: 4735 813f 57c1 813f aebd 813f 01fd 803f
000000f0: ae60 813f 8267 823f 9fb5 7d3f 25d4 7e3f
1.0131356 1.0119072 1.0125836 1.004731 1.0174242 1.0100907 1.011331 1.0121064
1.0101935 1.0092039 1.0092299 1.0073355 1.0118814 1.0096661 1.0081191 1.0060732
0.9908784 1.0094256 0.98799634 1.0049533 1.0072683 0.9992687 0.996018 1.0073884
1.0115083 1.0147216 1.0032275 1.0147083 0.9930274 1.0068282 1.0113436 1.0102035
0.99624467 1.0093944 0.99390084 1.0046487 1.0024298 1.0094175 1.0116836 1.0120189
1.0096794 0.9961439 1.0105387 1.0133551 0.9998082 1.0107194 1.0105184 1.0089283
1.0008405 1.0068185 1.005564 1.0110992 1.012278 1.0078408 1.000339 1.0096501
1.0094384 1.0137128 1.0136011 1.0077211 1.0107629 1.0187838 0.99105257 0.99542457

feature_extract.batch_norms.1.bias f4 [64]
00000000: 7432 543c f6e6 0e3c 6abc 373c 1206 cf3b
00000010: c396 023c 2f9a 403c 0945 1f3c 357c 423c
00000020: be6a 243c 3d2c 1e3c d2fd 193c d602 ef3b
00000030: 28a4 a93b 7b0b ce3b 9a2f 063c c951 ce3b
00000040: 681d 27bc c351 033c 9fe2 69bc 6290 91bb
00000050: 34b1 ee3b bac0 84b9 7ec0 88bb 8c15 e23b
00000060: 171a 3d3c c615 513c 47f2 b03a f509 673c
00000070: 3529 dcbb 846d d23b 34c6 253c 4671 253c
00000080: 037d c1bb 6328 133c 4219 c6bb 9720 babb
00000090: f909 d439 797d 1a3c b6b4 9eb9 5dd8 4b3c
000000a0: 56e2 1c3c 7451 82bb b63a 123c c69e 7c3c
000000b0: 7336 fb3a b6a6 2e3c 1f02 293c cea7 213c
000000c0: b04f 40bb ff1b f03b 89c7 8abb b154 133c
000000d0: 4436 413c b649 fd3b 6239 a6ba cfe3 1e3c
000000e0: 85ee cf3b 88d3 573c ce95 3b3c 343b d73b
000000f0: e7ad 483c b8f1 353b 1433 2bbc 95d4 94bb
0.012951482 0.008722058 0.011214355 0.0063178623 0.007970515 0.01175551 0.009721049 0.011870434
0.010035215 0.009654102 0.009398894 0.0072940392 0.0051770397 0.0062879897 0.00819006 0.0062963706
-0.010199882 0.008015099 -0.014275222 -0.0044422606 0.007284308 -0.00025320594 -0.0041733375 0.0068995412
0.011541865 0.012761539 0.0013499939 0.014101495 -0.0067187794 0.0064217467 0.010118056 0.010097807
-0.005904795 0.008981797 -0.0060454914 -0.0056801545 0.0004044322 0.009429329 -0.00030270749 0.012441722
0.009575447 -0.003976995 0.008925131 0.015418714 0.0019166007 0.010659864 0.010315447 0.009866668
-0.0029344372 0.007327556 -0.004235212 0.00899236 0.011792723 0.0077297343 -0.0012681896 0.0096978685
0.0063455724 0.013172992 0.01144929 0.006568337 0.012248493 0.0027762484 -0.01044919 -0.0045419433
