30_20_1_99_sw(1000)_1_1.5_v0.pth (torch, 93810 bytes, 30 tensors)

feature_extract.mlps.0.linears.0.weight f4 [64, 2]
-0.29885486 0.42178643 0.5003617 -0.23725903 0.060854614 -0.43651745 -0.5326312 0.35047716
0.5140867 -0.016882118 -0.69842404 -0.19488972 -0.41999248 -0.19507204 -0.20785826 -0.58261734
-0.38552198 0.2847917 -0.35631302 -0.33344278 -0.40080854 0.5493092 -0.30947676 -0.22007112
-0.13516049 0.6695188 -0.41076076 0.250207 0.6081571 0.14709605 0.70701855 -0.34215522
0.537285 -0.6226991 0.3923691 -0.5218276 -0.5589233 0.1229947 -0.007850736 0.22412267
0.0202568 0.009485335 -0.34742248 0.22382072 -0.2161745 0.14061518 0.02217713 -0.041306403
-0.3113749 0.5075669 -0.6337765 -0.015467422 0.37957138 -0.17972478 0.47678077 -0.4827608
-0.6030777 -0.3304413 -0.5190018 -0.023754435 -0.2849911 0.22545278 0.43168116 0.13025172
-0.017779198 -0.2678135 -0.35294178 0.56192064 0.515457 0.35448954 -0.3252315 -0.2543645
0.07727322 0.052093163 -0.04634952 -0.43113783 -0.47667593 0.36374673 0.39671463 0.5671197
0.6678896 -0.15582153 -0.05924023 0.027150277 0.14756666 0.1391595 0.030233929 -0.33407944
-0.016382817 0.37448654 0.3268484 0.63597256 0.32361898 -0.66919327 0.29387704 -0.5520784
0.5527429 -0.5563917 -0.55560225 0.1630094 0.14141397 0.50399125 -0.4702119 0.5440811
0.121543266 -0.123002626 -0.50398785 0.33899415 0.08700907 0.5632585 -0.40500665 0.60346264
-0.471985 -0.41877416 0.3927262 -0.09200777 -0.43357238 -0.04856248 0.6907062 -0.03285834
0.2461648 -0.162258 0.16570061 0.6852734 0.34152547 -0.49345505 -0.4220965 -0.10202644
00000000: 8103 99be 64f4 d73e b417 003f 08f4 72be
00000010: b042 793d 377f dfbe 855a 08bf be71 b33e
00000020: 309b 033f 5e4c 8abc ebcb 32bf 2c91 47be
00000030: 4109 d7be f7c0 47be ccd8 54be 6926 15bf
00000040: 2363 c5be 38d0 913e a96e b6be 03b9 aabe
00000050: c736 cdbe 879f 0c3f bd73 9ebe 535a 61be
00000060: 8367 0abe 9665 2b3f 3c4f d2be 221b 803e
00000070: 2fb0 1b3f 59a0 163e 2bff 343f f82e afbe
00000080: 828b 093f 3569 1fbf 9ae4 c83e 7e96 05bf
00000090: 9915 0fbf a5e4 fb3d 60a0 00bc 6a80 653e
000000a0: 97f1 a53c 6168 1b3c 5ce1 b1be 4231 653e
000000b0: d95c 5dbe 6dfd 0f3e d0ac b53c e730 29bd
000000c0: 886c 9fbe e8ef 013f 2d3f 22bf 126b 7dbc
000000d0: 2e57 c23e c609 38be 9c1c f43e 6c2c f7be
000000e0: 4d63 1abf 9a2f a9be 4ddd 04bf a998 c2bc
000000f0: 5aea 91be 18dd 663e 5005 dd3e b560 053e
00000100: aea5 91bc da1e 89be c9b4 b4be 08da 0f3f
00000110: fdf4 033f a77f b53e be84 a6be 103c 82be
00000120: 6c41 9e3d a45f 553d ffd8 3dbd 19be dcbe
00000130: de0e f4be 033d ba3e 2e1e cb3e c22e 113f
00000140: d0fa 2a3f ae8f 1fbe e2a5 72bd 426a de3c
00000150: b71b 173e d47f 0e3e 25ad f73c 760c abbe
00000160: 4235 86bc b3bc bf3e ac58 a73e 19cf 223f
00000170: 63b1 a53e 4050 2bbf 0d77 963e 0355 0dbf
00000180: 8f80 0d3f b06f 0ebf f33b 0ebf f0eb 263e
00000190: d3ce 103e 9205 013f 9dbf f0be e648 0b3f
000001a0: adeb f83d cde8 fbbd 5905 01bf a490 ad3e
000001b0: d031 b23d b631 103f 085d cfbe 877c 1a3f
000001c0: 05a8 f1be 9169 d6be 6913 c93e 926e bcbd
000001d0: 33fd ddbe 73e9 46bd 1fd2 303f 7796 06bd
000001e0: a012 7c3e f626 26be 6cad 293e 146e 2f3f
000001f0: 6ddc ae3e 24a6 fcbe 081d d8be 3df3 d0bd

feature_extract.mlps.0.linears.0.bias f4 [64]
0.31896463 -0.39064217 -0.04799572 0.348311 -0.35144597 -0.3864749 0.011275096 -0.5783543
0.29406822 -0.19900256 0.5659184 0.055877417 0.33727467 -0.12168632 -0.24953713 -0.3054202
0.34364733 0.64251304 0.25624678 -0.16295335 0.3658145 -0.5385016 -0.60728776 -0.22728664
0.31369358 -0.07179517 -0.48770827 -0.58659977 0.35107908 -0.36721045 -0.28882703 0.63499606
0.10321844 -0.41345242 0.059369974 0.38739815 -0.32731664 -0.44364327 -0.664364 -0.6022087
-0.5281733 0.36557505 0.060288947 0.21408826 0.40135232 0.63525546 -0.18935786 0.6327281
0.11109227 0.5664748 -0.6582466 -0.30960962 -0.26275006 0.5158011 0.41479036 -0.69612396
-0.3997406 -0.5482761 -0.6959727 -0.6582704 0.33572304 0.25078362 -0.054767836 -0.028763173
00000000: 554f a33e 4002 c8be 2997 44bd d255 b23e
00000010: baf0 b3be 0ae0 c5be 2ebb 383c 070f 14bf
00000020: 1c90 963e 54c7 4bbe 07e0 103f b8df 643d
00000030: 44af ac3e ad36 f9bd a986 7fbe 0960 9cbe
00000040: 8bf2 af3e bc7b 243f c732 833e 3edd 26be
00000050: 0a4c bb3e 3edb 09bf 3677 1bbf d4bd 68be
00000060: 729c a03e 5909 93bd e6b4 f9be 672b 16bf
00000070: a3c0 b33e 0203 bcbe 23e1 93be 1a8f 223f
00000080: 3164 d33d 09b0 d3be ee2d 733d 0d59 c63e
00000090: 0c96 a7be 3625 e3be c213 2abf 592a 1abf
000000a0: 5e36 07bf a72c bb3e 8bf1 763d f439 5b3e
000000b0: 0d7e cd3e 1aa0 223f 07e7 41be 78fa 213f
000000c0: 5884 e33d 7e04 113f d982 28bf 2785 9ebe
000000d0: 2d87 86be 8a0b 043f 675f d43e 2e35 32bf
000000e0: cdaa ccbe d35b 0cbf 442b 32bf 6984 28bf
000000f0: e4e3 ab3e b666 803e 3d54 60bd bfa0 ebbc

feature_extract.mlps.0.linears.1.weight f4 [64, 64]
-0.064871185 0.06279295 -0.10636716 -0.091951154 -0.10526447 -0.055368237 -0.09802717 0.08138062
-0.11880699 0.012638547 0.028726744 0.0016268755 0.059860587 0.1189841 0.06356975 0.028367518
-0.051274683 -0.014426367 0.11827716 0.046122722 -0.036495063 -0.0123996055 -0.10743433 -0.09670588
0.07578243 0.016567094 0.08974073 0.07607109 -0.017770728 0.10739965 0.040264435 0.08925997
0.081702724 0.11674161 -0.08359749 -0.016556323 0.06429319 -0.1079441 0.026754642 -0.1089981
-0.060545444 -0.049329236 -0.063529946 0.035381477 0.099540845 -0.1100211 0.086840965 -0.044201426
-0.014253386 -0.019577252 -0.027163189 -0.002684935 -0.037043035 -0.08163141 0.0031054392 0.057389077
0.024068946 0.063911036 -0.034929156 0.00832986 0.07972353 0.11582466 -0.120106675 0.09424645
0.09301019 -0.08527997 -0.045168035 0.048497118 0.079835035 -0.1200645 0.0060322946 -0.009140692
-0.006357258 0.09718016 0.0075509977 -0.05833953 0.09195954 -0.032236226 0.08838216 0.10408569
0.043920137 -0.07978014 -0.055626705 -0.09722306 -0.064001784 -0.11685317 0.0046894276 -0.050247565
0.10952015 0.025411153 -0.056061227 -0.12538622 0.056690678 -0.111342475 -0.044548243 0.05154128
0.054501034 -0.035730246 0.085591 -0.06787337 -0.07229645 0.07644489 0.007553323 0.051912684
0.015402508 0.039387062 -0.072090395 0.034813102 -0.01759999 -0.08083578 0.116357446 0.07251725
-0.0021684219 0.11854867 -0.116660446 0.08646121 -0.006140124 -0.07869135 0.12545303 0.11196871
-0.056109842 -0.0627708 -0.050170664 -0.04025654 0.03240728 0.051003203 0.020816684 -0.123192295
-0.077461444 -0.039948657 -0.016109137 -0.01016124 0.0022847496 -0.019152083 -0.09038154 0.041299354
-0.09916379 -0.09526744 0.0118200155 0.11805782 -0.047814205 -0.105594136 0.00098804 0.053034384
0.034570806 -0.002955884 -0.076606326 0.007581619 0.011765354 -0.111048736 0.045350313 0.029381916
0.048693083 0.08639993 -0.05257934 0.05066203 0.096613355 -0.1200927 -0.10643058 0.014152231
-0.050398674 0.075680815 0.12674113 -0.010551713 0.014827559 -0.08187594 0.11313689 -0.027902871
-0.07749053 -0.12189652 -0.07303646 -0.013769818 -0.060106147 0.0012790418 0.0040294477 -0.0053921775
0.0025263096 -0.013769693 0.06714295 -0.115509726 -0.0889989 -0.018366361 -0.06434427 0.08616575
0.08418737 0.031898644 -0.04185449 -0.003624085 0.09878727 0.01192303 0.098770015 0.10513121
0.014930126 0.098697074 0.00173326 -0.018820226 -0.0079769585 -0.10431001 0.10732296 0.12994044
-0.021363439 -0.07915642 -0.044082746 8.2470346e-05 -0.10650774 0.04837688 -0.078024834 0.07661211
0.03460134 0.09450225 0.06272804 0.094064444 0.10514263 0.06956749 -0.07881924 -0.06639624
0.04280758 0.10892257 -0.06873939 -0.06936858 -0.1159404 0.0298654 -0.084746614 -0.06481793
0.04207151 -0.07538017 0.09027683 -0.0064014876 0.023277171 0.043619025 0.0059092334 0.070316054
-0.10905287 0.07911762 0.049714226 0.01986977 0.060995527 0.09338489 -0.05130226 0.12509404
-0.011712308 -0.109675035 0.049929965 -0.07854203 0.019967355 -0.09211187 0.012713203 0.010204634
-0.10700897 -0.05136154 -0.048480507 -0.09487799 0.040672597 -0.052409828 0.018803373 0.06761206
00000000: 2fdb 84bd 9799 803d 07d7 d9bd e350 bcbd
00000010: e694 d7bd cec9 62bd 78c2 c8bd e2aa a63d
00000020: 1451 f3bd e911 4f3c 5954 eb3c e23c d53a
00000030: 6030 753d f0ad f33d db30 823d ff62 e83c
00000040: 6705 52bd 925c 6cbc 4c3b f23d 2eeb 3c3d
00000050: d97b 15bd b727 4bbc 8806 dcbd bb0d c6bd
00000060: d233 9b3d b7b7 873c fdc9 b73d 29cb 9b3d
00000070: eb93 91bc 59f4 db3d 52ec 243d eecd b63d
00000080: c253 a73d 3a16 ef3d 2935 abbd 20a1 87bc
00000090: 26ac 833d cc11 ddbd 8d2c db3c 653a dfbd
000000a0: 80fe 77bd 740d 4abd fd1b 82bd 2bec 103d
000000b0: 12dc cb3d be52 e1bd add9 b13d 8e0c 35bd
000000c0: 0987 69bc 7960 a0bc 5685 debc bcf5 2fbb
000000d0: 70ba 17bd 5e2e a7bd a084 4b3b cf10 6b3d
000000e0: 3d2c c53c cae3 823d e011 0fbd f779 083c
000000f0: 1746 a33d 7b35 ed3d 7dfa f5bd 4804 c13d
00000100: 207c be3d 44a7 aebd 1e02 39bd eaa4 463d
00000110: 8d80 a33d 60e4 f5bd 8eaa c53b d7c2 15bc
00000120: 8c50 d0bb 6406 c73d 5c6e f73b 6ef5 6ebd
00000130: 4955 bc3d 220a 04bd b501 b53d e12a d53d
00000140: 9ae5 333d c563 a3bd d4d8 63bd e21c c7bd
00000150: 5e13 83bd b750 efbd c5a9 993b 64d0 4dbd
00000160: 1a4c e03d 0d2b d03c 75a0 65bd 3f65 00be
00000170: 7c34 683d 8607 e4bd 3878 36bd f31c 533d
00000180: 7a3c 5f3d e159 12bd 564a af3d 3201 8bbd
00000190: 2910 94bd 238f 9c3d de81 f73b 65a2 543d
000001a0: cd5a 7c3c 5454 213d 21a4 93bd 2f98 0e3d
000001b0: db2d 90bc 3b8d a5bd d04c ee3d ed83 943d
000001c0: 151c 0ebb a5c9 f23d aceb eebd 9312 b13d
000001d0: 1833 c9bb ee28 a1bd c276 003e da4f e53d
000001e0: 6fd3 65bd fa8d 80bd c17f 4dbd 0be4 24bd
000001f0: 7fbd 043d bce8 503d c087 aa3c 3e4c fcbd
00000200: 1ba4 9ebd 34a1 23bd 4ff7 83bc 547b 26bc
00000210: bdbb 153b d4e4 9cbc f519 b9bd 8329 293d
00000220: 6316 cbbd 931b c3bd bda8 413c 4cc8 f13d
00000230: d4d8 43bd bd41 d8bd 1f81 813a 953a 593d
00000240: 1e9a 0d3d 81b7 41bb c7e3 9cbd 3b6f f83b
00000250: 79c3 403c 856d e3bd 40c1 393d 58b2 f03c
00000260: 6672 473d 72f2 b03d 6f5d 57bd fd82 4f3d
00000270: 39dd c53d 29f3 f5bd 47f8 d9bd c2de 673c
00000280: d76e 4ebd 8bfe 9a3d 6dc8 013e 18e1 2cbc
00000290: 4aef 723c 93ae a7bd 50b4 e73d 9094 e4bc
000002a0: 5bb3 9ebd e2a4 f9bd 2494 95bd cd9a 61bc
000002b0: dd31 76bd 85a5 a73a 7509 843b ddb0 b0bb
000002c0: 7190 253b 479a 61bc 3e82 893d 5d90 ecbd
000002d0: 0e45 b6bd 0d75 96bc eec6 83bd ab77 b03d
000002e0: 6e6a ac3d 27a8 023d 9d6f 2bbd 0f82 6dbb
000002f0: fb50 ca3d d058 433c ef47 ca3d 084f d73d
00000300: 7d9d 743c b121 ca3d 8e2e e33a e02c 9abc
00000310: cab1 02bc 7da0 d5bd 24cc db3d 1b0f 053e
00000320: 6102 afbc c31c a2bd 1c90 34bd eef3 ac38
00000330: bb20 dabd d626 463d 7ccb 9fbd cfe6 9c3d
00000340: 22ba 0d3d 658a c13d 8f77 803d dca4 c03d
00000350: 0555 d73d 6679 8e3d fb6b a1bd c0fa 87bd
00000360: 0057 2f3d cc12 df3d 3dc7 8cbd 1d11 8ebd
00000370: 2972 edbd 49a8 f43c a28f adbd 43bf 84bd
00000380: 2d53 2c3d eb60 9abd 0fe3 b83d 92c3 d1bb
00000390: c4af be3c dda9 323d 3ea2 c13b dd01 903d
000003a0: 1c57 dfbd 6b08 a23d 25a1 4b3d eec5 a23c
000003b0: 72d6 793d 9440 bf3d 5222 52bd a718 003e
000003c0: fbe4 3fbc 4e9d e0bd 5d83 4c3d a5da a0bd
000003d0: 9492 a33c 26a5 bcbd 0a4b 503c 5631 273c
000003e0: 8527 dbbd 7a60 52bd 7f93 46bd 644f c2bd
000003f0: 4f98 263d b0ab 56bd 8809 9a3c 3178 8a3d

feature_extract.mlps.0.linears.1.bias f4 [64]
0.037515353 0.05277328 0.010760843 0.10227427 -0.08939033 0.031149501 0.027743246 0.02089775
0.080746375 0.104770385 0.08618364 -0.020166304 0.109347515 0.050546415 0.0424768 0.003128175
-0.06655446 0.0723683 0.03376572 0.02526408 -0.03957295 0.11454303 0.085486844 0.117119886
-0.027909739 0.04240192 -0.04983129 0.09237133 0.106365055 0.03735204 0.10265666 -0.094057366
0.02805593 0.06595338 -0.083744004 -0.0006871279 0.06552211 -0.04061872 -0.08901056 0.069238916
-0.09344158 -0.0036961585 0.11278972 -0.03325341 -0.00772947 0.02798362 -0.11026676 -0.11112117
-0.042088736 0.022681683 0.1265734 0.039813038 -0.12502411 0.08799806 -0.05096676 0.012647537
0.087910846 0.06961365 0.056470662 0.028858006 -0.10410057 -0.027962016 0.10690769 -0.12137909
00000000: b3a9 193d cb28 583d 3f4e 303c 2c75 d13d
00000010: 4712 b7bd 3d2d ff3c ce45 e33c c231 ab3c
00000020: 5b5e a53d db91 d63d 0c81 b03d ce33 a5bc
00000030: 97f1 df3d c209 4f3d 27fc 2d3d 1102 4d3b
00000040: b44d 88bd d535 943d ec4d 0a3d 9ef6 ce3c
00000050: 3f17 22bd 8995 ea3d ba13 af3d 8ddc ef3d
00000060: f7a2 e4bc a3ad 2d3d e51b 4cbd 2e2d bd3d
00000070: ecd5 d93d 74fe 183d a83d d23d 26a1 c0bd
00000080: 8dd5 e53c 9112 873d fa81 abbd 5f20 34ba
00000090: 7530 863d d15f 26bd 2b4b b6bd 22cd 8d3d
000000a0: 4d5e bfbd 403b 72bb 4cfe e63d ba34 08bd
000000b0: 7e47 fdbb e83d e53c 8ad3 e1bd 7f93 e3bd
000000c0: 3d65 2cbd f0ce b93c 759c 013e ff12 233d
000000d0: 5206 00be 5438 b43d 85c2 50bd 9d37 4f3c
000000e0: 9a0a b43d 9a91 8e3d c84d 673d a067 ec3c
000000f0: ae32 d5bd 9910 e5bc 6bf2 da3d 9a95 f8bd

feature_extract.mlps.0.batch_norms.0.weight f4 [64]
0.99725384 0.99988914 0.99999976 0.9970261 0.9903832 1.0030657 1.0017583 0.9980654
0.9943509 1.005707 1.0047818 0.99688303 0.9970566 0.999289 1.0067676 0.999606
1.0001702 0.9989582 0.9974995 1.0014285 0.99841243 1.0048714 0.99775064 0.99567777
0.99784094 0.9955748 1.0026515 1.0044218 1.0038345 1.0016788 1.004096 1.0054849
0.9993136 0.99771476 1.003007 1.0015544 0.9951049 1.0037383 1.0047061 0.99565995
0.9962489 0.9990303 0.996551 1.0037601 0.997943 0.99615747 1.0015564 1.0029718
0.99731827 0.9980186 1.0038692 0.9993066 0.9936701 1.0032008 0.9962161 0.99742395
1.0014876 1.0033609 1.000068 0.9965298 0.9978052 1.0044402 0.9958033 0.99583566
00000000: 074c 7f3f bcf8 7f3f fcff 7f3f 1a3d 7f3f
00000010: c189 7d3f 7564 803f 9e39 803f 3781 7f3f
00000020: c88d 7e3f 02bb 803f b19c 803f ba33 7f3f
00000030: 1a3f 7f3f 67d1 7f3f c3dd 803f 2ee6 7f3f
00000040: 9405 803f b9bb 7f3f 215c 7f3f cf2e 803f
00000050: f597 7f3f a09f 803f 966c 7f3f bde4 7e3f
00000060: 8172 7f3f fddd 7e3f e256 803f e590 803f
00000070: a67d 803f 0337 803f 3886 803f bbb3 803f
00000080: 04d3 7f3f 3c6a 7f3f 8962 803f ef32 803f
00000090: 32bf 7e3f 7f7a 803f 369a 803f 92e3 7e3f
000000a0: 2b0a 7f3f 73c0 7f3f f71d 7f3f 367b 803f
000000b0: 3179 7f3f 2d04 7f3f 0033 803f 6161 803f
000000c0: 4050 7f3f 267e 7f3f c97e 803f 8fd2 7f3f
000000d0: 2a61 7e3f e268 803f 0508 7f3f 2d57 7f3f
000000e0: bf30 803f 216e 803f 3a02 803f 941c 7f3f
000000f0: 2970 7f3f 7f91 803f f7ec 7e3f 16ef 7e3f

feature_extract.mlps.0.batch_norms.0.bias f4 [64]
0.0016347268 0.0031153192 0.0026159598 -0.004714654 -0.00023988595 0.0035810284 0.006352501 -0.0008821701
0.0021174012 0.0037810607 0.004093512 -0.0041308766 -0.0030090816 0.0059050033 0.00509748 0.0018389985
0.002315374 -0.0069299852 -0.00037334437 -0.00035847153 -0.005191162 0.004328613 0.003748029 -0.0035233034
0.0042745816 -0.004123965 -0.00061346864 0.0021417728 -0.00061826763 0.0032656807 0.0012771987 0.0049001467
0.00079616735 0.0046968576 0.0025649185 0.0005384321 -0.004649247 0.0035525158 0.004032587 -0.007293144
-0.0041385796 0.00531091 -0.0019119157 0.0041660634 -0.0017900321 -0.0038017845 -0.0037237627 0.0035316541
0.0011669587 0.0021754391 0.003412559 0.0006933562 -0.003912294 -0.0059685796 -0.003356805 -0.00047672485
-0.000552898 -0.0016216298 0.004607466 -0.0028865775 -0.0020682723 0.0038735685 0.0006125821 -0.004337261
00000000: 5444 d63a 622a 4c3b 8670 2b3b 627d 9abb
00000010: e589 7bb9 b0af 6a3b a428 d03b 6f41 67ba
00000020: 19c4 0a3b accb 773b de22 863b 4e5c 87bb
00000030: 0334 45bb c27e c13b c308 a73b 8d0a f13a
00000040: 88bd 173b ee14 e3bb 6fbd c3b9 3cf1 bbb9
00000050: a01a aabb 0ad7 8d3b 7ea1 753b 39e7 66bb
00000060: ca11 8c3b 5322 87bb 2fd1 20ba fc5c 0c3b
00000070: 3d13 22ba 0805 563b ad67 a73a 6991 a03b
00000080: e3b5 503a 19e8 993b 3118 283b 9125 0d3a
00000090: b658 98bb 53d1 683b cb23 843b 53fb eebb
000000a0: ec9c 87bb 2407 ae3b 3f99 faba 7983 883b
000000b0: 839f eaba 5c27 79bb 5f0a 74bb 5373 673b
000000c0: a3f4 983a d091 0e3b 3da5 5f3b 59c2 353a
000000d0: b332 80bb 1394 c3bb d8fd 5bbb edf0 f9b9
000000e0: 5bf0 10ba de8c d4ba 3afa 963b bc2c 3dbb
000000f0: da8b 07bb b2db 7d3b b095 203a 951f 8ebb

feature_extract.mlps.0.batch_norms.0.running_mean f4 [64]
0.58492386 0.51163906 -1.1097779 -0.33077216 1.2275965 -3.1576939 -1.878976 -2.9107149
-0.108042575 -2.2852926 0.8755693 -1.5563309 1.8333986 -0.7030888 2.0985572 0.94967437
0.25516543 0.38511875 -1.1598032 0.4562649 0.45720437 -0.99520797 -0.88758564 -0.27578002
0.7865273 -2.1227298 0.19749972 -0.464485 -2.5078228 -2.0785925 -0.5431905 2.3759751
-0.7226988 0.08398306 2.7099802 -1.3732392 0.06702703 -1.8293654 -1.1281635 2.2835197
1.1385189 0.2560484 0.9273831 -0.65025514 1.4256669 3.4976587 -1.0879018 -0.023417518
0.2620999 -0.7240687 1.2378049 -0.23470841 -0.23143291 -0.10559879 2.3089197 -0.24414027
-3.09746 0.43065602 -2.2081845 1.4340231 0.6487717 2.7446845 -0.3915932 -1.6582853
00000000: 92bd 153f c7fa 023f 340d 8ebf f85a a9be
00000010: e221 9d3f a817 4ac0 4982 f0bf 2749 3ac0
00000020: 6d45 ddbd 3c42 12c0 4f25 603f da35 c7bf
00000030: ceac ea3f a1fd 33bf c34e 0640 dc1d 733f
00000040: 0ba5 823e 492e c53e 6e74 94bf 8e9b e93e
00000050: b116 ea3e f3c5 7ebf d038 63bf 0a33 8dbe
00000060: da59 493f ceda 07c0 5e3d 4a3e fad0 edbe
00000070: 2b80 20c0 a907 05c0 880e 0bbf fa0f 1840
00000080: ca02 39bf 50ff ab3d 5170 2d40 4dc6 afbf
00000090: 7845 893d a528 eabf a967 90bf 3025 1240
000000a0: fdba 913f c718 833e fb68 6d3f 1f77 26bf
000000b0: 417c b63f a4d9 5f40 5e40 8bbf 18d6 bfbc
000000c0: f531 863e 915c 39bf 6470 9e3f 6757 70be
000000d0: c0fc 6cbe 2e44 d8bd 57c5 1340 e8ff 79be
000000e0: c93c 46c0 f27e dc3e e552 0dc0 128e b73f
000000f0: e715 263f e9a8 2f40 e77e c8be b142 d4bf

feature_extract.mlps.0.batch_norms.0.running_var f4 [64]
0.3133794 0.8619312 0.048407543 0.9710434 0.93979895 1.8008329 0.66930294 0.28033718
0.5081793 0.5241646 0.5618114 0.37890095 0.1374215 0.57814425 1.3585404 1.7202114
0.9959172 0.53675437 1.0923433 0.011473714 0.0015579042 0.4132568 0.15997712 0.0018144059
0.3474956 1.4369698 0.49602607 0.779642 1.3987544 0.96590084 0.277644 0.6901331
0.019938676 0.4446326 1.0467209 0.4239516 0.02346686 0.059296127 0.77678585 0.72266454
1.5581906 0.012090646 0.090033606 0.025933094 0.031916354 0.5554868 0.3983029 0.319314
1.0476768 1.0736256 0.1584801 0.76271147 0.050665516 0.86918455 0.120753005 0.57955635
0.9109762 0.5387146 0.6792495 1.6939648 0.20740922 0.25217754 0.41043228 0.654418
00000000: 4473 a03e 86a7 5c3f fd46 463d 4d96 783f
00000010: aa96 703f b181 e63f 7057 2b3f 5b88 8f3e
00000020: 0a18 023f a72f 063f dfd2 0f3f 4eff c13e
00000030: 39b8 0c3e 4301 143f a7e4 ad3f e32f dc3f
00000040: 6ef4 7e3f bc68 093f e8d1 8b3f 3ffc 3b3c
00000050: 9732 cc3a 6596 d33e 0bd1 233e 5cd1 ed3a
00000060: f1ea b13e a0ee b73f 21f7 fd3e 9e96 473f
00000070: 620a b33f 4745 773f 5b27 8e3e 90ac 303f
00000080: 6f56 a33c e2a6 e33e f3fa 853f 2f10 d93e
00000090: 933d c03c 7fe0 723d 70db 463f 8b00 393f
000000a0: ca72 c73f d817 463c 8a63 b83d a471 d43c
000000b0: b9ba 023d 6234 0e3f 5cee cb3e 207d a33e
000000c0: 461a 863f 906c 893f 9b48 223e 0f41 433f
000000d0: a586 4f3d e182 5e3f 5a4d f73d ce5d 143f
000000e0: bc35 693f 33e9 093f 4ce3 2d3f d7d3 d83f
000000f0: 1563 543e 6a1d 813e 2e24 d23e f087 273f

feature_extract.mlps.1.linears.0.weight f4 [64, 64]
0.11112839 0.06703552 0.09987104 0.12895618 -0.0072624623 -0.042586382 -0.056852046 0.0085101295
0.03756856 -0.026630353 0.081001215 -0.12195132 -0.10217417 -0.039056428 -0.013644418 -0.0046931985
-0.034388 -0.031179588 -0.08262065 0.031546507 0.054030932 0.03669296 -0.030357106 -0.040704597
0.07366207 -0.0068438193 0.0041277558 -0.0010377816 -0.054771923 0.03360865 0.1158738 0.05450554
-0.037773438 0.02692624 -0.07549622 0.09134357 -0.032639775 0.081137255 -0.11189892 0.10820252
0.1020035 0.06140592 0.088756435 0.051418625 0.07806186 0.08857236 -0.051567476 -0.11690513
0.07402044 -0.116291285 0.029519966 -0.07311054 0.0458439 -0.005229957 0.093803406 0.067524806
0.0026511315 -0.06521527 0.07388317 -0.03267223 0.07570488 0.06617606 -0.041193143 0.046256136
-0.011882515 -0.09796007 -0.09523062 0.09470069 -0.03316959 0.12027645 -0.09195588 0.11856275
-0.042166553 0.06995866 -0.12188779 0.09051669 0.04343015 -0.0686615 0.058056667 -0.06586413
0.09207689 -0.018975701 -0.015102207 0.053490017 -0.039151274 0.06737051 -0.024390794 -0.05116144
-0.1025563 0.11106756 -0.040959146 0.09889739 0.025612123 -0.06806941 0.10041382 -0.06305198
-0.0104799485 0.042422432 -0.10317857 -0.012576752 -0.04932714 -0.0058629923 -0.040721536 -0.10593928
-0.065596275 0.008668669 -0.026126182 -0.030578256 0.005932908 0.013158918 -0.061929118 -0.047587503
0.103514135 0.066049986 0.10472897 0.10355941 0.10667026 0.11664105 -0.057152007 0.04931848
-0.051055983 -0.08147403 -0.085198015 -0.10897709 0.052510988 0.053288944 0.05224581 -0.055335704
-0.05923812 0.09070428 -0.06939992 0.07935476 -0.06565515 -0.09915514 -0.0042512175 0.109476045
0.11199702 -0.12548263 0.020692963 -0.12544067 -0.0841818 0.037573524 -0.007020795 -0.030512484
-0.06787926 -0.027264813 0.0152642 -0.014140786 -0.056094915 -0.0454191 0.11256125 0.019546278
-0.027924504 -0.08511838 -0.04678458 -0.02059318 0.11743648 -0.09194008 -0.06399078 -0.07280769
-0.016346037 0.07016893 -0.042522185 -0.03684287 -0.114154965 0.041508175 0.0089391945 -0.049921256
0.121690504 0.096846975 0.0058447374 -0.043344587 -0.0039313654 0.016736457 -0.023734659 0.12375309
0.08371519 -0.0609385 -0.078874364 0.047167134 -0.00020789055 -0.021643396 -0.08887329 -0.05654048
0.12547764 0.096302144 -0.034657642 -0.012077993 0.05238436 0.009477818 0.034607254 0.08468855
0.07184451 -0.053931154 0.09848077 0.048585296 -0.059064463 -0.022637645 0.045534533 -0.055069175
-0.083769925 -0.069530115 0.08410372 -0.07601193 -0.116751194 0.08343359 -0.09541617 0.11348104
-0.12313953 0.01575906 0.0101685645 0.022124972 0.04027137 -0.11622849 0.047560968 -0.008799133
-0.024338417 0.109334156 -0.03469459 -0.03839901 -0.10437137 -0.11644101 -0.09545162 0.02650252
0.03687143 -0.029552164 -0.07038589 -0.0024938858 -0.032729276 0.020418981 0.053106755 -0.04593134
-0.03384761 -0.08394243 0.116748765 0.045875482 -0.11839802 0.060879827 0.061926562 0.056115385
-0.020554613 -0.092090696 0.0270358 -0.032647885 -0.032216657 -0.036234003 -0.07172727 0.043334316
0.06432128 0.0074364943 0.10687661 -0.061719827 -0.09613544 -0.12650883 -0.109631196 -0.10791881
00000000: 4897 e33d eb49 893d 3089 cc3d 170d 043e
00000010: f3f9 edbb 0f6f 2ebd b1dd 68bd 126e 0b3c
00000020: 7ee1 193d e627 dabc f7e3 a53d 9dc1 f9bd
00000030: b140 d1bd a2f9 1fbd d68c 5fbc 67c9 99bb
00000040: 6eda 0cbd 566c ffbc 0435 a9bd e936 013d
00000050: 8a4f 5d3d 5b4b 163d 77af f8bc ddb9 26bd
00000060: 24dc 963d 1e42 e0bb 2042 873b 2c06 88ba
00000070: 8658 60bd 39a9 093d 3e4f ed3d 3341 5f3d
00000080: 52b8 1abd 6b94 dc3c c39d 9abd 5612 bb3d
00000090: 49b1 05bd 4a2b a63d 432b e5bd 4899 dd3d
000000a0: 36e7 d03d c684 7b3d efc5 b53d 569c 523d
000000b0: e5de 9f3d 6d65 b53d 6b38 53bd f56b efbd
000000c0: 0798 973d 202a eebd dbd3 f13c fbba 95bd
000000d0: d0c6 3b3d 0f60 abbb 001c c03d 724a 8a3d
000000e0: 9bbe 2d3b 958f 85bd 0f50 973d 51d3 05bd
000000f0: 290b 9b3d 5087 873d 24ba 28bd 1377 3d3d
00000100: e1ae 42bc 4a9f c8bd 4508 c3bd 6ff2 c13d
00000110: d6dc 07bd 8053 f63d 5d53 bcbd 07d1 f23d
00000120: d6b6 2cbd 7c46 8f3d 4ea0 f9bd d060 b93d
00000130: d0e3 313d 679e 8cbd d4cc 6d3d c6e3 86bd
00000140: cf92 bc3d ee72 9bbc 3f6f 77bc 5918 5b3d
00000150: 165d 20bd 8df9 893d 34cf c7bc a88e 51bd
00000160: 0a09 d2bd 6477 e33d c7c4 27bd b78a ca3d
00000170: 84d0 d13c fa67 8bbd c3a5 cd3d 6621 81bd
00000180: 17b4 2bbc 25c3 2d3d 494f d3bd b90e 4ebc
00000190: 410b 4abd 581e c0bb a0cb 26bd b1f6 d8bd
000001a0: 5757 86bd 0807 0e3c 9306 d6bc 407f fabc
000001b0: d768 c23b 8198 573c 63a9 7dbd 1deb 42bd
000001c0: 38ff d33d 3745 873d 247c d63d f516 d43d
000001d0: f075 da3d 81e1 ee3d 3918 6abd 2d02 4a3d
000001e0: 1420 51bd dbdb a6bd 4c7c aebd 612f dfbd
000001f0: c315 573d 8245 5a3d b4ff 553d b1a7 62bd
00000200: aca3 72bd 2ac3 b93d 8c21 8ebd c084 a23d
00000210: 3576 86bd da11 cbbd cc4d 8bbb fa34 e03d
00000220: b25e e53d 857e 00be 4a84 a93c 8573 00be
00000230: 8267 acbd b2e6 193d b20e e6bb 51f5 f9bc
00000240: 4804 8bbd 755a dfbc b216 7a3c c1ae 67bc
00000250: c8c3 65bd 6109 3abd 8386 e63d 841f a03c
00000260: eec1 e4bc 8c52 aebd 30a1 3fbd 07b3 a8bc
00000270: 8a82 f03d 154b bcbd 990d 83bd 331c 95bd
00000280: 20e8 85bc bab4 8f3d be2b 2ebd 8de8 16bd
00000290: 14ca e9bd 7a04 2a3d b375 123c 3b7a 4cbd
000002a0: df38 f93d b557 c63d 3685 bf3b 188a 31bd
000002b0: afd2 80bb e51a 893c 306f c2bc 4372 fd3d
000002c0: df72 ab3d a69a 79bd e288 a1bd 5332 413d
000002d0: 32fd 59b9 7e4d b1bc 3303 b6bd fe96 67bd
000002e0: 367d 003e 0f3a c53d 2cf5 0dbd c6e2 45bc
000002f0: fc90 563d da48 1b3c 56c0 0d3d 3171 ad3d
00000300: 3723 933d eae6 5cbd 49b0 c93d 6001 473d
00000310: 94ed 71bd 9572 b9bc 6b82 3a3d 3790 61bd
00000320: 918f abbd ce65 8ebd 923e ac3d 25ac 9bbd
00000330: 401b efbd 3bdf aa3d 8e69 c3bd bf68 e83d
00000340: 9430 fcbd 2519 813c 0d9a 263c 6e3f b53c
00000350: 98f3 243d 3409 eebd 4acf 423d 3d2a 10bc
00000360: 5c61 c7bc 96ea df3d ea1b 0ebd 4848 1dbd
00000370: a8c0 d5bd a078 eebd 247c c3bd d01b d93c
00000380: 7f06 173d 6117 f2bc 7a26 90bd 7670 23bb
00000390: 220f 06bd b545 a73c 7886 593d 8022 3cbd
000003a0: cba3 0abd 02ea abbd fa19 ef3d eee7 3b3d
000003b0: a97a f2bd 205d 793d b5a6 7d3d 3fd9 653d
000003c0: 2662 a8bc 0c9a bcbd 2f7a dd3c cab9 05bd
000003d0: 9df5 03bd 1b6a 14bd bfe5 92bd 537f 313d
000003e0: e0ba 833d d6ad f33b 20e2 da3d eecd 7cbd
000003f0: a8e2 c4bd 888b 01be 5286 e0bd 8904 ddbd

feature_extract.mlps.1.linears.0.bias f4 [64]
-0.07441444 0.047538273 -0.013556571 0.034207903 -0.05067195 -0.07554121 -0.047602307 0.10050563
0.08778152 0.02366883 0.010944653 -0.020980984 0.089584135 -0.047312792 0.0384277 -0.037701093
0.11841276 0.011856777 0.09656917 0.11115983 -0.059554216 -0.092447616 0.003463436 0.02678563
0.12026546 0.10561225 -0.082913816 0.08087402 0.019351127 -0.07114515 -0.08512423 0.0840873
0.07786774 -0.107576825 -0.07575924 0.064814396 0.054845728 0.049702697 -0.057198327 0.007708279
0.0018838582 -0.0036162708 0.035026155 -0.00948419 0.07730187 -0.12389031 0.09623655 0.11478504
0.015125881 0.068910524 -0.05922128 0.1085109 0.01052377 -0.1155573 0.05822729 0.09290035
0.03347602 0.06200206 -0.008470337 0.053251375 0.10855393 -0.11697342 -0.07336854 -0.11400615
00000000: 9966 98bd 7eb7 423d 611c 5ebc 961d 0c3d
00000010: 648d 4fbd 5ab5 9abd a3fa 42bd e5d5 cd3d
00000020: ccc6 b33d 22e5 c13c 3451 333c 50e0 abbc
00000030: e377 b73d 0fcb 41bd 5d66 1d3d 766c 1abd
00000040: 6482 f23d ed42 423c 0fc6 c53d c4a7 e33d
00000050: 1fef 73bd 2d55 bdbd d0fa 623b 8a6d db3c
00000060: bd4d f63d 3c4b d83d b8ce a9bd 47a1 a53d
00000070: 4186 9e3c 8cb4 91bd 9d55 aebd f635 ac3d
00000080: 1f79 9f3d 3d51 dcbd a927 9bbd 69bd 843d
00000090: eaa5 603d 0e95 4b3d cb48 6abd bb95 fc3b
000000a0: cbeb f63a f5fe 6cbb 9677 0f3d 9363 1bbc
000000b0: 7150 9e3d 34ba fdbd ab17 c53d 6b14 eb3d
000000c0: 8bd2 773c f620 8d3d 0392 72bd f63a de3d
000000d0: e46b 2c3c 4ea9 ecbd bd7f 6e3d 8a42 be3d
000000e0: 271e 093d dff5 7d3d 2bc7 0abc 1d1e 5a3d
000000f0: 8651 de3d c38f efbd 3f42 96bd 0e7c e9bd

feature_extract.mlps.1.linears.1.weight f4 [64, 64]
-0.025997689 0.086256325 0.06414592 -0.012204828 -0.10117314 -0.08501577 0.10066172 0.09499796
0.04548177 -0.006275012 -0.10459991 -0.085358396 -0.08876519 0.078494735 -0.0593833 0.080809504
0.115210645 0.086252056 -0.023805173 0.004274834 0.1113265 -0.10527524 0.058882497 0.10718448
-0.019072032 -0.054993868 -0.111935385 -0.05381384 0.050410226 -0.04683847 0.06733986 -0.028395005
0.078084454 0.020787293 -0.108083196 -0.083391175 -0.06863845 0.102464736 -0.10048059 0.049750604
-0.1004259 0.037745688 -0.019729434 -0.06668691 0.10175024 -0.117561355 0.11646346 0.02735397
0.008019774 -0.07233767 -0.0047615906 0.0768294 0.069062814 0.123068616 -0.022850903 0.010822116
-0.04256409 -0.10849429 0.039820377 -0.100124836 0.085843794 -0.015192036 -0.012940885 0.0526012
0.014992896 0.08241441 0.0943922 -0.08159049 -0.11087023 -0.1137412 0.117052525 0.120272174
-0.0075453394 0.04115539 0.05154509 -0.11988302 0.0448219 -0.036695715 -0.09683078 0.000488102
0.07702065 -0.10697109 0.02780317 -0.08612759 -0.05660916 -0.029896585 0.06786994 -0.112658754
-0.04340004 0.06470087 0.02601073 0.027877023 0.09592393 -0.030748265 0.04666111 -0.06253835
-0.013374477 0.0044870474 -0.016427381 -0.10445824 0.065699376 0.05556639 0.04911947 0.056507826
-0.036909033 0.014034558 -0.060927037 0.062368296 -0.029746827 0.10925736 -0.069040865 0.12778288
0.118739046 -0.05544553 0.06435106 0.08150108 -0.12189827 0.09089988 0.0454933 -0.10614825
-0.038669925 -0.1081051 -0.048849754 -0.09218785 -0.084410936 -0.059486393 -0.030631522 -0.032423444
-0.008603284 0.069807775 0.074838325 -0.034029745 -0.079554744 0.1274184 0.11546337 -0.021091254
0.015438546 0.07214606 0.047343068 0.04737691 0.10368436 0.023155425 -0.028374342 -0.102462135
0.072996646 -0.038948674 -0.07149977 0.06467158 -0.10232409 0.09569107 -0.00743275 0.124466605
-0.061306592 0.103810966 -0.012236256 -0.12042991 0.01008718 -0.0035355212 0.04793665 0.018900502
0.008371516 -0.12890685 -0.08436014 -0.06770122 -0.04777668 -0.05582362 -0.041275237 0.056215614
0.04668157 -0.0074762367 -0.1331013 0.11099696 0.066221476 -0.12394208 0.08994401 0.09538179
0.09911479 0.0012029103 -0.09818268 -0.0088898055 -0.08651365 0.10286981 0.085432544 0.0221504
0.017668061 -0.050090916 -0.05725562 0.060934197 0.09042292 0.029084688 -0.014699706 0.0005570238
-0.012796744 -0.01236516 -0.011512919 0.022596601 0.019360337 0.10990167 -0.08880909 -0.049593206
0.030836167 0.10810653 0.11150718 0.06728773 0.00014298188 0.075183325 -0.08705996 0.022058683
-0.04350706 0.07745163 -0.06353089 0.11807674 0.015704527 -0.118623294 0.09552834 -0.001266532
-0.1308038 0.1168339 -0.06549855 -0.007496874 0.12178859 -0.042164825 -0.099478066 0.12777996
-0.0974179 0.11970168 0.111533366 0.07896338 0.06624772 0.02045552 -0.12077143 -0.094541654
0.08569142 0.11019775 0.069879144 -0.10364511 0.0700191 -0.00490768 -0.01710962 -0.11128489
-0.087821536 -0.12048926 0.02332336 0.12453205 -0.06715195 -0.049829353 -0.09812409 -0.11231999
0.11031699 0.070232496 -0.0051497705 0.032796983 0.085222796 -0.017906506 -0.085721835 0.026708217
00000000: 1bf9 d4bc 28a7 b03d f05e 833d c2f6 47bc
00000010: dd33 cfbd bf1c aebd bb27 ce3d 4a8e c23d
00000020: 184b 3a3d 9e9e cdbb 7a38 d6bd 62d0 aebd
00000030: 86ca b5bd d9c1 a03d e73b 73bd 747f a53d
00000040: 8ff3 eb3d eba4 b03d 1103 c3bc e813 8c3b
00000050: 26ff e33d 8c9a d7bd c62e 713d 8983 db3d
00000060: f33c 9cbc 4041 61bd 613e e5bd e76b 5cbd
00000070: f47a 4e3d b2d9 3fbd 7be9 893d a49c e8bc
00000080: beea 9f3d 1d4a aa3c b95a ddbd fec8 aabd
00000090: 5192 8cbd 08d9 d13d c4c8 cdbd 4ac7 4b3d
000000a0: 18ac cdbd 399b 1a3d 9f9f a1bc 2693 88bd
000000b0: 6e62 d03d 02c4 f0bd 6584 ee3d 6f15 e03c
000000c0: 5f65 033c c625 94bd 1e07 9cbb bc58 9d3d
000000d0: ce70 8d3d 660b fc3d d131 bbbc 3f4f 313c
000000e0: af57 2ebd 4132 debd b11a 233d 400e cdbd
000000f0: dfce af3d 04e8 78bc 0106 54bc 5b74 573d
00000100: c3a4 753c e3c8 a83d b350 c13d ea18 a7bd
00000110: ee0f e3bd 25f1 e8bd 3cb9 ef3d 4251 f63d
00000120: e53e f7bb 8e92 283d f220 533d 3b85 f5bd
00000130: 2b97 373d 3f4e 16bd 374f c6bd f1e7 ff39
00000140: 01bd 9d3d a913 dbbd 79c3 e33c a963 b0bd
00000150: 02df 67bd afe9 f4bc 65ff 8a3d a2b9 e6bd
00000160: 3ec4 31bd e481 843d 7414 d53c 5b5e e43c
00000170: c473 c43d c9e3 fbbc b81f 3f3d 1b14 80bd
00000180: 9f20 5bbc 1508 933b b792 86bc 34ee d5bd
00000190: 658d 863d 9599 633d 7f31 493d c074 673d
000001a0: ed2d 17bd 34f1 653c a18e 79bd e675 7f3d
000001b0: 9eaf f3bc 53c2 df3d 4c65 8dbd 84d9 023e
000001c0: 752d f33d da1a 63bd 7dca 833d 0aea a63d
000001d0: cda5 f9bd b729 ba3d 2f57 3a3d 4164 d9bd
000001e0: 5b64 1ebd 3566 ddbd ae16 48bd fccc bcbd
000001f0: a4df acbd 01a8 73bd f5ee fabc 72ce 04bd
00000200: caf4 0cbc 61f7 8e3d d644 993d c662 0bbd
00000210: 99ed a2bd f879 023e 0f78 ec3d 91c7 acbc
00000220: f5f1 7c3c 50c1 933d ceea 413d 4a0e 423d
00000230: 7758 d43d 72b0 bd3c 4f71 e8bc abd7 d1bd
00000240: 447f 953d a588 1fbd 796e 92bd 8972 843d
00000250: 4b8f d1bd aef9 c33d 6d8e f3bb 59e8 fe3d
00000260: 9f1c 7bbd d89a d43d 947a 48bc f5a3 f6bd
00000270: b344 253c 34b4 67bb 3959 443d 3ad5 9a3c
00000280: af28 093c 2800 04be 02c5 acbd f0a6 8abd
00000290: 7bb1 43bd 4fa7 64bd 3910 29bd 5842 663d
000002a0: 2d35 3f3d 38fb f4bb b54b 08be 6052 e33d
000002b0: 209f 873d 58d5 fdbd 9134 b83d 8757 c33d
000002c0: b2fc ca3d f9aa 9d3a 0014 c9bd 8ca6 11bc
000002d0: 122e b1bd 68ad d23d 42f7 ae3d c174 b53c
000002e0: 9cbc 903c 222c 4dbd de84 6abd 2396 793d
000002f0: a72f b93d 0343 ee3c 09d7 70bc 3c05 123a
00000300: 6fa9 51bc 3d97 4abc afa0 3cbc 821c b93c
00000310: 9299 9e3c 2014 e13d 8ae1 b5bd 3f22 4bbd
00000320: 219c fc3c f566 dd3d e05d e43d 26ce 893d
00000330: 68ed 1539 b7f9 993d 7e4c b2bd 69b4 b43c
00000340: 7534 32bd f69e 9e3d 7c1c 82bd 38d2 f13d
00000350: c8a6 803c c5f0 f2bd 5da4 c33d c301 a6ba
00000360: 6ef1 05be 9d46 ef3d 1b24 86bd 56a8 f5bb
00000370: 4c6c f93d 06b5 2cbd 28bb cbbd c0d8 023e
00000380: 0983 c7bd 2826 f53d 9b6b e43d 8db7 a13d
00000390: e2ac 873d 5692 a73c 0357 f7bd 0e9f c1bd
000003a0: fc7e af3d 5caf e13d cc1c 8f3d e343 d4bd
000003b0: 2d66 8f3d 9bd0 a0bb 7929 8cbc 55e9 e3bd
000003c0: c7db b3bd 13c3 f6bd a210 bf3c a90a ff3d
000003d0: f686 89bd dd19 4cbd 48f5 c8bd 0608 e6bd
000003e0: e0ed e13d 0ed6 8f3d 68bf a8bb 2156 063d
000003f0: 4a89 ae3d aab0 92bc ee8e afbd 31cb da3c

feature_extract.mlps.1.linears.1.bias f4 [64]
0.08067638 -0.03840802 -0.09104458 0.045765974 0.030723577 0.04529323 -0.022787068 -0.07003998
0.022237947 0.084047094 0.13039236 -0.08408855 -0.032170847 0.09698018 -0.08582096 0.09972873
0.03722749 0.0713124 -0.040474907 0.10344935 -0.121421896 0.08355678 0.006930269 0.03495068
0.066902004 -0.12583143 0.0059388466 0.0071443194 0.035193197 -0.01566955 0.023383042 -0.007830128
-0.10942377 -0.05678001 0.08657501 -0.102484815 -0.045353215 -0.10190563 -0.0053977706 0.05426515
-0.012180572 0.063852094 -0.07614648 -0.08081837 -0.106491745 0.06380262 0.022468433 -0.090838976
-0.11748528 -0.042203747 -0.0029730268 0.08485274 -0.084242955 0.08574297 0.048499733 -0.11714035
0.04680793 0.077197924 -0.071757376 0.08489167 0.11458061 -0.0906437 0.08519221 0.07862071
00000000: a839 a53d ba51 1dbd 9575 babd 1a75 3b3d
00000010: 03b0 fb3c 6585 393d f2ab babc 1f71 8fbd
00000020: 5b2c b63c e220 ac3d 9385 053e 9e36 acbd
00000030: 94c5 03bd 8b9d c63d e6c2 afbd 943e cc3d
00000040: da7b 183d 3c0c 923d 04c9 25bd 41dd d33d
00000050: 0bac f8bd d11f ab3d 4f17 e33b 7228 0f3d
00000060: eb03 893d f4d9 00be a89a c23b e51a ea3b
00000070: be26 103d 6e5d 80bc cb8d bf3c f049 00bc
00000080: 9219 e0bd 2892 68bd 3d4e b13d 8fe3 d1bd
00000090: 4bc4 39bd e6b3 d0bd c8df b0bb 2245 5e3d
000000a0: 0691 47bc e3c4 823d b0f2 9bbd 1a84 a5bd
000000b0: 5818 dabd f3aa 823d b80f b83c c909 babd
000000c0: 1f9c f0bd d6dd 2cbd 1dd7 42bb 46c7 ad3d
000000d0: 9287 acbd 039a af3d a8a7 463d 48e7 efbd
000000e0: acb9 3f3d f219 9e3d 88f5 92bd afdb ad3d
000000f0: 3da9 ea3d 67a3 b9bd 4179 ae3d e503 a13d

feature_extract.mlps.1.batch_norms.0.weight f4 [64]
0.9912857 0.9973567 1.0081234 0.99717623 0.9980385 1.0030684 1.0071805 0.99603367
0.9983379 1.0063031 0.9987246 1.0070236 0.99470955 0.995111 0.9911791 0.99527967
0.9967688 0.99232906 0.9944845 1.0060265 1.0153776 0.99834055 0.99319863 1.0029712
1.0057005 1.009636 1.0013797 1.0076529 1.0064481 1.0069364 0.9930905 1.007104
1.0048584 0.99537086 1.0038434 1.0023966 0.9925348 0.9976479 0.9926051 0.9908591
1.0018357 0.9943442 0.9967123 0.9892203 0.9967623 1.0117954 1.0078536 1.0092208
0.99776137 0.99384236 1.0075561 1.0044065 1.0009503 1.0101603 0.99328446 0.9940745
0.9901008 0.9962454 0.9947579 0.9946186 0.999059 1.0028478 1.0067265 1.0015882
00000000: e6c4 7d3f c552 7f3f 300a 813f f146 7f3f
00000010: 737f 7f3f 8c64 803f 4aeb 803f 10fc 7e3f
00000020: 1393 7f3f 8ace 803f 6aac 7f3f 26e6 803f
00000030: 49a5 7e3f 98bf 7e3f eabd 7d3f a6ca 7e3f
00000040: 3d2c 7f3f 4709 7e3f 8996 7e3f 7ac5 803f
00000050: e5f7 813f 3f93 7f3f 4442 7e3f 5c61 803f
00000060: cbba 803f c13b 813f 362d 803f c5fa 803f
00000070: 4bd3 803f 4be3 803f 2e3b 7e3f c9e8 803f
00000080: 339f 803f a0d0 7e3f f17d 803f 884e 803f
00000090: c316 7e3f da65 7f3f 5e1b 7e3f f1a8 7d3f
000000a0: 273c 803f 578d 7e3f 8a28 7f3f 8b3d 7d3f
000000b0: d02b 7f3f 8382 813f 5901 813f 262e 813f
000000c0: 4a6d 7f3f 746c 7e3f 99f7 803f 6490 803f
000000d0: 241f 803f ef4c 813f e447 7e3f ab7b 7e3f
000000e0: 3f77 7d3f f009 7f3f 74a8 7e3f 539f 7e3f
000000f0: 55c2 7f3f 515d 803f 6adc 803f 0b34 803f

feature_extract.mlps.1.batch_norms.0.bias f4 [64]
-0.008513732 -0.0025399367 0.0072544497 -0.003730608 -0.0048107584 0.004306956 0.0007370407 -0.0048040585
0.01120193 0.0051715462 0.00018745734 0.0067629404 -0.0027519364 -0.0042750966 -0.004791651 0.0029566714
-0.0052865776 -0.005223947 -0.008082074 0.0072718016 0.0054854844 -0.001652213 -0.007256339 0.0032914286
0.005161581 0.002166469 0.0017909147 0.0014683733 0.0062264414 0.0057760812 -0.005692815 0.008444081
0.004379591 -0.0038613025 0.000733371 0.0019854123 -0.0049874014 0.0021275645 -0.005251162 -0.0075966925
0.005087786 -0.0054376693 -0.002358098 -0.0058282134 -0.0044860295 0.008657682 0.005869856 0.0093651945
0.006395663 -0.005045997 0.0071493587 0.0055007194 0.0022087148 0.010848485 -0.0022634775 -0.0034916652
0.005260779 -0.0035680807 -0.0063820197 -0.0048902184 0.006775053 0.003632883 0.004335009 0.0023465808
00000000: 2e7d 0bbc 1175 26bb bcb6 ed3b 377d 74bb
00000010: 91a3 9dbb 5e21 8d3b f735 413a 5d6b 9dbb
00000020: 4d88 373c 1376 a93b 3290 4439 a89b dd3b
00000030: d559 34bb 1c16 8cbb 4803 9dbb b7c4 413b
00000040: 073b adbb a52d abbb ad6a 04bc 4b48 ee3b
00000050: 94bf b33b 128f d8ba 95c6 edbb 02b5 573b
00000060: 7b22 a93b 52fb 0d3b 20bd ea3a 6f76 c03a
00000070: 2d07 cc3b 4845 bd3b cb8a babb 0b59 0a3c
00000080: ac82 8f3b e80d 7dbb b23f 403a b11d 023b
00000090: 5b6d a3bb 9c6e 0b3b f111 acbb aded f8bb
000000a0: 71b7 a63b 7a2e b2bb 528a 1abb 99fa bebb
000000b0: 8bff 92bb f3d8 0d3c ec57 c03b 7970 193c
000000c0: b692 d13b e458 a5bb 2b45 ea3b 613f b43b
000000d0: 16c0 103b d8bd 313c da56 14bb 6cd4 64bb
000000e0: 9d62 ac3b 76d6 69bb 4320 d1bb 203e a0bb
000000f0: 4401 de3b aa15 6e3b b10c 8e3b 18c9 193b

feature_extract.mlps.1.batch_norms.0.running_mean f4 [64]
1.016027 -0.042466916 -0.24673396 -0.96176165 -0.15279026 0.088729456 0.0007888561 -0.42944777
0.9413697 -0.07146234 -0.6417355 -0.5177204 0.28851348 -0.03695368 0.8553311 1.1617733
0.58196396 -0.2965954 0.6146804 -0.35459563 0.31252646 -0.08877451 -0.71797335 -1.1331557
-0.004790266 -0.25520295 -0.42293438 0.59042275 -0.84338146 0.020810375 -0.37057322 -0.20039178
-0.93926024 -0.5337864 -0.22637875 0.40804094 -0.00467372 -0.87977546 0.85381234 -0.16543357
0.5685038 1.0724452 -0.13246931 0.31440964 -0.6236585 -0.033747453 -0.5877912 0.27054867
0.17085601 0.6033576 -0.8200088 0.08507586 0.7363615 -0.19574876 0.10773441 0.46026
0.7204861 0.017296895 0.93949974 -1.3469723 0.65160644 -0.17769684 0.62204635 0.19358611
00000000: 2c0d 823f caf1 2dbd d4a7 7cbe 0336 76bf
00000010: 0d75 1cbe cab7 b53d 3dcb 4e3a 94e0 dbbe
00000020: 9bfd 703f d95a 92bd c748 24bf 5389 04bf
00000030: 0ab8 933e be5c 17bd fbf6 5a3f fdb4 943f
00000040: 97fb 143f 5adb 97be b25b 1d3f 8f8d b5be
00000050: 7803 a03e 69cf b5bd 1acd 37bf 3f0b 91bf
00000060: aaf7 9cbb f6a9 82be db8a d8be f225 173f
00000070: d9e7 57bf 857a aa3c c6bb bdbe 8133 4dbe
00000080: 5c73 70bf 3aa6 08bf d5cf 67be beea d03e
00000090: 0126 99bb f738 61bf 7293 5a3f 6b67 29be
000000a0: 7789 113f e245 893f 09a6 07be 4dfa a03e
000000b0: 15a8 1fbf c53a 0abd 7c79 16bf 5b85 8a3e
000000c0: e1f4 2e3e a575 1a3f 19ec 51bf 413c ae3d
000000d0: 3082 3c3f 5d72 48be dca3 dc3d 33a7 eb3e
000000e0: c771 383f 38b2 8d3c 0e83 703f 9769 acbf
000000f0: aecf 263f 29f6 35be 6e3e 1f3f 703b 463e

feature_extract.mlps.1.batch_norms.0.running_var f4 [64]
0.30444154 0.5666025 0.40275237 0.49378258 0.9832417 0.018026657 0.20514917 0.5757967
0.5923398 0.4367783 0.45590326 0.33717045 0.41513637 1.4761174 0.5921404 0.98728657
0.54697394 0.7478919 0.51529664 0.51669407 1.4103109 0.36071408 0.99793607 1.3240156
0.7420395 1.1278447 0.791392 0.41066977 0.48634425 0.9961583 0.26883298 0.19301005
0.36265308 0.606547 0.26497278 0.7203527 0.2791803 0.6515134 0.7146242 0.5710158
0.4305241 0.54899246 0.7409935 0.3062911 0.6509648 1.367837 0.36761206 0.17395306
1.5732986 0.53595114 0.6787862 0.34208238 0.3747817 0.3387925 0.20219223 0.14988498
0.6227747 0.23619531 0.8261445 1.0378412 0.71700686 0.58064187 1.1123133 0.6215146
00000000: c3df 9b3e dd0c 113f 8f35 ce3e 12d1 fc3e
00000010: bab5 7b3f a4ac 933c a012 523e 6a67 133f
00000020: 95a3 173f 68a1 df3e 276c e93e 9ba1 ac3e
00000030: c18c d43e 6af1 bc3f 8396 173f d0be 7c3f
00000040: 7c06 0c3f d875 3f3f 7bea 033f 1046 043f
00000050: 1185 b43f 84af b83e bd78 7f3f 5879 a93f
00000060: 4df6 3d3f 375d 903f ab98 4a3f 4f43 d23e
00000070: 1d02 f93e 3b04 7f3f 7aa4 893e 6da4 453e
00000080: aaad b93e aa46 1b3f 83aa 873e 0969 383f
00000090: b8f0 8e3e 95c9 263f 9df1 363f 172e 123f
000000a0: a86d dc3e c58a 0c3f c0b1 3d3f 30d2 9c3e
000000b0: a1a5 263f 4815 af3f a637 bc3e c020 323e
000000c0: d961 c93f 1834 093f efc4 2d3f 6c25 af3e
000000d0: 63e3 bf3e 3676 ad3e 7b0b 4f3e 737b 193e
000000e0: 2a6e 1f3f 2fdd 713e 357e 533f fbd7 843f
000000f0: c38d 373f f2a4 143f 4860 8e3f 951b 1f3f

feature_extract.batch_norms.0.weight f4 [64]
0.9934346 0.99904466 1.000982 0.9984377 1.0034403 0.9975857 0.99762684 1.0017364
0.99813557 0.9957764 0.99713963 1.002397 1.0037392 0.99439895 1.0054263 0.99968815
0.995306 1.0036417 0.9981646 1.0000547 1.0026299 1.0049591 0.9969503 1.0017459
1.0028188 0.9923122 1.0050083 0.99794817 1.0042841 0.9928971 0.99687266 0.9959436
1.0031378 1.0007187 1.0031344 0.997542 0.9892258 1.0049667 0.99498975 1.000707
1.005489 0.99449325 1.0027627 0.9959132 0.99912906 1.0003296 0.99866366 1.0045807
1.0056825 0.9935201 1.0046552 0.9994856 1.0009457 0.99314326 1.0008562 0.9984692
1.0011381 1.0010093 1.00598 1.000668 1.0032172 0.9972529 0.9940961 1.0022942
00000000: bb51 7e3f 64c1 7f3f 2e20 803f 9d99 7f3f
00000010: bb70 803f c761 7f3f 7964 7f3f e638 803f
00000020: d085 7f3f 34eb 7e3f 8b44 7f3f 8b4e 803f
00000030: 877a 803f ee90 7e3f cfb1 803f 90eb 7f3f
00000040: 60cc 7e3f 5577 803f b787 7f3f cb01 803f
00000050: 2d56 803f 80a2 803f 2338 7f3f 3639 803f
00000060: 5e5c 803f 2c08 7e3f 1da4 803f 8879 7f3f
00000070: 628c 803f 812e 7e3f 0c33 7f3f 29f6 7e3f
00000080: d266 803f 8d17 803f b566 803f ea5e 7f3f
00000090: e73d 7d3f c0a2 803f a6b7 7e3f 2b17 803f
000000a0: ddb3 803f 1c97 7e3f 875a 803f 2bf4 7e3f
000000b0: ecc6 7f3f cd0a 803f 6ca8 7f3f 1a96 803f
000000c0: 34ba 803f 5557 7e3f 8b98 803f 4ade 7f3f
000000d0: fd1e 803f a33e 7e3f 0e1c 803f ad9b 7f3f
000000e0: 4b25 803f 1321 803f f4c3 803f e415 803f
000000f0: 6c69 803f f74b 7f3f 157d 7e3f 2d4b 803f

feature_extract.batch_norms.0.bias f4 [64]
-0.0014943967 -0.00071851833 0.0028249042 -0.0013177646 0.0035631948 -0.0025244313 -0.005858646 0.005296314
-0.005710679 -0.0033165845 0.00078816887 0.0023689026 0.0026937234 -0.0056496854 0.004201584 0.0038816642
-0.004041999 0.0026337064 0.008408936 0.0026309995 0.003493589 0.003933424 -0.0019262108 0.0012145801
0.007349537 -0.010490873 0.0013347776 -0.001424167 0.00480573 -0.0063785627 -0.0052111587 0.0040582186
0.004344045 -0.0006272238 0.004439937 -0.004412591 0.001020381 0.003754945 -0.0039661275 -0.0024773737
0.003805096 -0.004620016 0.0030980718 -0.0034000198 -0.0001417303 -0.0012707617 -0.001183434 0.004034399
0.0054895575 -0.0031337563 0.0017753494 0.00035545573 0.0011202026 -0.0059410837 0.0018518509 -0.00087904185
0.00027986243 0.000525171 0.006410751 0.0038095072 0.0030267732 -0.004903495 -0.0076172836 0.003132825
00000000: a2df c3ba f35a 3cba 0722 393b d8b8 acba
00000010: 7d84 693b ee70 25bb e2f9 bfbb b48c ad3b
00000020: a620 bbbb 0e5b 59bb 1e9d 4e3a 973f 1b3b
00000030: 2e89 303b ff20 b9bb 71ad 893b 8563 7e3b
00000040: bf72 84bb 439a 2c3b a2c5 093c d96c 2c3b
00000050: b3f4 643b f4e3 803b e978 fcba 8c32 9f3a
00000060: 63d4 f03b e9e1 2bbc b4f3 ae3a 1dab baba
00000070: 6379 9d3b 4303 d1bb 5ec2 aabb cefa 843b
00000080: 7e58 8e3b 476c 24ba e47c 913b 7f97 90bb
00000090: 4ebe 853a 8615 763b 4af6 81bb 6f5b 22bb
000000a0: eb5e 793b 8163 97bb 0509 4b3b ded2 5ebb
000000b0: 709d 14b9 b08f a6ba 751d 9bba fe32 843b
000000c0: bfe1 b33b b55f 4dbb d7b2 e83a 765c ba39
000000d0: c3d3 923a 6cad c2bb ceb9 f23a 806f 66ba
000000e0: 80ba 9239 a1ab 093a 4711 d23b eda8 793b
000000f0: d45c 463b 7fad a0bb 689a f9bb 1550 4d3b

feature_extract.batch_norms.0.running_mean f4 [64]
0.060628973 0.020445812 -0.11492376 0.11299768 -0.13278423 0.00548418 -0.009768952 -0.15394771
-0.121696934 0.18374266 -0.03857013 -0.14987144 0.11289626 -0.032777462 0.14146493 -0.089887366
-0.080714606 -0.104044385 -0.18798375 0.33571154 -0.08866426 0.45751163 0.3441143 0.25134242
0.07202751 0.68311816 -0.13929412 0.16586813 -0.010169363 -0.3923587 0.36394787 0.017190443
-0.22839975 -0.24544427 -0.0066727703 0.029632995 -0.03867866 -0.35915002 0.39214104 0.1944868
-0.0030557185 -0.2183603 -0.10619431 0.0027712302 0.1215934 0.18351334 0.12613373 -0.24896036
0.08878569 0.18237235 0.45924088 -0.009228602 0.0032187214 0.2035326 0.16349363 0.2713387
0.02117658 -0.14711721 0.45295164 0.23252206 -0.49015978 -0.037625995 -0.17772996 0.13733946
00000000: 1656 783d fa7d a73c 265d ebbd 546b e73d
00000010: 97f8 07be a3b4 b33b f40d 20bc 78a4 1dbe
00000020: 3e3c f9bd 0927 3c3e b6fb 1dbd e677 19be
00000030: 2836 e73d a941 06bd 2fdc 103e de16 b8bd
00000040: b34d a5bd 3915 d5bd d07e 40be 62e2 ab3e
00000050: 9c95 b5bd f73e ea3e c02f b03e f4af 803e
00000060: 2983 933d d5e0 2e3f 1ea3 0ebe 56d9 293e
00000070: 669d 26bc 3de3 c8be 6057 ba3e f9d2 8c3c
00000080: a0e1 69be be55 7bbe 41a7 dabb e5c0 f23c
00000090: 846d 1ebd 83e2 b7be b6c6 c83e 8c27 473e
000000a0: 7342 48bb d899 5fbe 677c d9bd 879d 353b
000000b0: f605 f93d ecea 3b3e 3329 013e 77ef 7ebe
000000c0: 46d5 b53d d1bf 3a3e 9f21 eb3e 9033 17bc
000000d0: 2ff1 523b da6a 503e e06a 273e e8ec 8a3e
000000e0: 827a ad3c e5a5 16be 47e9 e73e 431a 6e3e
000000f0: 39f6 fabe b71d 1abd d8fe 35be b7a2 0c3e

feature_extract.batch_norms.0.running_var f4 [64]
0.03446122 0.009302675 0.11713243 0.09531259 0.027281035 0.015929831 0.026567824 0.27604073
0.20701925 0.022759816 0.26358074 0.03296078 0.3212995 0.07667621 0.01668591 0.017726054
0.0071925973 0.15004657 0.15228958 0.28660712 0.0017387049 0.18938376 0.03464222 0.017388623
0.012158707 0.13578036 0.08441983 0.0707496 0.042331517 0.062175643 0.0726633 0.084307045
0.054311223 0.28443664 0.021727506 0.10513606 0.012111934 0.031782057 0.11095229 0.11085999
0.055883 0.045062687 0.016037747 0.048446372 0.008894159 0.026923522 0.119520545 0.028804474
0.35530284 0.04894571 0.17664613 0.04659606 0.0693808 0.06993168 0.041386873 0.22120033
0.012138379 0.1964475 0.082060225 0.16152781 0.035031796 0.18070678 0.54131734 0.27402562
00000000: 3527 0d3d 3f6a 183c 21e3 ef3d 3f33 c33d
00000010: 7a7c df3c 477f 823c c4a4 d93c 3655 8d3e
00000020: dbfc 533e cb72 ba3c 0ef4 863e e201 073d
00000030: 5e81 a43e 6b08 9d3d e4b0 883c 3b36 913c
00000040: e1af eb3b cfa5 193e cdf1 1b3e 2bbe 923e
00000050: 41e5 e33a d1ed 413e 00e5 0d3d 9672 8e3c
00000060: 5035 473c 020a 0b3e 4ee4 ac3d 2be5 903d
00000070: d063 2d3d e3ab 7e3d 7fd0 943d 2ca9 ac3d
00000080: 7275 5e3d aea1 913e e2fd b13c 9351 d73d
00000090: 2271 463c e72d 023d f43a e33d 900a e33d
000000a0: 93e5 643d a793 383d 9861 833c b46f 463d
000000b0: cfb8 113c b88e dc3c 30c7 f43d 5cf7 eb3c
000000c0: 41ea b53e 4c7b 483d b9e2 343e 83db 3e3d
000000d0: 8517 8e3d 5738 8f3d 4885 293d 5782 623e
000000e0: 0de0 463c 8929 493e 310f a83d 8c67 253e
000000f0: 807d 0f3d 330b 393e c693 0a3f 164d 8c3e

feature_extract.batch_norms.1.weight f4 [64]
1.0131325 1.0119053 1.012584 1.0047262 1.0174186 1.0100855 1.0113312 1.0121081
1.0101969 1.0092046 1.0092288 1.0073353 1.0118823 1.0096611 1.0081191 1.0060816
0.99090093 1.0094215 0.98794794 1.00497 1.0072685 0.99927104 0.9960165 1.0073884
1.0115064 1.0147096 1.0032277 1.0147069 0.9930259 1.0068266 1.0113398 1.0102038
0.9962436 1.0093943 0.99389434 1.0046515 1.0024279 1.0094157 1.0116836 1.0120248
1.0096782 0.9961473 1.0105386 1.0133562 0.9998171 1.0107208 1.0105168 1.008927
1.0008384 1.0068221 1.005569 1.0111058 1.0122783 1.0078441 1.0003246 1.0096517
1.0094398 1.0137124 1.0136029 1.0077215 1.0107528 1.0187764 0.99104613 0.9954254
00000000: 53ae 813f 1d86 813f 5a9c 813f de9a 803f
00000010: c63a 823f 7b4a 813f 4d73 813f c28c 813f
00000020: 224e 813f 9e2d 813f 692e 813f 5df0 803f
00000030: 5c85 813f 933c 813f 0c0a 813f 48c7 803f
00000040: afab 7d3f b934 813f 28ea 7c3f dba2 803f
00000050: 2dee 803f 3ad0 7f3f f0fa 7e3f 1af2 803f
00000060: 0b79 813f 01e2 813f c469 803f eae1 813f
00000070: f236 7e3f b2df 803f 9573 813f 5c4e 813f
00000080: d209 7f3f d533 813f dc6f 7e3f 6c98 803f
00000090: 8f4f 803f 8934 813f d97e 813f 078a 813f
000000a0: 233d 813f 8203 7f3f 5459 813f a8b5 813f
000000b0: 03f4 7f3f 4d5f 813f 9d58 813f 8524 813f
000000c0: 791b 803f 8cdf 803f 7cb6 803f ea6b 813f
000000d0: 5692 813f 0901 813f a30a 803f 443c 813f
000000e0: 5335 813f 54c1 813f bdbd 813f 05fd 803f
000000f0: 5960 813f 4467 823f 33b5 7d3f 33d4 7e3f

feature_extract.batch_norms.1.bias f4 [64]
0.0129519375 0.008718341 0.011213384 0.006316419 0.007977815 0.0117606195 0.009722582 0.011870562
0.010040569 0.009650744 0.009399478 0.0072969003 0.0051882085 0.0062849545 0.008188934 0.006306412
-0.010181388 0.008006535 -0.014319875 -0.004415064 0.0072874655 -0.0002572306 -0.0041730106 0.00689852
0.011540401 0.012760995 0.0013460089 0.014094553 -0.0067180893 0.006421009 0.010117744 0.010096409
-0.005908154 0.00898212 -0.006049141 -0.0056815697 0.00040043052 0.009432622 -0.00031375265 0.012440259
0.009577043 -0.003966732 0.008921715 0.015434958 0.0019344551 0.010646971 0.010310387 0.009866247
-0.0029412108 0.0073277513 -0.0042274427 0.009011323 0.01178988 0.007726851 -0.0012841641 0.009698429
0.0063584913 0.013177539 0.011464617 0.0065663154 0.012250577 0.00280779 -0.010492713 -0.004538666
00000000: 5d34 543c 5fd7 0e3c 57b8 373c f7f9 ce3b
00000010: 62b5 023c 9daf 403c 774b 1f3c bf7c 423c
00000020: 3381 243c 271e 1e3c 4500 1a3c d61a ef3b
00000030: d901 aa3b 05f2 cd3b e12a 063c 05a6 ce3b
00000040: d6cf 26bc d72d 033c e99d 6abc 3eac 90bb
00000050: b1cb ee3b e8dc 86b9 c0bd 88bb fb0c e23b
00000060: f313 3d3c 7e13 513c 906c b03a d7ec 663c
00000070: 6b23 dcbb 5467 d23b e5c4 253c 696b 253c
00000080: 3099 c1bb be29 133c df37 c6bb 762c babb
00000090: e0f0 d139 498b 1a3c 2b7f a4b9 3ad2 4b3c
000000a0: 08e9 1c3c 5cfb 81bb 632c 123c e8e2 7c3c
000000b0: 8b8d fd3a a270 2e3c e6ec 283c 0aa6 213c
000000c0: 54c1 40bb a21d f03b 5c86 8abb 3aa4 133c
000000d0: 572a 413c 8631 fd3b 6651 a8ba 29e6 1e3c
000000e0: e45a d03b 9be6 573c 17d6 3b3c 3f2a d73b
000000f0: a5b6 483c e602 383b a1e9 2bbc 17b9 94bb
