30_20_1_99_sw_1_0.5_v0.pth (torch, 93570 bytes, 30 tensors)

feature_extract.mlps.0.linears.0.weight f4 [64, 2]
0	0xbe966daa	-0.29380542
1	0x3eda822d	0.4267744
2	0x3f00bb33	0.50285643
3	0xbe7069af	-0.23477815
4	0x3d767894	0.060173586
5	0xbedfd8e1	-0.43720153
6	0xbf09536c	-0.53642917
7	0x3eb180e0	0.34668636
8	0x3f057f8d	0.5214775
9	0xbbe1da74	-0.0068924967
10	0xbf34548c	-0.7044151
11	0xbe416232	-0.18885115
12	0xbed732be	-0.420309
13	0xbe476ec6	-0.1947585
14	0xbe57874d	-0.21047707
15	0xbf147a44	-0.5799906
16	0xbec2fcb8	-0.38083434
17	0x3e9437c8	0.28948808
18	0xbeb60d13	-0.3555685
19	0xbeab132d	-0.33413067
20	0xbec80a0c	-0.39070165
21	0x3f0f3071	0.5593329
22	0xbe9fb763	-0.311946
23	0xbe5ecc85	-0.21757706
24	0xbe0d5d12	-0.13805035
25	0x3f2aaaa3	0.6666662
26	0xbecf54e8	-0.40494466
27	0x3e83098a	0.25593215
28	0x3f1bc3af	0.60845464
29	0x3e164bfc	0.14677423
30	0x3f34276d	0.7037266
31	0xbeb0dff2	-0.34545857
32	0x3f077b78	0.52922773
33	0xbf21718b	-0.6306388
34	0x3ec6e2bb	0.38844857
35	0xbf0695fb	-0.525726
36	0xbf0e8331	-0.5566893
37	0x3e0040b3	0.12524681
38	0xbb785b8c	-0.0037896363
39	0x3e690152	0.2275441
40	0x3c8d450b	0.017244836
41	0x3c4ca9f3	0.012491691
42	0xbeb13dc5	-0.3461744
43	0x3e666e9e	0.22503135
44	0xbe5fe3ad	-0.21864195
45	0x3e0d61bc	0.13806814
46	0x3c939548	0.018015519
47	0xbd39e186	-0.04538109
48	0xbe9fc670	-0.31206083
49	0x3f01c130	0.50685406
50	0xbf21b941	-0.631733
51	0xbc904b9d	-0.01761418
52	0x3ec24973	0.37946662
53	0xbe382a3d	-0.17984863
54	0x3ef27237	0.47352764
55	0xbef8d784	-0.48601925
56	0xbf19e546	-0.6011547
57	0xbeaa2b32	-0.3323608
58	0xbf066db0	-0.5251112
59	0xbc8a900a	-0.016914386
60	0xbe8c48b5	-0.2739922
61	0x3e71e3d4	0.23622066
62	0x3edcb4d0	0.431067
63	0x3e06023c	0.1308679
64	0xbcbcf26f	-0.02306482
65	0xbe86589b	-0.26239476
66	0xbeb4d006	-0.3531496
67	0x3f0fcd04	0.56172204
68	0x3f07446f	0.52838796
69	0x3eaeb521	0.34122565
70	0xbea5116b	-0.3223985
71	0xbe83af7c	-0.2571982
72	0x3d9bf903	0.076158546
73	0x3d59dc20	0.053188443
74	0xbd40157d	-0.046895493
75	0xbedc508f	-0.4303021
76	0xbef24369	-0.47317055
77	0x3ebc07b0	0.36724615
78	0x3ecbe1df	0.39820763
79	0x3f10ccfc	0.5656278
80	0x3f2c092f	0.67201513
81	0xbe1b39c1	-0.1515875
82	0xbd5fd6fc	-0.054648384
83	0x3d028c41	0.031872038
84	0x3e12dfc2	0.1434317
85	0x3e12adc4	0.14324099
86	0x3ce4c4f4	0.027925946
87	0xbeac3581	-0.3363457
88	0xbc6692a2	-0.014073046
89	0x3ec130b0	0.37732458
90	0x3ea59da6	0.3234684
91	0x3f23ac11	0.6393443
92	0x3ea6d3e6	0.3258354
93	0xbf2abe07	-0.6669621
94	0x3e96eece	0.2947907
95	0xbf0d18e5	-0.5511611
96	0x3f0dc3a3	0.5537664
97	0xbf0e2c93	-0.55536765
98	0xbf0e9e52	-0.5571033
99	0x3e255e19	0.16149177
100	0x3e11ebb0	0.14250064
101	0x3f00bb5b	0.5028588
102	0xbee90d09	-0.45517758
103	0x3f0f10c7	0.55884975
104	0x3df769c8	0.12080723
105	0xbdfd6b19	-0.12373943
106	0xbf012271	-0.5044318
107	0x3ead56eb	0.33855376
108	0x3db1390f	0.08653461
109	0x3f1051fb	0.5637509
110	0xbed116e7	-0.40837786
111	0x3f19a007	0.6000981
112	0xbef285bd	-0.4736766
113	0xbed58ac8	-0.41707444
114	0x3eca0435	0.39456335
115	0xbdb8793a	-0.09007497
116	0xbedd7be5	-0.43258587
117	0xbd4afce9	-0.0495576
118	0x3f31272d	0.692004
119	0xbd0141b5	-0.031556804
120	0x3e7e0387	0.24806033
121	0xbe242fbc	-0.16033834
122	0x3e278e36	0.16362843
123	0x3f2ff59a	0.68734133
124	0x3ead678c	0.33868062
125	0xbefe1803	-0.49627694
126	0xbed6c747	-0.41948912
127	0xbdd64cb8	-0.10463852

feature_extract.mlps.0.linears.0.bias f4 [64]
0	0x3ea339ef	0.31880137
1	0xbec81bf5	-0.3908383
2	0xbd494b66	-0.04914417
3	0x3eb24f06	0.34825915
4	0xbeb3d88c	-0.3512615
5	0xbec5b14a	-0.38611823
6	0x3c36b659	0.0111518735
7	0xbf13eeeb	-0.57786435
8	0x3e969fe5	0.29418865
9	0xbe4c0f00	-0.19927597
10	0x3f10eae9	0.56608444
11	0x3d608705	0.054816265
12	0x3ead2f20	0.33825016
13	0xbdf8ddf7	-0.121517114
14	0xbe7ee70b	-0.24892823
15	0xbe9c5743	-0.30535325
16	0x3eb003fc	0.3437804
17	0x3f2426f6	0.6412195
18	0x3e8351f0	0.2564845
19	0xbe25f171	-0.16205384
20	0x3eba2da2	0.3636294
21	0xbf09dbb7	-0.53850883
22	0xbf1b5f8d	-0.60692674
23	0xbe6b5fbc	-0.22985739
24	0x3ea08edd	0.31358996
25	0xbd921688	-0.07133204
26	0xbef92824	-0.48663437
27	0xbf1619a6	-0.58632886
28	0x3eb364b4	0.35037768
29	0xbebc0c57	-0.36728165
30	0xbe944096	-0.28955525
31	0x3f22d7ad	0.63610345
32	0x3dd0726a	0.10178073
33	0xbed35d6c	-0.41282213
34	0x3d6f5121	0.05842698
35	0x3ec5f520	0.38663578
36	0xbea81daf	-0.32835147
37	0xbee37749	-0.44426945
38	0xbf29e822	-0.6636983
39	0xbf1a5fcd	-0.6030243
40	0xbf073a1c	-0.5282304
41	0x3ebc1a3f	0.36738774
42	0x3d72340a	0.05913166
43	0x3e5a556f	0.21321653
44	0x3ecdb08a	0.4017375
45	0x3f227f37	0.63475364
46	0xbe41f264	-0.18940121
47	0x3f2211f3	0.6330864
48	0x3de34079	0.110962816
49	0x3f110cc3	0.566601
50	0xbf289a9a	-0.65860903
51	0xbe9eca8d	-0.3101391
52	0xbe86972d	-0.26287213
53	0x3f042d01	0.5163117
54	0x3ed4398f	0.41450164
55	0xbf320709	-0.69541985
56	0xbecc4aee	-0.39900917
57	0xbf0c357e	-0.5476912
58	0xbf31532e	-0.6926755
59	0xbf289bf1	-0.6586295
60	0x3eab3f31	0.3344665
61	0x3e805199	0.25062254
62	0xbd60c702	-0.05487729
63	0xbcf79c9e	-0.030226048

feature_extract.mlps.0.linears.1.weight f4 [64, 64]
0	0xbd7f0775	-0.06226297
1	0x3d8403b4	0.06446019
2	0xbde73989	-0.11290271
3	0xbdbb8dc6	-0.091579005
4	0xbdd34fd1	-0.10317958
5	0xbd6c1b23	-0.057643067
6	0xbdcbfe68	-0.099606335
7	0x3d9b62c1	0.07587195
8	0xbdf1fb67	-0.11815529
9	0x3c323fd9	0.01087948
10	0x3d00612e	0.031342678
11	0x3a51ba4b	0.0008000477
12	0x3d80c3fc	0.06287381
13	0x3df44e85	0.11929039
14	0x3d8804f6	0.06641571
15	0x3cf5e2a5	0.0300153
16	0xbd516577	-0.051122155
17	0xbc71a150	-0.014747933
18	0x3def1d28	0.11675483
19	0x3d4c27ef	0.04984277
20	0xbd0560b6	-0.032562934
21	0xbc44a18a	-0.012001405
22	0xbddb457c	-0.107066125
23	0xbdd58494	-0.10425678
24	0x3d9f2d0a	0.077722624
25	0x3c69fa11	0.014280812
26	0x3dbb344b	0.091408335
27	0x3d9dcce9	0.07705099
28	0xbc9b3c92	-0.01894978
29	0x3dd73afe	0.10509299
30	0x3d28fa88	0.04125455
31	0x3dbd3776	0.09239094
32	0x3d9a2259	0.075260825
33	0x3df37a5a	0.11888571
34	0xbda2a270	-0.07941139
35	0xbc906a0c	-0.017628692
36	0x3d8c4070	0.06848228
37	0xbdea4ab7	-0.11440032
38	0x3ce0dd45	0.02744926
39	0xbdd6ca4f	-0.10487806
40	0xbd701eec	-0.05862324
41	0xbd4ad820	-0.04952252
42	0xbd735271	-0.059404794
43	0x3cecb190	0.028893262
44	0x3dd333c3	0.10312607
45	0xbdd933cf	-0.10605585
46	0x3da6453a	0.08118673
47	0xbd48d066	-0.04902687
48	0xbc57ee79	-0.013179415
49	0xbcaa5c53	-0.020795977
50	0xbcc04d34	-0.023474313
51	0xb9a3d084	-0.0003124514
52	0xbd132ea8	-0.035933167
53	0xbda64353	-0.0811831
54	0x3bd8f3b7	0.00662085
55	0x3d758280	0.059938908
56	0x3cb93a7e	0.022610899
57	0x3d86d2de	0.065831885
58	0xbd18d298	-0.037310213
59	0x3c2998ff	0.0103514185
60	0x3da6993e	0.081346974
61	0x3df46a36	0.11934321
62	0xbdf875ad	-0.1213182
63	0x3dbc47e5	0.091934
64	0x3dbaa70e	0.091138944
65	0xbdb664d6	-0.08905952
66	0xbd344374	-0.04400964
67	0x3d3a0472	0.045414396
68	0x3da0d44b	0.07852992
69	0xbdf7a9f6	-0.12092964
70	0x3bbcd237	0.0057623642
71	0xbae0d6f2	-0.0017153902
72	0xbc1cbdc0	-0.009566724
73	0x3dd93c6d	0.106072284
74	0x3bb92b9f	0.005650952
75	0xbd5dcfca	-0.05415324
76	0x3dbb9b44	0.09160474
77	0xbd1096ee	-0.035300188
78	0x3db532a3	0.08847549
79	0x3dcd5ba6	0.10027246
80	0x3d291f9d	0.041289914
81	0xbda70f4e	-0.08157216
82	0xbd6d809e	-0.057983987
83	0xbdc51cca	-0.09624632
84	0xbd80e252	-0.06293167
85	0xbdf5a536	-0.11994402
86	0x3ad48a96	0.0016215618
87	0xbd5093e6	-0.050922297
88	0x3ddca839	0.107742734
89	0x3cc0e491	0.023546489
90	0xbd74ffbb	-0.059814196
91	0xbe037055	-0.1283582
92	0x3d6b3de8	0.057432085
93	0xbde7cb9a	-0.11318131
94	0xbd4357f1	-0.04769129
95	0x3d539a24	0.05166067
96	0x3d6c78aa	0.05773226
97	0xbd19a51c	-0.037510976
98	0x3db1c3cd	0.08679924
99	0xbd7cfc5e	-0.061764114
100	0xbd90e9b5	-0.07075826
101	0x3da3a8c0	0.07991171
102	0x3b8d775a	0.0043172063
103	0x3d63d920	0.05562699
104	0x3c553669	0.013013461
105	0x3d14f58f	0.036366995
106	0xbd8d1193	-0.06888118
107	0x3d1508b4	0.036385253
108	0xbc89071d	-0.016727025
109	0xbd9bd64f	-0.076092355
110	0x3dec8d0c	0.1155034
111	0x3d925743	0.0714555
112	0xbbaa4b70	-0.005196981
113	0x3dedb0ab	0.11605962
114	0xbde72bd4	-0.112876564
115	0x3dac4472	0.084114924
116	0xbc15909f	-0.009128719
117	0xbda788a7	-0.08180361
118	0x3e030f59	0.12798823
119	0x3de183d3	0.110114716
120	0xbd449c36	-0.048000537
121	0xbd85743f	-0.06516313
122	0xbd532efc	-0.05155848
123	0xbd2abb2b	-0.041682404
124	0x3ce86a93	0.028371131
125	0x3d5e8cb3	0.0543334
126	0x3c9d8264	0.019227214
127	0xbdfe09d3	-0.124042176
128	0xbdab7cbd	-0.08373401
129	0xbd259c5e	-0.040432326
130	0xbc628a4e	-0.01382692
131	0xbc21ab45	-0.009867494
132	0x3ad517a8	0.001625766
133	0xbc75756c	-0.014981609
134	0xbdb1813b	-0.08667227
135	0x3d3037a4	0.043021813
136	0xbdcb43d9	-0.0992505
137	0xbdbdf4fc	-0.09275243
138	0x3bb541c4	0.0055315215
139	0x3df7da0d	0.12102137
140	0xbd53de93	-0.051725935
141	0xbdd6a3de	-0.10480474
142	0xb80361d1	-3.1323932e-05
143	0x3d571f5d	0.052520145
144	0x3d08f505	0.033436794
145	0xbb41410a	-0.002948823
146	0xbd947fc8	-0.07250935
147	0x3b82a71d	0.0039872066
148	0x3c25ce84	0.010120038
149	0xbde28d35	-0.11062089
150	0x3d3ba848	0.045814782
151	0x3d002ff1	0.03129572
152	0x3d284472	0.0410809
153	0x3dba8aa8	0.09108478
154	0xbd594b79	-0.053050492
155	0x3d42afd2	0.047530957
156	0x3dccf28a	0.10007198
157	0xbdec7c36	-0.11547129
158	0xbddbb092	-0.107270375
159	0x3c55b9d9	0.013044798
160	0xbd46501a	-0.048416235
161	0x3d8c5d17	0.06853693
162	0x3e0003aa	0.12501398
163	0xbbff818f	-0.007797427
164	0x3c55905e	0.013034908
165	0xbda3a227	-0.079899125
166	0x3de7459f	0.11292576
167	0xbcf8a9bd	-0.030354375
168	0xbd9fdb6b	-0.078055225
169	0xbdf456d3	-0.11930623
170	0xbd9a01a9	-0.07519848
171	0xbc3d524c	-0.011555266
172	0xbd823dfd	-0.063594796
173	0xbac8e0d4	-0.0015325793
174	0x3bbc564c	0.005747592
175	0xbb8064ff	-0.0039182897
176	0xba28eed4	-0.00064442796
177	0xbc23d20d	-0.0099988105
178	0x3d830b95	0.063986935
179	0xbdf63b1f	-0.12022995
180	0xbdbc6f31	-0.092008956
181	0xbc95abd9	-0.01827042
182	0xbd8a72c4	-0.06760171
183	0x3da29274	0.0793809
184	0x3db1b86b	0.08677753
185	0x3d00509a	0.031326868
186	0xbd18f1e0	-0.037340045
187	0xbb8b3d16	-0.0042492254
188	0x3dc5c43b	0.096565686
189	0x3c0f6c69	0.008753874
190	0x3dcb1d02	0.09917642
191	0x3de001bc	0.10937831
192	0x3c561fbc	0.0130690895
193	0x3dd7fe09	0.105465
194	0x3b0c41ed	0.00214016
195	0xbc849294	-0.016183175
196	0xbbc2a9b7	-0.0059406417
197	0xbdd1e254	-0.10248247
198	0x3dde63a8	0.10858852
199	0x3e070104	0.13183981
200	0xbca15057	-0.01969163
201	0xbd9c4b2e	-0.07631527
202	0xbd3bf643	-0.04588915
203	0x3b1b175b	0.0023665044
204	0xbddc2fec	-0.10751328
205	0x3d511bf2	0.05105204
206	0xbd9e1203	-0.07718279
207	0x3daae91d	0.08345244
208	0x3d16cd2d	0.036816765
209	0x3dc42802	0.095779434
210	0x3d881b84	0.06645873
211	0x3dc0b1f7	0.09408944
212	0x3dd7e7de	0.10542272
213	0x3d93ccb6	0.0721678
214	0xbd9bf2d5	-0.07614676
215	0xbd8924a3	-0.06696441
216	0x3d23b813	0.03997047
217	0x3de34def	0.11098849
218	0xbd7dcb0d	-0.061961222
219	0xbd86e2b0	-0.06586206
220	0xbdea41bd	-0.1143832
221	0x3d02c83c	0.03192924
222	0xbdab3d91	-0.08361352
223	0xbd83646a	-0.06415637
224	0x3d311bb5	0.043239314
225	0xbd9fbb99	-0.07799453
226	0x3db929c4	0.09041169
227	0xbb75ef1d	-0.0037526556
228	0x3cc01b43	0.0234505
229	0x3d37b444	0.04484965
230	0x3bf00de3	0.007325874
231	0x3d911472	0.07083978
232	0xbdd57f2f	-0.10424649
233	0x3da7acc0	0.08187246
234	0x3d4d003f	0.050049063
235	0x3ca75ff9	0.020431506
236	0x3d7994c8	0.060932904
237	0x3dc0bce9	0.09411032
238	0xbd5440cf	-0.05181962
239	0x3dff7196	0.12472837
240	0xbc05a09e	-0.00815597
241	0xbdd91aed	-0.10600839
242	0x3d4f8989	0.050668273
243	0xbda273f2	-0.07932271
244	0x3cc0ec07	0.023550047
245	0xbdb77cbd	-0.08959339
246	0x3c5b5ee0	0.013389319
247	0x3c04f35a	0.00811466
248	0xbdd56ce5	-0.104211606
249	0xbd3eb8f5	-0.046563108
250	0xbd3e5a55	-0.046472866
251	0xbdbda40b	-0.09259804
252	0x3d43df4a	0.047820367
253	0xbd53d703	-0.051718723
254	0x3ca09f8a	0.019607324
255	0x3d8e816d	0.0695828

feature_extract.mlps.0.linears.1.bias f4 [64]
0	0x3d1a0426	0.037601613
1	0x3d57a662	0.05264891
2	0x3c1badc8	0.009501882
3	0x3dd1aa71	0.10237587
4	0xbdb569e5	-0.088580884
5	0x3cf9b6b6	0.030482631
6	0x3ce5c8ed	0.02804991
7	0x3cab2b83	0.020894771
8	0x3da78d9d	0.081813075
9	0x3dd517d8	0.104049385
10	0x3db159f5	0.08659736
11	0xbcb07f0e	-0.02154496
12	0x3de13b62	0.109976545
13	0x3d501957	0.050805416
14	0x3d308fc9	0.043105874
15	0x3b5f31f8	0.0034056883
16	0xbd868c17	-0.06569689
17	0x3d93c67b	0.072155915
18	0x3d0d2dc5	0.034467477
19	0x3cccd933	0.025005912
20	0xbd1ec256	-0.038759552
21	0x3de98e0e	0.11404048
22	0x3db06672	0.0861329
23	0x3dee3262	0.116307035
24	0xbceccee9	-0.028907256
25	0x3d218521	0.039433602
26	0xbd4b4b24	-0.049632207
27	0x3dbe98e9	0.09306509
28	0x3dd92bfe	0.10604094
29	0x3d0cd4f5	0.03438278
30	0x3dd49082	0.10379125
31	0xbdc05e66	-0.09393005
32	0x3cde6ab1	0.027150484
33	0x3d85e4b8	0.06537765
34	0xbdaba156	-0.08380382
35	0x3a0a62af	0.0005278987
36	0x3d840c48	0.06447655
37	0xbd221db1	-0.039579097
38	0xbdb2a5c4	-0.087230235
39	0x3d8cbddf	0.068721525
40	0xbdbfda83	-0.0936785
41	0xbb733ee6	-0.0037116348
42	0x3de6cc8c	0.11269483
43	0xbd08b1a4	-0.033372536
44	0xbc1c5a37	-0.009542993
45	0x3ce5054b	0.027956625
46	0xbde21e01	-0.11040879
47	0xbde2b8bf	-0.11070394
48	0xbd2a436c	-0.041568205
49	0x3cbf3b60	0.023343742
50	0x3e01d8ac	0.1268031
51	0x3d23b433	0.039966773
52	0xbdfe898f	-0.12428581
53	0x3db7d3be	0.089759335
54	0xbd4fcfc3	-0.050735246
55	0x3c574d6e	0.013141019
56	0x3db1c6ac	0.08680472
57	0x3d8ca843	0.06868031
58	0x3d6706f5	0.05640312
59	0x3ce52fb0	0.02797684
60	0xbdd4df77	-0.10394185
61	0xbce86fba	-0.028373588
62	0x3dda976d	0.106734134
63	0xbdf7ee9f	-0.1210606

feature_extract.mlps.0.batch_norms.0.weight f4 [64]
0	0x3f7e7ea3	0.9941198
1	0x3f8084a3	1.0040478
2	0x3f81209f	1.008808
3	0x3f7edc3a	0.9955479
4	0x3f7ca411	0.98687845
5	0x3f8076a4	1.0036206
6	0x3f7fde47	0.99948543
7	0x3f7fb818	0.9989028
8	0x3f801020	1.0004921
9	0x3f804150	1.0019932
10	0x3f80ceae	1.0063074
11	0x3f800202	1.0000613
12	0x3f80389a	1.0017273
13	0x3f80023e	1.0000684
14	0x3f80f9fa	1.0076287
15	0x3f7f50ba	0.99732554
16	0x3f7f47e4	0.9971907
17	0x3f7edfd6	0.99560297
18	0x3f7f5599	0.99739987
19	0x3f800e49	1.000436
20	0x3f7f04b2	0.9961654
21	0x3f80b8c2	1.0056384
22	0x3f7f154d	0.9964188
23	0x3f7f9497	0.99836105
24	0x3f7fbaca	0.9989439
25	0x3f7e6fef	0.9938955
26	0x3f81407a	1.0097802
27	0x3f805872	1.0026991
28	0x3f809f69	1.0048648
29	0x3f7ff12a	0.9997736
30	0x3f80adbd	1.0053021
31	0x3f80c074	1.0058732
32	0x3f80972e	1.0046136
33	0x3f7df872	0.9920722
34	0x3f8026b1	1.0011808
35	0x3f805cf2	1.0028365
36	0x3f7fb786	0.9988941
37	0x3f80cab8	1.0061865
38	0x3f807ff8	1.0039053
39	0x3f7ec7ec	0.99523807
40	0x3f7e7f97	0.99413437
41	0x3f808a98	1.0042295
42	0x3f7e7851	0.9940234
43	0x3f8060d1	1.0029546
44	0x3f7f9515	0.99836856
45	0x3f7e2cbc	0.9928701
46	0x3f8005b7	1.0001744
47	0x3f80495e	1.002239
48	0x3f7f51d6	0.99734247
49	0x3f7f71cc	0.99783015
50	0x3f802f13	1.0014366
51	0x3f801326	1.0005844
52	0x3f7ed3d4	0.99541974
53	0x3f804684	1.002152
54	0x3f7ef90a	0.99598753
55	0x3f7f1690	0.996438
56	0x3f7f9384	0.99834466
57	0x3f80f49b	1.0074648
58	0x3f7e98f6	0.9945215
59	0x3f7e7dde	0.9941081
60	0x3f7ef021	0.9958516
61	0x3f809445	1.0045248
62	0x3f7ebc65	0.9950622
63	0x3f7f89b7	0.9981951

feature_extract.mlps.0.batch_norms.0.bias f4 [64]
0	0x3b408b94	0.002938007
1	0x3bdddb78	0.0067705475
2	0x3b76d454	0.0037663179
3	0xbbcc4b7c	-0.0062345844
4	0xbb0b849a	-0.0021288753
5	0x3bb567d5	0.0055360594
6	0x3bcc277b	0.0062302924
7	0xba85f54c	-0.0010220199
8	0x3b1b3dc3	0.0023687936
9	0x3ae1fe5e	0.0017241945
10	0x3a952322	0.0011378268
11	0xbb9b75c7	-0.0047442648
12	0x399bd4d9	0.00029722488
13	0x3b8d5a2c	0.004313728
14	0x3be02c2b	0.0068412027
15	0x3ac9a5c4	0.0015384485
16	0x3b918063	0.0044403537
17	0xbb35e64a	-0.0027755671
18	0xbb4877ce	-0.0030588987
19	0xba53a1bc	-0.00080731115
20	0xbb90e4fa	-0.0044218274
21	0x3aa96d1a	0.0012926192
22	0x3baba472	0.0052381093
23	0x3a510eb9	0.0007974911
24	0x3b0e3bf7	0.0021703222
25	0xbb898c06	-0.0041976003
26	0x3b8dec7f	0.004331171
27	0x3c09fb2f	0.008421703
28	0x3a7ea022	0.00097131927
29	0x3c15bc3d	0.009139118
30	0x3bd2cb75	0.0064329454
31	0x3b9918ae	0.0046721315
32	0x3bbae3af	0.0057034115
33	0xba7c9dd3	-0.0009636555
34	0x3bf2ce3c	0.007409839
35	0xba1c1c61	-0.00059551565
36	0x3a870b04	0.0010302966
37	0x3bc0112d	0.0058614225
38	0x3bf888f6	0.0075846864
39	0xbc3a7335	-0.011380007
40	0xbb4878f0	-0.0030589662
41	0x3b742c0f	0.0037257706
42	0xb945bbc7	-0.00018857337
43	0x3ad2baa3	0.0016077351
44	0xba668367	-0.0008793384
45	0xba0324d8	-0.00050027436
46	0xbb658cc9	-0.0035026541
47	0x3a9386da	0.0011255399
48	0x3857cccf	5.1450737e-05
49	0x3a699825	0.0008910916
50	0x38680182	5.5314515e-05
51	0x3b018fe2	0.0019769599
52	0xbbdd606e	-0.00675588
53	0xbbd49b05	-0.0064882063
54	0xbba4bae4	-0.005027162
55	0xbb65e08e	-0.0035076472
56	0xbba09e66	-0.004901695
57	0x3b1ebac1	0.00242202
58	0x3b39c800	0.002834797
59	0xbbc82828	-0.0061083026
60	0xbbc18803	-0.0059061064
61	0x3c0c1e98	0.008552216
62	0xb97dc95e	-0.00024202975
63	0xba87a435	-0.001034862

feature_extract.mlps.0.batch_norms.0.running_mean f4 [64]
0	0x3f1fafa3	0.62377375
1	0x3f0335bb	0.5125386
2	0xbf8f0a1e	-1.1174963
3	0xbead6990	-0.338696
4	0x3fa208b5	1.2658907
5	0xc048fcb1	-3.140423
6	0xbfef2482	-1.8683016
7	0xc03a02f5	-2.9064305
8	0xbd8cf1fa	-0.06882091
9	0xc011aeb8	-2.276289
10	0x3f72b58b	0.9480826
11	0xbfc66973	-1.550093
12	0x3fe93757	1.8220013
13	0xbf281df3	-0.656707
14	0x4005524b	2.0831478
15	0x3f690937	0.91029686
16	0x3e442d34	0.19157869
17	0x3eb294b1	0.34879068
18	0xbf90bfd6	-1.1308544
19	0x3ef5f5a5	0.48038974
20	0x3ee84959	0.4536846
21	0xbf7a62fb	-0.9780728
22	0xbf656f4e	-0.8962296
23	0xbe9b8c60	-0.30380535
24	0x3f4aa246	0.7915386
25	0xc006b950	-2.1050606
26	0x3e3fdd4b	0.1873676
27	0xbefeb89e	-0.49750227
28	0xc01f8493	-2.4924667
29	0xc0041d82	-2.064301
30	0xbef0d263	-0.47035512
31	0x401765fb	2.3655994
32	0xbf39a570	-0.7251806
33	0x3dc05c62	0.093926206
34	0x402cb1a1	2.6983416
35	0xbfaeb90b	-1.3650221
36	0x3d82657e	0.06367014
37	0xbfea18d0	-1.8288822
38	0xbf8be5f3	-1.092955
39	0x401181c2	2.2735448
40	0x3f929bdd	1.1453816
41	0x3e933265	0.28749385
42	0x3f6bd9bf	0.9212913
43	0xbf2a9514	-0.66633725
44	0x3fb8a7b7	1.4426183
45	0x405f46bb	3.488692
46	0xbf8ad1c1	-1.0845262
47	0xbcd8fb65	-0.026487062
48	0x3e81263f	0.25224492
49	0xbf37c258	-0.7178092
50	0x3f9e0cd7	1.2347668
51	0xbe0717e2	-0.13192704
52	0xbe7539c1	-0.23947813
53	0xbdbfaa8d	-0.09358702
54	0x4013aacc	2.3072996
55	0xbe80dc83	-0.25168237
56	0xc0457576	-3.0852942
57	0x3edd1cb3	0.43185958
58	0xc00c5c10	-2.193119
59	0x3fb62182	1.4228976
60	0x3f26ee67	0.65207523
61	0x402f69c3	2.7408302
62	0xbed67328	-0.41884732
63	0xbfd2f011	-1.6479512

feature_extract.mlps.0.batch_norms.0.running_var f4 [64]
0	0x3e9b5efa	0.303459
1	0x3f602a63	0.87564677
2	0x3d3c8dc2	0.04603363
3	0x3f7d67c0	0.98986435
4	0x3f799d6a	0.9750582
5	0x3feb849d	1.8399845
6	0x3f2c7ea2	0.67380726
7	0x3e8fd29e	0.28090376
8	0x3efeeae8	0.49788594
9	0x3f062574	0.524009
10	0x3f092793	0.5357601
11	0x3ec57d9b	0.38572392
12	0x3e08c330	0.13355708
13	0x3f10759a	0.56429446
14	0x3faf17d9	1.3679153
15	0x3fdb43a6	1.713002
16	0x3f780398	0.96880484
17	0x3f06d401	0.5266724
18	0x3f8b80bb	1.089866
19	0x3c3a4685	0.011369352
20	0x3a9b3ce9	0.0011843714
21	0x3ed30ad2	0.41219193
22	0x3e2874e1	0.16450836
23	0x3aace763	0.0013191517
24	0x3eb1f64c	0.34758222
25	0x3fb7f6bd	1.4372174
26	0x3eff37a9	0.49847153
27	0x3f4569bd	0.7711447
28	0x3fb2f231	1.3980161
29	0x3f7e5531	0.9934874
30	0x3e83e535	0.2576081
31	0x3f31403f	0.69238657
32	0x3ca1407b	0.019684067
33	0x3ee32c0d	0.44369546
34	0x3f8c65fe	1.0968626
35	0x3ed6c2d5	0.4194552
36	0x3cbc5ef6	0.0229945
37	0x3d6a2d9c	0.057172403
38	0x3f44ba66	0.7684692
39	0x3f39fd75	0.7265237
40	0x3fcb47c6	1.5881279
41	0x3c28a15f	0.01029238
42	0x3db0a678	0.086255014
43	0x3cca3e10	0.024687797
44	0x3cfba9c4	0.030720599
45	0x3f0bbd98	0.5458617
46	0x3ecc4bda	0.3990162
47	0x3ea34231	0.31886438
48	0x3f86eb93	1.0540642
49	0x3f8b0893	1.0861992
50	0x3e20a847	0.15689193
51	0x3f37c854	0.7179005
52	0x3d4d930b	0.05018906
53	0x3f5ff176	0.87477815
54	0x3def3ee9	0.11681921
55	0x3f1649e4	0.587065
56	0x3f6b62f3	0.9194786
57	0x3f0c1f60	0.54735374
58	0x3f2e3971	0.680564
59	0x3fdb0dee	1.7113626
60	0x3e58c0b3	0.21167259
61	0x3e7ad095	0.2449363
62	0x3eceaa6d	0.403644
63	0x3f26a18b	0.65090245

feature_extract.mlps.1.linears.0.weight f4 [64, 64]
0	0x3de80ed4	0.11330953
1	0x3d9a7c02	0.07543184
2	0x3dd2ce95	0.10293309
3	0x3e08acbc	0.13347143
4	0x3a2df88f	0.00066364644
5	0xbd10395a	-0.035210945
6	0xbd61dcf4	-0.055142358
7	0x3b63ca70	0.0034758113
8	0x3d15217a	0.03640888
9	0xbcae0ef9	-0.021247374
10	0x3da41951	0.08012641
11	0xbdec8453	-0.11548676
12	0xbdcf16b0	-0.10111749
13	0xbd32bc93	-0.04363687
14	0xbc90be46	-0.017668854
15	0xbb8d5e18	-0.0043141954
16	0xbcd98baa	-0.026555855
17	0xbcefb5e3	-0.029261535
18	0xbda44f24	-0.080229074
19	0x3cf3acbf	0.029745458
20	0x3d653840	0.055961847
21	0x3d205d61	0.039151553
22	0xbd164730	-0.036688983
23	0xbd5775bd	-0.05260252
24	0x3d8d0de6	0.068874165
25	0xbc6a2f7e	-0.01429355
26	0x3bc489fc	0.0059978943
27	0x3b0d1635	0.002152813
28	0xbd437152	-0.047715493
29	0x3d273d42	0.040829904
30	0x3ddbd0bf	0.107331745
31	0x3d442219	0.04788408
32	0xbced7856	-0.028988045
33	0x3ce02e00	0.027365685
34	0xbd945231	-0.07242239
35	0x3daf8e40	0.08572054
36	0xbd055f2e	-0.032561474
37	0x3dabc2a7	0.08386736
38	0xbdee79cd	-0.116443254
39	0x3dd8a1be	0.10577725
40	0x3dcc0614	0.09962097
41	0x3d814be8	0.06313306
42	0x3da9e86b	0.08296283
43	0x3d528280	0.051393986
44	0x3d97065e	0.07374261
45	0x3db9552d	0.09049449
46	0xbd68e4ad	-0.056858707
47	0xbdf4a44c	-0.119454
48	0x3d9db3f1	0.07700337
49	0xbdf9f223	-0.12204387
50	0x3ce7cefb	0.028296938
51	0xbd972dae	-0.073817596
52	0x3d468c17	0.048473444
53	0xbc24499a	-0.010027314
54	0x3dc0d97a	0.0941648
55	0x3d8c732b	0.06857904
56	0x3c164e8f	0.009174003
57	0xbd8f1c4a	-0.069878176
58	0x3d9c9585	0.07645706
59	0xbd0b28c6	-0.03397443
60	0x3d9b23db	0.07575198
61	0x3d897e11	0.067134984
62	0xbd334a72	-0.04377217
63	0x3d3a62d3	0.045504402
64	0xbc8a1f48	-0.01686062
65	0xbdd4c70c	-0.10389528
66	0xbdab2a5a	-0.08357687
67	0x3dca4d23	0.09877994
68	0xbd18e677	-0.037329163
69	0x3de01a5b	0.10942527
70	0xbda7b4d8	-0.0818879
71	0x3de253c3	0.110511325
72	0xbd5771ae	-0.052598648
73	0x3d9ff0ad	0.07809577
74	0xbdef25f5	-0.116771616
75	0x3db7b339	0.08969731
76	0x3d689814	0.056785658
77	0xbd83cf0d	-0.06435976
78	0x3d7fdc98	0.062466234
79	0xbda3709b	-0.07980462
80	0x3da26d9c	0.079310626
81	0xbc5c9c39	-0.013464981
82	0xbcc974a8	-0.024591759
83	0x3d6b723d	0.057481993
84	0xbd21acdc	-0.039471492
85	0x3d8fd381	0.07022763
86	0xbcbe6a71	-0.023244115
87	0xbd3443c6	-0.044009946
88	0xbdb73418	-0.08945483
89	0x3ddb312a	0.10702737
90	0xbd4cb99b	-0.049981695
91	0x3dbcd387	0.09220033
92	0x3c46e5b5	0.012139727
93	0xbdabf7cf	-0.08396875
94	0x3de0ddef	0.109798305
95	0xbd7e8459	-0.062137935
96	0xbc1aafde	-0.009441344
97	0x3d0f65fc	0.03500937
98	0xbde335e5	-0.11094264
99	0xbc2fe670	-0.010736093
100	0xbd3ba0e8	-0.04580775
101	0xbc2363d2	-0.0099725295
102	0xbd2ff38c	-0.042956874
103	0xbde8e235	-0.113712706
104	0xbd86d4a4	-0.06583527
105	0xbc05e381	-0.008171917
106	0xbd1ad852	-0.037803955
107	0xbceb44c2	-0.02871931
108	0x3bb537b8	0.005530324
109	0x3ca5ff10	0.020263225
110	0xbd79bc37	-0.06097051
111	0xbd4495be	-0.047994368
112	0x3ddf5919	0.10905666
113	0x3d910433	0.07080879
114	0x3dc103a7	0.09424525
115	0x3dbfae2c	0.093593925
116	0x3dd0e9f0	0.1020087
117	0x3dff2a22	0.12459208
118	0xbd66f3ec	-0.056384966
119	0x3d6078d2	0.054802723
120	0xbd726ff7	-0.05918881
121	0xbd98e69c	-0.0746586
122	0xbdb28bb2	-0.08718051
123	0xbddaa5e5	-0.10676173
124	0x3d5feed3	0.05467112
125	0x3d33cb32	0.043894954
126	0x3d37451d	0.044743646
127	0xbd85c015	-0.06530777
128	0xbd74f0fe	-0.05980014
129	0x3da714b0	0.08158243
130	0xbd95ec80	-0.073204994
131	0x3d9d4bb0	0.07680452
132	0xbd8e16d1	-0.06937946
133	0xbdd2bb54	-0.10289636
134	0xbbe41009	-0.0069599194
135	0x3ddfe64c	0.109325975
136	0x3de2245d	0.11042092
137	0xbe01c434	-0.12672502
138	0x3cab60ba	0.020920146
139	0xbe014a04	-0.12625891
140	0xbdb8c820	-0.09022546
141	0x3d14fe0d	0.036375094
142	0xbc1e73f6	-0.009671202
143	0xbcf3edfd	-0.029776568
144	0xbd925b2b	-0.07146295
145	0xbcf5e561	-0.030016603
146	0x3c55d21e	0.013050584
147	0xbc8c8b8f	-0.01715639
148	0xbd72bd4f	-0.05926257
149	0xbd3b6f19	-0.045760248
150	0x3de58fd9	0.112090774
151	0x3ca2ba60	0.019864261
152	0xbce0aafa	-0.027425278
153	0xbdaf6c02	-0.08565523
154	0xbd478c17	-0.048717584
155	0xbcbc734c	-0.023004197
156	0x3df2d93f	0.11857843
157	0xbdbfa2e9	-0.093572445
158	0xbd81a71b	-0.06330701
159	0xbd9772a1	-0.073949106
160	0xbc9dfb3e	-0.01928484
161	0x3d8c64c6	0.068551585
162	0xbd34254e	-0.04398089
163	0xbd188322	-0.037234433
164	0xbdeb267a	-0.11481948
165	0x3d23231c	0.039828405
166	0x3c12bb38	0.008955769
167	0xbd510f75	-0.05104013
168	0x3df32ae6	0.118734166
169	0x3dc20de5	0.094753064
170	0x3b8d5bba	0.004313913
171	0xbd3b9de4	-0.045804873
172	0xbbd53146	-0.006506118
173	0x3c89b825	0.01681144
174	0xbcce35a1	-0.025172057
175	0x3df8a18d	0.12140188
176	0x3dad6c0b	0.08467873
177	0xbd7130a6	-0.058884285
178	0xbda5e3c0	-0.081000805
179	0x3d35d586	0.044393085
180	0xbb3bff59	-0.0028686135
181	0xbcd9c6d2	-0.026584063
182	0xbdb2e269	-0.087345906
183	0xbd69e301	-0.057101253
184	0x3dfaf6be	0.122540936
185	0x3dca4bb7	0.09877723
186	0xbd0d03b2	-0.034427352
187	0xbc6dc08c	-0.014511239
188	0x3d4e83f8	0.050418824
189	0x3bce647f	0.006298601
190	0x3d0bd9f6	0.03414341
191	0x3daa64cc	0.08320007
192	0x3da2ab86	0.07942872
193	0xbd3c3dd3	-0.045957398
194	0x3ddd7439	0.10813183
195	0x3d551481	0.052021507
196	0xbd62979f	-0.05532038
197	0xbcae2306	-0.021256935
198	0x3d690978	0.056893796
199	0xbd6dc5d6	-0.05805
200	0xbdb05901	-0.08610726
201	0xbd86ba9a	-0.0657856
202	0x3db2993a	0.08720632
203	0xbd921665	-0.07133178
204	0xbded19bf	-0.11577176
205	0x3db0d020	0.08633447
206	0xbdb03e14	-0.086055905
207	0x3e050927	0.12991773
208	0xbdf63ecd	-0.12023697
209	0x3cb303d7	0.021852417
210	0x3c31e3fa	0.0108575765
211	0x3d189e5b	0.037260395
212	0x3d412ae9	0.047160063
213	0xbde9fe26	-0.11425428
214	0x3d44df97	0.048064794
215	0xbc1ef04c	-0.009700846
216	0xbcd5ec01	-0.026113512
217	0x3de40ffa	0.1113586
218	0xbd00e739	-0.03147051
219	0xbcd70664	-0.026248164
220	0xbdd51a3f	-0.10405397
221	0xbdd32dc0	-0.103114605
222	0xbdb6ffd0	-0.08935511
223	0x3cbe42df	0.023225246
224	0x3cfcc1f7	0.030854208
225	0xbd09b868	-0.03362313
226	0xbd85cadf	-0.06532835
227	0xbba54648	-0.0050437786
228	0xbcf4eb7a	-0.02989744
229	0x3d06f7c3	0.032951128
230	0x3d5b4e53	0.053541493
231	0xbd3c6f9a	-0.04600487
232	0xbd083d77	-0.033261742
233	0xbd9d8eb8	-0.07693237
234	0x3decfec5	0.11572031
235	0x3d5ed742	0.054404505
236	0xbdeeb767	-0.11656075
237	0x3d81dd09	0.06340987
238	0x3d7c5efe	0.06161403
239	0x3d687684	0.05675365
240	0xbc997a2c	-0.018735014
241	0xbdb9aa1d	-0.0906565
242	0x3cd94c67	0.02652569
243	0xbd0ef957	-0.034905758
244	0xbcf52fa2	-0.02992994
245	0xbcc30758	-0.023807213
246	0xbd8f5e05	-0.07000355
247	0x3d372097	0.044708814
248	0x3d9e00b8	0.07714981
249	0x3c0b1cc0	0.008490741
250	0x3ddfde1c	0.10931036
251	0xbd72a461	-0.059238795
252	0xbda72c0b	-0.081626974
253	0xbe0043c4	-0.1252585
254	0xbde78b28	-0.11305839
255	0xbddb0200	-0.10693741

feature_extract.mlps.1.linears.0.bias f4 [64]
0	0xbd95a92a	-0.07307656
1	0x3d42a330	0.04751891
2	0xbc6380c0	-0.013885677
3	0x3d0d99d6	0.034570538
4	0xbd50a549	-0.05093888
5	0xbd9a0055	-0.075195946
6	0xbd445fd5	-0.047942955
7	0x3dcdec1a	0.100547984
8	0x3db47fed	0.088134624
9	0x3cb7b817	0.022426648
10	0x3c34b8ca	0.011030385
11	0xbcb287b8	-0.021793231
12	0x3db6febe	0.08935307
13	0xbd423df0	-0.04742235
14	0x3d1d344f	0.038379963
15	0xbd1b86e8	-0.037970454
16	0x3df620af	0.12017953
17	0x3c449cb1	0.012000249
18	0x3dc6062e	0.096691474
19	0x3de0fe23	0.10985973
20	0xbd747d4e	-0.059689812
21	0xbdbd9050	-0.09256041
22	0x3b3d8031	0.002891552
23	0x3cd92ab3	0.026509618
24	0x3df6b1eb	0.12045654
25	0x3dd800e8	0.10547048
26	0xbdacfdf0	-0.08446872
27	0x3da53fcf	0.08068811
28	0x3c9c9844	0.019115575
29	0xbd91b2e6	-0.071142
30	0xbdb05ce2	-0.08611466
31	0x3dac33c4	0.08408311
32	0x3d9f3ee1	0.07775665
33	0xbddbe665	-0.10737304
34	0xbd9ab667	-0.07554322
35	0x3d81c29b	0.06335946
36	0x3d603bf9	0.054744694
37	0x3d49e869	0.04929391
38	0xbd689c8d	-0.056789923
39	0x3bfb8ca7	0.007676679
40	0x3ac8082e	0.0015261227
41	0xbb82feee	-0.003997675
42	0x3d0d882b	0.034553688
43	0xbc203425	-0.009778057
44	0x3d9df22b	0.077122055
45	0xbdfe2fbf	-0.124114506
46	0x3dc50da0	0.096217394
47	0x3de93c0a	0.11388405
48	0x3c7b2d3c	0.015330609
49	0x3d8c55c4	0.06852296
50	0xbd732db4	-0.059369758
51	0x3ddda5b4	0.10822621
52	0x3c33138c	0.010929953
53	0xbdecdefd	-0.11565969
54	0x3d6bfb26	0.05761256
55	0x3dbcbea6	0.09216051
56	0x3d06f7d7	0.032951202
57	0x3d7d0933	0.06177635
58	0xbc062dd6	-0.008189639
59	0x3d586569	0.052831087
60	0x3ddd1e43	0.107967876
61	0xbdef7371	-0.116919406
62	0xbd954213	-0.07287993
63	0xbdea6999	-0.114459224

feature_extract.mlps.1.linears.1.weight f4 [64, 64]
0	0xbc8cba6f	-0.017178742
1	0x3db184dd	0.0866792
2	0x3d803d3d	0.0626168
3	0xbc032dc0	-0.008006513
4	0xbdbd3ed4	-0.09240499
5	0xbda455ba	-0.080241635
6	0x3dd60ed1	0.10452045
7	0x3dd2c6ed	0.10291848
8	0x3d656245	0.05600192
9	0xbb83b2a3	-0.004019098
10	0xbdca49bd	-0.09877346
11	0xbda87f66	-0.08227424
12	0xbdaf2c2e	-0.085533485
13	0x3d936b02	0.071981445
14	0xbd79f015	-0.061019976
15	0x3d9ea56c	0.077463955
16	0x3e0234ba	0.12715426
17	0x3da480a4	0.08032349
18	0xbca9bc38	-0.020719633
19	0x3c0ed6a0	0.008718163
20	0x3df21561	0.11820484
21	0xbdc5f2f5	-0.09665481
22	0x3d6d9dac	0.058011696
23	0x3deb20b4	0.11480847
24	0xbcd253af	-0.02567467
25	0xbd5923cd	-0.053012658
26	0xbde8db7c	-0.11369988
27	0xbd7384f1	-0.059452955
28	0x3d5a1e1f	0.053251382
29	0xbd35bd6b	-0.044370096
30	0x3d9080b7	0.070558004
31	0xbccc7ed6	-0.024962824
32	0x3dad19ed	0.084522106
33	0x3c8c345d	0.017114813
34	0xbdd46217	-0.10370272
35	0xbda0e441	-0.07856036
36	0xbd81bcc5	-0.06334833
37	0x3dc61e86	0.09673791
38	0xbdc6be16	-0.09704225
39	0x3d32b21f	0.0436269
40	0xbdb556da	-0.08854456
41	0x3d19faea	0.037592806
42	0xbc503d71	-0.012709961
43	0xbd748c00	-0.059703827
44	0x3ddcb0af	0.10775887
45	0xbdddd593	-0.10831752
46	0x3df37e0b	0.11889275
47	0x3cd2da7b	0.025738945
48	0x3c91eb6c	0.017812453
49	0xbd8e4d43	-0.0694833
50	0xba471cca	-0.00075955375
51	0x3da03a33	0.078236006
52	0x3d9ceb24	0.07662037
53	0x3e048ca1	0.1294427
54	0xbcae96e2	-0.02131218
55	0x3c84b985	0.016201744
56	0xbd28f779	-0.041251633
57	0xbde73c7a	-0.11290832
58	0x3d37b767	0.04485264
59	0xbdd0a8a4	-0.10188416
60	0x3dae4d81	0.085108764
61	0xbca8f157	-0.020622892
62	0x3952913b	0.00020081263
63	0x3d7910c8	0.06080702
64	0x3c65eaa0	0.01403299
65	0x3db035bb	0.08603998
66	0x3dbe6d64	0.09298208
67	0xbdac29ab	-0.08406385
68	0xbde43d08	-0.11144453
69	0xbdf312af	-0.11868798
70	0x3dfda239	0.12384457
71	0x3de2f1ae	0.11081253
72	0x3a47e301	0.0007625074
73	0x3d5415e7	0.0517787
74	0x3d25bbe9	0.04046241
75	0xbde438f7	-0.11143678
76	0x3d344ce1	0.04401863
77	0xbd1c62da	-0.03818021
78	0xbdbde126	-0.09271459
79	0x3bc605fb	0.0060431934
80	0x3d946a1a	0.072468
81	0xbdd204a0	-0.102547884
82	0x3cbc510f	0.02298787
83	0xbdafdf67	-0.085875325
84	0xbd4dfca3	-0.05028976
85	0xbcdf6bd6	-0.0272731
86	0x3d987f99	0.07446212
87	0xbdee3c4e	-0.11632596
88	0xbd41ebaf	-0.047343906
89	0x3d96856e	0.073496684
90	0x3d3de016	0.046356283
91	0x3ce0fdf3	0.027464842
92	0x3dbe1bdc	0.092826575
93	0xbd0c77df	-0.034294005
94	0x3d28d246	0.041216157
95	0xbd5f285e	-0.054481857
96	0xbc9d2e32	-0.019187067
97	0x3b115fc7	0.0022182332
98	0xbb5c28bf	-0.0033593623
99	0xbdd20107	-0.10254102
100	0x3d709dad	0.05874412
101	0x3d68fad1	0.056879822
102	0x3d5cff1e	0.053954236
103	0x3d6ea68c	0.0582643
104	0xbd1291bd	-0.035783518
105	0x3c955135	0.0182272
106	0xbd44c160	-0.04803598
107	0x3d87be66	0.066281125
108	0xbd26bba2	-0.040706284
109	0x3ded5b69	0.11589701
110	0xbd8781f4	-0.066165835
111	0x3e04d4e2	0.12971833
112	0x3deefde3	0.11669519
113	0xbd38a5b9	-0.04507992
114	0x3d72dfd2	0.059295483
115	0x3da535b4	0.08066884
116	0xbe05bc8d	-0.13060208
117	0x3daa0b8d	0.083029844
118	0x3d40b00d	0.047042895
119	0xbdd8d96a	-0.105883434
120	0xbce7a34f	-0.028276114
121	0xbddbbdff	-0.10729598
122	0xbd26c3ad	-0.040713955
123	0xbdc653d0	-0.09683955
124	0xbda56bfb	-0.08077236
125	0xbd730e47	-0.059339788
126	0xbcbc5ffd	-0.02299499
127	0xbcb2be72	-0.021819327
128	0xbd25af5b	-0.040450435
129	0x3db3220d	0.08746729
130	0x3da97637	0.08274501
131	0xbd33a4ad	-0.04385822
132	0xbde9fec8	-0.11425549
133	0x3dee0237	0.11621516
134	0x3df3a50b	0.11896714
135	0xbd0fa38c	-0.03506808
136	0x3b4cd09c	0.003125227
137	0x3d8ac303	0.06775477
138	0x3cffc68d	0.031222606
139	0x3d692e2f	0.05692881
140	0x3db69701	0.089155205
141	0x3ce74c0c	0.028234504
142	0xbcd0c94a	-0.025486607
143	0xbde8a601	-0.11359788
144	0x3cccd462	0.025003616
145	0xbd1431a2	-0.036180146
146	0xbd668d78	-0.05628726
147	0x3d77f383	0.060534965
148	0xbdf739c6	-0.12071566
149	0x3d7e6a50	0.062113106
150	0xbcec93ff	-0.028879164
151	0x3dbf6131	0.0934471
152	0xbd142754	-0.03617032
153	0x3deabf30	0.11462247
154	0xbc8ed8a2	-0.017437283
155	0xbde6cec4	-0.11269906
156	0x3c16302a	0.009166757
157	0xbc614d7b	-0.013751383
158	0x3cacbda3	0.02108652
159	0x3cfafc41	0.030637862
160	0xbb9a92d2	-0.0047172094
161	0xbe0171c7	-0.12641059
162	0xbdbff51a	-0.09372921
163	0xbd980429	-0.074226685
164	0xbd71f4ba	-0.05907128
165	0xbd231d62	-0.039822944
166	0xbd84d006	-0.0648499
167	0x3d847835	0.0646824
168	0x3c89dc17	0.01682858
169	0xbc1f5416	-0.0097246375
170	0xbe19345e	-0.14961383
171	0x3dd795cf	0.105266206
172	0x3d1e623d	0.038667906
173	0xbdeb75f7	-0.114971094
174	0x3ddd8a13	0.10817351
175	0x3dc381f9	0.09546275
176	0x3d82f81c	0.06394979
177	0xbbce08cb	-0.0062876693
178	0xbdc06c86	-0.09395699
179	0xbbaf63e9	-0.0053524864
180	0xbdddcf9d	-0.10830615
181	0x3dae9081	0.08523656
182	0x3dad9b2f	0.084768645
183	0x3d141903	0.036156666
184	0x3cae6313	0.021287477
185	0xbd2170ea	-0.039414324
186	0xbd97a0ea	-0.07403739
187	0x3d8d40b0	0.06897104
188	0x3d9685f2	0.07349767
189	0x3cec660b	0.028857252
190	0xbcd508e9	-0.026005225
191	0xb91defd2	-0.00015062027
192	0xbbb751e2	-0.005594478
193	0xbc4ced0c	-0.012507688
194	0xbbd8e83c	-0.0066194814
195	0x3cb9d994	0.022686757
196	0x3c9487fa	0.018131245
197	0x3de633c0	0.11240339
198	0xbdba9126	-0.09109716
199	0xbd40ba20	-0.047052503
200	0x3cde0e77	0.027106507
201	0x3dd1ec14	0.102501065
202	0x3de29c6d	0.11064992
203	0x3d915d9d	0.070979334
204	0xbb8349b5	-0.0040065893
205	0x3da2f4d5	0.07956854
206	0xbda99883	-0.082810424
207	0x3cc6b16b	0.024254521
208	0xbd2adb92	-0.041713305
209	0x3dab9bb8	0.0837931
210	0xbd7bdf7e	-0.061492436
211	0x3df92d48	0.1216684
212	0x3c759880	0.014989972
213	0xbdf3c5dd	-0.11902974
214	0x3dae98bf	0.08525228
215	0xbb06f011	-0.0020589868
216	0xbe061a49	-0.13095964
217	0x3de35fee	0.111022815
218	0xbd993d19	-0.074823566
219	0xbbdfaaba	-0.006825772
220	0x3dff63bb	0.12470194
221	0xbd1774e4	-0.03697671
222	0xbdcf5bc6	-0.10124926
223	0x3e075ce5	0.1321903
224	0xbdc366a9	-0.09541065
225	0x3df35928	0.118822396
226	0x3dd78763	0.1052387
227	0x3da35970	0.07976043
228	0x3d90e8aa	0.07075627
229	0x3c72e394	0.014824767
230	0xbe019200	-0.12653351
231	0xbdac679f	-0.08418202
232	0x3db61cdf	0.088922255
233	0x3de17f27	0.110105805
234	0x3d7b0bb1	0.061290447
235	0xbdd5c059	-0.10437078
236	0x3d8d2d80	0.06893444
237	0xbbafe947	-0.005368385
238	0xbbf6a289	-0.0075267
239	0xbdd99827	-0.10624724
240	0xbdb31a0d	-0.08745203
241	0xbdfb03a3	-0.12256553
242	0x3cdb1b9e	0.026746567
243	0x3e043bda	0.12913457
244	0xbd864965	-0.06556968
245	0xbd43f62a	-0.047842182
246	0xbdca8752	-0.098890916
247	0xbde13f72	-0.10998429
248	0x3de67ab1	0.1125387
249	0x3d9174c2	0.07102348
250	0xbbae778e	-0.0053243106
251	0x3d180761	0.037116412
252	0x3da88050	0.08227599
253	0xbc8bde46	-0.017073762
254	0xbdb1c193	-0.086794995
255	0x3cc3f4bf	0.023920415

feature_extract.mlps.1.linears.1.bias f4 [64]
0	0x3dac3cfb	0.084100686
1	0xbd22bf7c	-0.039733395
2	0xbdbc3fe2	-0.09191872
3	0x3d449941	0.047997717
4	0x3d0aa466	0.03384819
5	0x3d4f75e2	0.05064953
6	0xbcb9b5ad	-0.022669638
7	0xbdd3a943	-0.103350185
8	0x3cabf7e7	0.020992232
9	0x3db36d59	0.08761091
10	0x3e0924be	0.13392922
11	0xbda8278c	-0.08210668
12	0xbd01c1cb	-0.031678956
13	0x3dc584ef	0.09644496
14	0xbdb6441e	-0.08899711
15	0x3dc9d9ac	0.09855971
16	0x3d15ed10	0.036603034
17	0x3d928b12	0.07155432
18	0xbd29291c	-0.04129897
19	0x3dd5dbeb	0.10442337
20	0xbdf8ff63	-0.12158086
21	0x3dc33b98	0.09532851
22	0x3c0a28fd	0.008432624
23	0x3d0ea460	0.03482473
24	0x3d8984e2	0.067147985
25	0xbe014523	-0.1262403
26	0x3c29dc62	0.010367485
27	0x3c28d5d2	0.010304885
28	0x3d0fb49a	0.035084344
29	0xbc680b84	-0.014162902
30	0x3cd02a7b	0.025410881
31	0xbc10806f	-0.008819683
32	0xbde3d82f	-0.11125218
33	0xbd61c619	-0.05512056
34	0x3db7f9cc	0.08983192
35	0xbdd589e5	-0.10426692
36	0xbd41fd65	-0.047360796
37	0xbdd2ade0	-0.1028707
38	0xbbe17d56	-0.0068813963
39	0x3d60bc8e	0.05486732
40	0xbc4a58f0	-0.012350306
41	0x3d834eef	0.0641154
42	0xbd9578e2	-0.07298447
43	0xbda4d3ce	-0.08048211
44	0xbe0df1c1	-0.13861753
45	0x3d8cbe4b	0.06872233
46	0x3cb5f255	0.02221028
47	0xbdcd8815	-0.10035721
48	0xbdeed175	-0.116610445
49	0xbd30055f	-0.042973872
50	0x3977d71a	0.00023635887
51	0x3db04e7c	0.0860872
52	0xbdb2c382	-0.087286964
53	0x3db52c49	0.08846337
54	0x3d47712b	0.04869191
55	0xbdf21fa7	-0.118224435
56	0x3d3f56fb	0.04671381
57	0x3d9c5eed	0.07635293
58	0xbd8e538c	-0.06949529
59	0x3dab79f7	0.08372872
60	0x3df6d14c	0.12051639
61	0xbdbe91c8	-0.09305149
62	0x3dae32ca	0.08505781
63	0x3da11a50	0.07866347

feature_extract.mlps.1.batch_norms.0.weight f4 [64]
0	0x3f7fa88d	0.99866563
1	0x3f809b2a	1.0047352
2	0x3f819169	1.0122501
3	0x3f7ec487	0.99518627
4	0x3f7e08fb	0.99232453
5	0x3f801ded	1.0009133
6	0x3f7f5592	0.99739945
7	0x3f801bb2	1.0008452
8	0x3f805191	1.0024892
9	0x3f80eacf	1.0071658
10	0x3f7f32bb	0.99686784
11	0x3f817ed0	1.0116825
12	0x3f7e2d47	0.9928784
13	0x3f7d6d07	0.9899449
14	0x3f7d68c7	0.98988
15	0x3f7e6c60	0.9938412
16	0x3f825eaa	1.0185139
17	0x3f7b6fd2	0.982175
18	0x3f7e9a3f	0.9945411
19	0x3f80f45e	1.0074575
20	0x3f84c1be	1.0371625
21	0x3f7ef108	0.99586535
22	0x3f7e7e09	0.99411064
23	0x3f8081a8	1.0039568
24	0x3f80392d	1.0017449
25	0x3f814769	1.0099918
26	0x3f80862d	1.0040947
27	0x3f81b158	1.0132246
28	0x3f80ed37	1.0072392
29	0x3f80b246	1.0054405
30	0x3f7ecd08	0.995316
31	0x3f81410b	1.0097975
32	0x3f80e238	1.0069036
33	0x3f7e6907	0.9937901
34	0x3f80cf38	1.0063238
35	0x3f7eda00	0.9955139
36	0x3f7d9a40	0.9906349
37	0x3f809f6b	1.004865
38	0x3f7f4d02	0.9972688
39	0x3f7d59a2	0.98964894
40	0x3f7f4086	0.9970783
41	0x3f7dd7d1	0.99157435
42	0x3f7ff162	0.99977696
43	0x3f7b6893	0.9820644
44	0x3f8022ec	1.0010657
45	0x3f81a676	1.0128925
46	0x3f818646	1.0119102
47	0x3f806630	1.0031185
48	0x3f7daaf2	0.99088967
49	0x3f7cb015	0.9870618
50	0x3f812b5c	1.0091357
51	0x3f80c29f	1.0059394
52	0x3f8094f4	1.0045457
53	0x3f8058f0	1.0027142
54	0x3f7b8055	0.98242694
55	0x3f7e677e	0.99376667
56	0x3f7b4359	0.9814964
57	0x3f7eb579	0.99495655
58	0x3f7ead33	0.9948303
59	0x3f7fab02	0.9987031
60	0x3f7d404a	0.9892622
61	0x3f7f1445	0.99640304
62	0x3f81804d	1.0117279
63	0x3f804f50	1.0024204

feature_extract.mlps.1.batch_norms.0.bias f4 [64]
0	0xbb8eaecd	-0.004354334
1	0x3b888993	0.0041667907
2	0x3c323be7	0.01087854
3	0xbc80c059	-0.015716719
4	0xbb6e71a5	-0.0036383655
5	0x3b289027	0.0025720687
6	0xbb7642fe	-0.0037576552
7	0xbb97c47e	-0.004631578
8	0x3ca06e79	0.019583927
9	0x3bcaea86	0.006192508
10	0xbc9ff629	-0.019526558
11	0x3c2e5187	0.010639555
12	0xbc02212f	-0.007942482
13	0xbc22a467	-0.009926892
14	0xbbbf25a0	-0.0058333427
15	0x3a07248e	0.00051552884
16	0xbb595ff7	-0.0033168772
17	0xbc368cd9	-0.011141979
18	0xbbc880db	-0.0061188764
19	0x3c6a8e83	0.014316204
20	0x3cdae346	0.0267197
21	0xb9abfb4f	-0.000328029
22	0xbb1f517e	-0.0024310048
23	0x3bfb4cf7	0.007669087
24	0xb878dc2a	-5.933285e-05
25	0xbb8ccda7	-0.0042969766
26	0xb9cb3739	-0.0003876032
27	0xbb1ea8e2	-0.0024209549
28	0x3c1d7d8e	0.009612454
29	0x3c8cca91	0.017186435
30	0xbb2176d8	-0.0024637487
31	0x3c577d78	0.013152473
32	0x3b222f39	0.0024747385
33	0xbb5dc04c	-0.0033836542
34	0x3b0ca854	0.0021462636
35	0xbb3b4f3d	-0.0028581165
36	0x3aa86c18	0.0012849597
37	0x399f9ea2	0.00030445034
38	0xba2535ec	-0.00063022855
39	0xbb0ea723	-0.0021767102
40	0x3aa7e9ff	0.0012810825
41	0xbbc44964	-0.005990194
42	0xbaa31b25	-0.0012444003
43	0xbc4da04d	-0.012550426
44	0xbc4d2792	-0.012521641
45	0x3c2c22b3	0.01050632
46	0x3c0cf921	0.008604319
47	0x3bdc60a1	0.0067253863
48	0x3c11dcde	0.0089027565
49	0xbc4179d6	-0.011808833
50	0x3b9cd67f	0.004786312
51	0x3c341ba9	0.010992923
52	0x3b37afae	0.0028028297
53	0x3b37955b	0.0028012607
54	0xbbf493b3	-0.007463896
55	0x390684ee	0.00012828756
56	0x3be43d51	0.0069653173
57	0xbb66ea19	-0.0035234748
58	0xbc3fcb82	-0.011706235
59	0xbbd1214d	-0.0063821436
60	0xbb0f199b	-0.002183533
61	0xbc12f018	-0.008968376
62	0x3c2c791f	0.010526924
63	0x3a4d137d	0.00078230334

feature_extract.mlps.1.batch_norms.0.running_mean f4 [64]
0	0x3f77f71e	0.96861446
1	0xbe1a365c	-0.15059799
2	0xbea98a7e	-0.33113474
3	0xbf4a74bd	-0.7908438
4	0xbe29c1b9	-0.16577806
5	0xbd437822	-0.04772199
6	0xbd9b7a50	-0.07591689
7	0xbeb50350	-0.3535409
8	0x3f641a63	0.8910276
9	0xbec2472a	-0.3794492
10	0xbeb07ed4	-0.34471762
11	0xbf1d4362	-0.61430943
12	0x3e800489	0.2500346
13	0xbdf887e7	-0.12135296
14	0x3f28f63d	0.6600073
15	0x3f910d62	1.1332209
16	0x3f81f461	1.0152704
17	0xbeead3ee	-0.45864815
18	0x3f276f97	0.6540465
19	0xbec5f6ae	-0.38664764
20	0x3f08c7ae	0.5342969
21	0xbed23c27	-0.41061518
22	0xbf6fcdd5	-0.9367345
23	0xbf9e982a	-1.2390187
24	0xbe06752e	-0.13130638
25	0xbe53dd3e	-0.20689866
26	0xbf00461d	-0.50106984
27	0x3f3a8970	0.72865963
28	0xbf54166c	-0.82846713
29	0xbe57d845	-0.21078594
30	0xbf107b0a	-0.5643774
31	0xbeaca6cf	-0.33721015
32	0xbf72c084	-0.94825006
33	0xbf422e22	-0.75851643
34	0xbe300e37	-0.17192923
35	0x3ebbd840	0.36688423
36	0xbe5a3c14	-0.2131198
37	0xbf82fc61	-1.023327
38	0x3f694028	0.9111352
39	0xbf237103	-0.6384432
40	0x3efce4f5	0.4939343
41	0x3f803744	1.0016866
42	0xbd4e9cef	-0.050442632
43	0x3ebec29d	0.37257853
44	0xbefe78ce	-0.49701542
45	0xbe10825c	-0.14112228
46	0xbf05e8f5	-0.5230859
47	0x3ea55c48	0.32296968
48	0xbd8e5ac7	-0.06950908
49	0x3f22d22c	0.63601947
50	0xbf5719d1	-0.8402377
51	0x3e2c6d2b	0.1683852
52	0x3f558448	0.8340497
53	0xbe886f85	-0.26647583
54	0x3e4cfefe	0.20019147
55	0x3ef49d22	0.47776133
56	0x3f06fefa	0.52732813
57	0xbdfd8437	-0.123787336
58	0x3f8b535a	1.0884812
59	0xbfbc54e2	-1.4713404
60	0x3f253634	0.6453583
61	0xbdbb55cb	-0.09147223
62	0x3f2db832	0.67859185
63	0x3e0db7a3	0.13839583

feature_extract.mlps.1.batch_norms.0.running_var f4 [64]
0	0x3e8fc231	0.28077844
1	0x3f694bcf	0.911313
2	0x3f374d2e	0.7160214
3	0x3ed00a07	0.4063265
4	0x3fb09daa	1.3798115
5	0x3d3fda9b	0.046839338
6	0x3ee6b498	0.45059657
7	0x3ec5ddf2	0.38645893
8	0x3ee73515	0.45157686
9	0x3f7db52b	0.99104565
10	0x3e3f0c1a	0.1865696
11	0x3eab1755	0.33416238
12	0x3ea6c9ec	0.3257593
13	0x3f983e3d	1.1893994
14	0x3e78b000	0.24285889
15	0x3e83c437	0.25735638
16	0x3e849e26	0.25901908
17	0x3f0ed733	0.5579712
18	0x3f156faf	0.5837354
19	0x3e96e7cc	0.29473722
20	0x3f2102de	0.62895
21	0x3eb95b36	0.362024
22	0x3f8e021c	1.1094394
23	0x3f9824e7	1.1886262
24	0x3f5a37e2	0.8524152
25	0x3f8a19d1	1.0789129
26	0x3f90be67	1.1308106
27	0x3dad9f4b	0.08477648
28	0x3f07084a	0.52747023
29	0x3f9e90c2	1.2387927
30	0x3ee949f3	0.4556423
31	0x3e9f2293	0.31081066
32	0x3f150323	0.5820791
33	0x3f610d01	0.8791047
34	0x3f25ecc3	0.64814395
35	0x3f704d34	0.938678
36	0x3e2b6f98	0.16741788
37	0x3fa08edf	1.2543601
38	0x3eef0223	0.46681318
39	0x3f59c217	0.8506178
40	0x3ed16e75	0.40904585
41	0x3efe65da	0.49687082
42	0x3eb88f77	0.36046955
43	0x3e47b859	0.19503917
44	0x3edb8ab4	0.4287926
45	0x3fb98cb0	1.449606
46	0x3eae09c0	0.33991814
47	0x3e8b1989	0.2716792
48	0x3fb211c1	1.3911668
49	0x3ebd0cbe	0.36923784
50	0x3fa64e14	1.2992578
51	0x3ef92f4a	0.4866889
52	0x3eb04b89	0.3443263
53	0x3ea19641	0.31559947
54	0x3e45e1ca	0.19324413
55	0x3e1d021d	0.15332837
56	0x3fc577f5	1.5427233
57	0x3eaa4a25	0.33259693
58	0x3f63b062	0.88941014
59	0x3f233660	0.63754845
60	0x3f89ad9a	1.0756104
61	0x3ee4f06e	0.44714683
62	0x3f50c107	0.81544536
63	0x3f7f2cef	0.9967794

feature_extract.batch_norms.0.weight f4 [64]
0	0x3f7e5fe6	0.9936508
1	0x3f80a2f7	1.0049733
2	0x3f81b779	1.0134116
3	0x3f7ff0da	0.99976885
4	0x3f806a1e	1.0032384
5	0x3f7f550e	0.9973916
6	0x3f7fa3fc	0.99859595
7	0x3f7ff2e1	0.9997998
8	0x3f7c47af	0.9854688
9	0x3f7e4184	0.9931872
10	0x3f7fa79e	0.9986514
11	0x3f80713b	1.0034555
12	0x3f815138	1.0102911
13	0x3f7d774c	0.9901016
14	0x3f80a71d	1.0050999
15	0x3f80c53e	1.0060194
16	0x3f7eee0c	0.9958198
17	0x3f7f3ef4	0.99705434
18	0x3f7ee54c	0.9956863
19	0x3f80017b	1.0000452
20	0x3f807931	1.0036985
21	0x3f8060a0	1.0029488
22	0x3f7f17e0	0.99645805
23	0x3f803a6c	1.0017829
24	0x3f7f6e17	0.9977736
25	0x3f7d68b3	0.98987883
26	0x3f808b2d	1.0042473
27	0x3f804ac7	1.002282
28	0x3f808479	1.0040427
29	0x3f7f38e2	0.9969617
30	0x3f80075d	1.0002247
31	0x3f7dc037	0.9912142
32	0x3f807f3a	1.0038826
33	0x3f8018e6	1.0007598
34	0x3f7f7d20	0.998003
35	0x3f7fa0fa	0.99855006
36	0x3f7de92e	0.9918393
37	0x3f80a6fd	1.0050961
38	0x3f7f883b	0.99817246
39	0x3f800222	1.0000651
40	0x3f80d064	1.0063596
41	0x3f7e1317	0.9924788
42	0x3f8009d0	1.0002995
43	0x3f7f5849	0.9974409
44	0x3f7e7b5d	0.9940699
45	0x3f7faeb6	0.9987596
46	0x3f7f4043	0.9970743
47	0x3f802961	1.0012628
48	0x3f81242d	1.0089165
49	0x3f7eb8ee	0.9950093
50	0x3f80d151	1.0063878
51	0x3f7ff63e	0.9998511
52	0x3f7f52d7	0.9973578
53	0x3f806316	1.0030239
54	0x3f8038f5	1.0017382
55	0x3f7f97a9	0.9984079
56	0x3f7fb9d2	0.99892914
57	0x3f806d49	1.0033351
58	0x3f80cd78	1.0062704
59	0x3f80215d	1.0010182
60	0x3f803754	1.0016885
61	0x3f7f8dce	0.9982575
62	0x3f807e72	1.0038588
63	0x3f7ff4bf	0.9998283

feature_extract.batch_norms.0.bias f4 [64]
0	0x3b844931	0.0040370454
1	0x3a8585c3	0.0010186959
2	0x3be1ef7a	0.006895003
3	0xbb26f73a	-0.0025476948
4	0x3ba96670	0.005169682
5	0xbb24589f	-0.0025077236
6	0x3b207676	0.002448467
7	0xbaf8a434	-0.0018969835
8	0xbc236429	-0.0099726105
9	0xbb8a56d6	-0.0042217774
10	0x3b12429c	0.0022317534
11	0x3b247d1d	0.0025098987
12	0x3bf5da2b	0.0075028143
13	0xbba05c49	-0.0048938137
14	0x3ba8be60	0.0051496476
15	0x3c6847c7	0.014177269
16	0xbb972cb8	-0.004613485
17	0xbc649aff	-0.01395297
18	0x3cdf4d02	0.0272584
19	0x3b942619	0.004521143
20	0x3c068f2e	0.008212848
21	0x3a865781	0.0010249467
22	0x3b350360	0.002762042
23	0x3ad94533	0.0016576409
24	0x3c02ae6e	0.007976158
25	0xbc1366e8	-0.008996703
26	0xbaaa904a	-0.0013012972
27	0x3b022f8e	0.001986477
28	0x3beb9f18	0.0071905963
29	0x3991df4a	0.00027822918
30	0xbb233d36	-0.002490831
31	0xbc1f23f8	-0.009713165
32	0x3be2843c	0.006912736
33	0xbb843254	-0.00403432
34	0x3a70e7fb	0.0009189841
35	0xbafb46dd	-0.0019170899
36	0x3c1aee9c	0.009456303
37	0x3b2f88e9	0.0026784486
38	0xbb234b72	-0.0024916795
39	0xbba219d2	-0.0049469257
40	0x3b9b15dd	0.004732831
41	0xba8e968a	-0.0010878604
42	0xba99c226	-0.0011730834
43	0xbbc692fe	-0.0060600033
44	0xbb1b936b	-0.002373899
45	0xbae0ade8	-0.0017141672
46	0xba81cce8	-0.0009902986
47	0x3a2e36e2	0.00066457514
48	0x3b8733b0	0.0041260347
49	0xbb0561b6	-0.002035243
50	0x3c050e8f	0.008121147
51	0xba7e5ac9	-0.0009702859
52	0xbae2ca35	-0.0017302694
53	0xb92afae0	-0.00016305922
54	0xbbc418cb	-0.005984401
55	0xbb5ac83a	-0.0033383504
56	0xbb5ea831	-0.0033974762
57	0x3ab3f3b3	0.0013729244
58	0x3bb9332e	0.005651853
59	0x3c01bf52	0.0079191495
60	0x3afb5575	0.0019175248
61	0xbbcf3a01	-0.0063240533
62	0xbb391d21	-0.0028246122
63	0x3a640caf	0.00086994

feature_extract.batch_norms.0.running_mean f4 [64]
0	0x3d9344df	0.071908705
1	0x3c0cf2be	0.008602796
2	0xbe02606c	-0.12732095
3	0x3e211c02	0.1573334
4	0xbdbdcc51	-0.09267486
5	0x3cded148	0.027199402
6	0x3c0a90c2	0.0084573645
7	0xbdc193dc	-0.0945203
8	0xbe27d903	-0.16391377
9	0x3e48da93	0.1961463
10	0xbd6e1171	-0.058122102
11	0xbdff91f4	-0.1247901
12	0x3db3cc0c	0.08779153
13	0xbd9191cf	-0.07107889
14	0x3e2870f5	0.1644934
15	0xbd32c85a	-0.0436481
16	0xbd85d642	-0.06535007
17	0xbdb4acf7	-0.08822053
18	0xbe9d533d	-0.30727568
19	0x3eae8ba3	0.3409091
20	0xbd856eae	-0.06515251
21	0x3efeba58	0.49751544
22	0x3eaf2ecc	0.3421539
23	0x3e78e8e3	0.24307589
24	0x3b81bfc8	0.0039596297
25	0x3f348b6a	0.7052523
26	0xbe2277ff	-0.15866087
27	0x3e18b0e6	0.14911231
28	0xbd12bb3b	-0.03582309
29	0xbed2a7d7	-0.41143677
30	0x3eab132e	0.3341307
31	0x3d058263	0.03259505
32	0xbe808d3b	-0.2510775
33	0xbe5d6ac0	-0.21622753
34	0x3c183f11	0.00929238
35	0xbc90419a	-0.017609406
36	0xbd880426	-0.06641416
37	0xbec3b010	-0.38220263
38	0x3ec95e59	0.39329794
39	0x3e5a7885	0.21335037
40	0xbc51bc0f	-0.012801184
41	0xbe5eb70c	-0.21749514
42	0xbcf6a435	-0.030107597
43	0xbdfc707f	-0.123261444
44	0x3db33806	0.0875092
45	0x3e63e83b	0.22256558
46	0x3deac8b7	0.114640646
47	0xbe78ee3e	-0.24309632
48	0x3dfbce3c	0.122951955
49	0x3e37b708	0.17940915
50	0x3ebd56f8	0.36980414
51	0x3d00ad8b	0.031415503
52	0x3c9e83cf	0.01934996
53	0x3e258a54	0.16166049
54	0x3e866a9d	0.26253214
55	0x3e97fae2	0.29683596
56	0x3d166add	0.036723007
57	0xbdacc06f	-0.08435141
58	0x3eef1e53	0.46702823
59	0x3e5bb2a4	0.21454865
60	0xbeeb726b	-0.4598573
61	0xbcdc720e	-0.026909854
62	0xbe00f0f3	-0.12591915
63	0x3dd2baa4	0.10289505

feature_extract.batch_norms.0.running_var f4 [64]
0	0x3d0eeb54	0.034892395
1	0x3bfc494d	0.007699168
2	0x3dc8666a	0.09785159
3	0x3dd92fec	0.106048435
4	0x3d06ccc8	0.03291014
5	0x3cbaa8cc	0.022785567
6	0x3d5a73a0	0.053332925
7	0x3e977d51	0.29587796
8	0x3e5df4f8	0.2167548
9	0x3d1c2f25	0.038130898
10	0x3e74f091	0.23919894
11	0x3d08cc6a	0.03339807
12	0x3e9ba4d3	0.30399188
13	0x3de7df3f	0.11321878
14	0x3cd6b772	0.02621052
15	0x3c7f87ae	0.015596313
16	0x3c1ae176	0.009453168
17	0x3de7af3c	0.1131272
18	0x3e35f184	0.17767912
19	0x3e862b9a	0.2620514
20	0x3c225cce	0.009909822
21	0x3e622354	0.22083789
22	0x3cf4bd8c	0.02987554
23	0x3cb82e22	0.022482935
24	0x3c4c40a2	0.012466582
25	0x3e0c2d01	0.13689043
26	0x3d90e334	0.070745856
27	0x3d94d194	0.07266536
28	0x3d08cf72	0.03340096
29	0x3d7fe1c5	0.06247117
30	0x3d8eee05	0.069789924
31	0x3dcb87da	0.09938021
32	0x3d85f011	0.0653993
33	0x3e856418	0.26052928
34	0x3d00b3bf	0.03142142
35	0x3df46282	0.119328514
36	0x3c54bf7e	0.012985108
37	0x3d16b4d6	0.036793552
38	0x3dcef453	0.10105195
39	0x3dcd6ee9	0.1003092
40	0x3da6f001	0.08151246
41	0x3d3c09ee	0.045907907
42	0x3c78893c	0.015169438
43	0x3d0cc2ee	0.034365587
44	0x3c610a57	0.013735375
45	0x3d8999de	0.06718801
46	0x3dcad38f	0.09903633
47	0x3d3747d7	0.044746246
48	0x3ed533cf	0.4164109
49	0x3d5a4ee9	0.05329791
50	0x3e42a60b	0.19008653
51	0x3d54296b	0.05179731
52	0x3dd9ef6b	0.106413685
53	0x3d9332f4	0.07187453
54	0x3d9f3f24	0.07775715
55	0x3e65c31c	0.2243771
56	0x3c560595	0.013062854
57	0x3e0c6635	0.13710864
58	0x3db9ea54	0.09077898
59	0x3e2e2122	0.17004827
60	0x3d091eb3	0.033476543
61	0x3e1745d2	0.14772728
62	0x3f09144c	0.53546596
63	0x3e4c05a3	0.19924025
